egnn_model_mse=1.pth (torch, 305442 bytes, 12 tensors)

input_proj.weight f4 [256]
000000 0e c3 97 bf 0e 4b 94 3d 26 09 a4 bf 49 20 27 3f
       -1.1856401 0.07240878 -1.2815292 0.6528364
000010 4a 8f 88 3f a3 a6 59 3f d8 03 05 bf 93 b5 c5 3b
       1.0668728 0.8501989 -0.5195899 0.006033608
000020 47 a8 15 bf fe e2 9c bf d9 9d af 3f 4d ce bc 3f
       -0.58459896 -1.2256773 1.3720046 1.4750458
000030 9c d1 22 bf 4c fa bc bf 31 30 8c bf a2 c1 10 bf
       -0.6360109 -1.4763885 -1.0952207 -0.5654546
000040 89 c3 33 3f 35 5a 1d c0 59 1c 0e bf c7 b0 32 bd
       0.7022024 -2.4586308 -0.55512005 -0.04362562
000050 9e b2 9d 3f 0a a2 13 bf ce 0c 4a bf f1 a6 4b 3f
       1.2320135 -0.57669127 -0.7892579 0.7955161
000060 78 23 8f 3f 66 ae 16 c0 ec 00 15 3f b6 56 ba 3f
       1.1182699 -2.3543944 0.5820453 1.4557712
000070 4b ef d0 bf 9f 87 2e 3f 70 85 b9 bf bb 0c 23 3e
       -1.6323026 0.6817569 -1.4493847 0.15922825
000080 ca e7 b7 3d 30 44 a9 be a1 82 e5 3f 11 4a a4 3f
       0.08979757 -0.33059835 1.793049 1.2835103
000090 ff f2 60 3e f0 c3 c0 3f 0b 1d 20 3f 75 b9 e9 3f
       0.21967696 1.5059795 0.62544316 1.8259722
0000a0 fe a2 50 3e 96 03 98 bd 1a c2 38 bf 16 88 04 40
       0.20374677 -0.07422559 -0.72171175 2.070806
0000b0 80 34 78 bf 6a 6c 96 3e fa 7e 95 3e 5e 1f 82 3e
       -0.9695511 0.29379588 0.29198438 0.25414556
0000c0 53 63 99 bf ab 63 2f 40 8c 24 09 c0 08 5d 30 40
       -1.1983436 2.7404583 -2.1428556 2.7556782
0000d0 ba 00 91 bd 9c 75 b2 bd 11 c0 33 3f f9 a2 8d bf
       -0.07080217 -0.087138385 0.70214945 -1.106536
0000e0 9a 8d db 3f d9 d1 ab bf 6b 32 1c 3e 71 a5 25 3f
       1.7152588 -1.3423415 0.15253608 0.6470557
0000f0 0f bf a8 3f 51 5f 9d 3f 3e c8 ad bf 18 33 cc bf
       1.3183306 1.2294713 -1.3576734 -1.5953093
000100 78 91 a7 bf 71 53 0e 40 e8 73 dc be 6d 4f d4 be
       -1.3091269 2.2238429 -0.4305718 -0.41466847
000110 03 89 b1 3e f6 db 94 bf a0 3e 9a bf 20 2a 8e bf
       0.34674844 -1.1629627 -1.2050362 -1.1106606
000120 c5 0b 0f be f7 a3 50 3f 44 28 24 40 a0 c0 a1 3c
       -0.13969333 0.8150019 2.5649576 0.019745171
000130 54 1b 79 3f f3 6f a2 3e 83 a3 bd 3e 6c f6 67 bf
       0.97307324 0.31726035 0.37038812 -0.90610385
000140 8f d3 90 be 63 cf 1b 3f c3 e5 21 bf 61 08 5c 3f
       -0.28286406 0.6086332 -0.63241214 0.85950285
000150 9a da e0 3f c0 08 6d bf 56 30 c7 3f ae 6e 6e bf
       1.7566712 -0.92591476 1.5561626 -0.93137634
000160 91 f9 84 be 22 f2 e2 bf f2 fd 68 bf 37 e1 92 3f
       -0.25971654 -1.7730143 -0.9101249 1.147498
000170 5e a2 ad 3d e8 62 a1 bf af 5d b8 bf 0c 12 c7 3f
       0.08478235 -1.2608309 -1.440359 1.5552382
000180 1f db 6d 3e 8c 6a 20 3f 50 37 83 3f 33 2a da 3e
       0.2322812 0.6266258 1.0251255 0.4261032
000190 cf cc 27 bf b0 95 98 3e ec 94 94 3f 95 f3 a2 bf
       -0.6554689 0.29801702 1.1607947 -1.2730585
0001a0 a8 a3 54 3f 81 44 2e 40 63 95 3e bf 26 1d 45 bf
       0.8306222 2.7229311 -0.74446696 -0.769976
0001b0 94 ab 09 bf cb 5e 66 bf 46 9c 78 3f 51 87 9c bf
       -0.5377743 -0.8998839 0.97113454 -1.2228795
0001c0 f4 8d 03 40 bf 3d 83 3e e3 7c e6 bf 97 d4 f7 bf
       2.0555391 0.25633046 -1.8006862 -1.9361752
0001d0 64 7f 4d bf 37 63 8d 3f dd a1 94 bc c3 0e ab bf
       -0.8027251 1.1045903 -0.018143589 -1.336388
0001e0 12 a7 6c 3e cd 1c bc 3e 98 48 b1 3f 3b bf bc bf
       0.23110607 0.36740723 1.3850279 -1.4745859
0001f0 74 50 f5 bf 8f 88 7c 3d c6 e5 c2 bf fd b0 af 3e
       -1.9165177 0.06165367 -1.5226371 0.3431472
000200 cf 4f 23 bf 8e a4 48 bf 2f 69 14 3f 83 d3 43 bf
       -0.63793653 -0.7837609 0.57973 -0.76494616
000210 c6 55 5a bd 2e 1a 12 c0 f7 ac 20 3f f8 17 de be
       -0.053304456 -2.282848 0.62763923 -0.43377662
000220 32 6d 07 3d 0f 8e 79 be 22 c5 76 3f 67 49 1a 3f
       0.03306312 -0.24370597 0.9639455 0.60268253
000230 e1 b0 71 bf 62 1f a7 3f 38 b4 c2 3e 82 42 aa bf
       -0.9441052 1.3056452 0.3802812 -1.3301547
000240 41 0c e4 bd ed f1 eb 3c 53 48 80 3f b0 5c 10 3f
       -0.1113515 0.028801883 1.0022072 0.5639143
000250 43 48 90 3f b9 55 a5 bc ff a5 cc 3e 46 45 ff be
       1.1272053 -0.020182477 0.39970395 -0.4985754
000260 b1 92 02 c0 fd 8a 49 bf 16 c4 9a 3e 68 fb 64 3f
       -2.0402033 -0.78727704 0.30227727 0.89446115
000270 77 48 67 bf 79 b9 1b 3f 4b 59 91 3f 50 a4 46 bc
       -0.9034495 0.60829884 1.1355375 -0.012124136
000280 57 77 24 3f e1 57 90 bf 0a 8f 0a 3f b2 ba b2 bf
       0.642446 -1.1276819 0.5412451 -1.3963225
000290 49 4c d4 3f 53 ad 6d 3e 3e 1b 91 bf c9 9f a4 3f
       1.658578 0.23210649 -1.1336439 1.2861263
0002a0 e8 77 42 bf 04 1c 4c 3f 2f 6a 42 bd 76 1b b4 3f
       -0.7596421 0.7973025 -0.047464546 1.407088
0002b0 ed 10 90 3f d0 03 db 3c cb 68 fb be e2 bb ec 3f
       1.1255165 0.026735216 -0.49103388 1.8494837
0002c0 b7 8b 93 bf 4d be b5 bf 61 60 c2 be b7 60 78 bf
       -1.1527013 -1.41987 -0.37964156 -0.97022575
0002d0 80 2f a2 be 3d 1c 0d 3f 22 de e4 3e 18 0d fd 3f
       -0.31676865 0.55121213 0.44700724 1.9769621
0002e0 d1 3e 59 3f 39 45 08 3f 75 65 48 3f b8 de fa bf
       0.84861475 0.53230625 0.7827981 -1.9599218
0002f0 c2 d7 f8 3e a1 f3 f7 be c3 ea 2a 3d 2e d2 18 c0
       0.4860211 -0.48428062 0.041727792 -2.3878284
000300 1b f6 f5 3f 70 40 b4 3f e3 f7 17 c0 06 2b 96 be
       1.921573 1.4082165 -2.3745048 -0.293297
000310 78 2e 0e bf cf 8d a1 bf 7d b6 8a bf 3a 7c a1 be
       -0.55539656 -1.2621402 -1.0836941 -0.3154009
000320 b1 d5 a3 3f fc de fd 3a 7a 59 e3 bc 9f 77 7f 3f
       1.2799588 0.0019368823 -0.027752627 0.997919
000330 56 64 61 bf 45 c5 79 bf 13 fb d3 3e 0c 0f 01 3f
       -0.88043725 -0.97566634 0.41402492 0.50413585
000340 d5 35 66 3e 18 6d 43 be 7c df 63 3f 19 5e 1c 3f
       0.22481473 -0.19084585 0.89012885 0.6108108
000350 1f f6 75 3f e2 cf 2a be 5e 7e a7 3f c3 5a ca bf
       0.96078676 -0.16680863 1.3085439 -1.5808948
000360 59 bb 79 bf a8 ad 10 be 52 43 19 3f c8 ab 4c bf
       -0.97551495 -0.14128745 0.5986835 -0.7994962
000370 64 40 9d 3e 37 2c e8 3d 61 9e 61 3f 7b 91 a5 bf
       0.3071319 0.11336558 0.8813229 -1.2935022
000380 32 08 a6 bd 51 a8 39 bf 30 80 0d 3f 87 cf e1 be
       -0.08107032 -0.72522455 0.55273724 -0.44103643
000390 e3 d0 ca 3f a2 4f 83 3f 35 83 d0 3e 6c ef a8 bf
       1.5844997 1.0258677 0.40725103 -1.3198066
0003a0 38 51 03 be 94 f5 ba 3e 3c f8 45 bf f0 5d 21 3f
       -0.12823951 0.36515486 -0.773319 0.6303396
0003b0 93 6a 0b c0 bc 74 28 bf 44 b3 99 be ea d7 55 3f
       -2.1783798 -0.6580312 -0.3001958 0.83532584
0003c0 2c 37 24 3d 93 28 e0 3d c4 d5 f3 bf c8 6e 0d c0
       0.04009168 0.10945239 -1.9049611 -2.2098866
0003d0 39 b6 b9 bf 39 6c 3e bd 0a 58 d5 3e 64 c4 ac bf
       -1.4508735 -0.046489928 0.4166873 -1.3497434
0003e0 3d 44 86 3f c1 23 c3 3e 4d ef f6 3e 76 62 67 bf
       1.0489575 0.38113216 0.48229447 -0.90384614
0003f0 66 a1 c1 3e da 0e 86 3f 19 50 7f bf 3d 9f a0 3d
       0.3781845 1.0473282 -0.99731594 0.07842872

input_proj.output_mask f4 [64]
000000 00 00 80 3f 00 00 80 3f 00 00 80 3f 00 00 80 3f
       1.0 1.0 1.0 1.0
000010 00 00 80 3f 00 00 80 3f 00 00 80 3f 00 00 80 3f
       1.0 1.0 1.0 1.0
000020 00 00 80 3f 00 00 80 3f 00 00 80 3f 00 00 80 3f
       1.0 1.0 1.0 1.0
000030 00 00 80 3f 00 00 80 3f 00 00 80 3f 00 00 80 3f
       1.0 1.0 1.0 1.0
000040 00 00 00 00 00 00 00 00 00 00 00 00 00 00 00 00
       0.0 0.0 0.0 0.0
000050 00 00 00 00 00 00 00 00 00 00 00 00 00 00 00 00
       0.0 0.0 0.0 0.0
000060 00 00 00 00 00 00 00 00 00 00 00 00 00 00 00 00
       0.0 0.0 0.0 0.0
000070 00 00 00 00 00 00 00 00 00 00 00 00 00 00 00 00
       0.0 0.0 0.0 0.0
000080 00 00 00 00 00 00 00 00 00 00 00 00 00 00 00 00
       0.0 0.0 0.0 0.0
000090 00 00 00 00 00 00 00 00 00 00 00 00 00 00 00 00
       0.0 0.0 0.0 0.0
0000a0 00 00 00 00 00 00 00 00 00 00 00 00 00 00 00 00
       0.0 0.0 0.0 0.0
0000b0 00 00 00 00 00 00 00 00 00 00 00 00 00 00 00 00
       0.0 0.0 0.0 0.0
0000c0 00 00 00 00 00 00 00 00 00 00 00 00 00 00 00 00
       0.0 0.0 0.0 0.0
0000d0 00 00 00 00 00 00 00 00 00 00 00 00 00 00 00 00
       0.0 0.0 0.0 0.0
0000e0 00 00 00 00 00 00 00 00 00 00 00 00 00 00 00 00
       0.0 0.0 0.0 0.0
0000f0 00 00 00 00 00 00 00 00 00 00 00 00 00 00 00 00
       0.0 0.0 0.0 0.0

layers.0.0.weight f4 [24576]
000000 a8 84 87 be da 4a a5 bf ef 97 cf 3d 95 64 09 be
       -0.26468396 -1.2913468 0.10136401 -0.13417275
000010 08 9d 9e 3e b9 20 91 3f e2 04 e9 3f 99 45 97 3e
       0.3097918 1.1338111 1.8204615 0.29545286
000020 f2 b9 53 3f d5 42 a9 3e d2 a5 8e bf 88 a7 fe be
       0.82705605 0.330588 -1.1144354 -0.4973719
000030 80 32 dc bf 7e f0 84 bf fe c4 4f bf e2 db 52 3f
       -1.7202911 -1.0385892 -0.8115996 0.82366765
000040 df 62 30 3f 73 fe ac be 09 72 95 bf 3c 85 74 3f
       0.68900865 -0.3378788 -1.1675426 0.955158
000050 bf 3a 19 bf 9c 33 b0 bf d3 ee 31 bf fa 19 43 3d
       -0.59855264 -1.376575 -0.6950504 0.047632195
000060 84 3e df 3e 7a c9 f6 bc f4 a3 57 3f 16 36 66 bf
       0.43602383 -0.030125368 0.8423455 -0.8992628
000070 27 aa f4 3e c0 04 8b bf 6c 04 53 bf 4f 67 04 3f
       0.47786066 -1.0860825 -0.8242862 0.51720136
000080 54 b5 3a 3f 48 c4 52 bf 29 bf 46 3e 6f 9c 0c be
       0.72932935 -0.8233075 0.1940886 -0.1373155
000090 f2 82 52 be 97 ee 0f 3e c2 a6 f2 bd 70 e2 de bf
       -0.20557764 0.14055859 -0.11848213 -1.7412853
0000a0 3a 6c b6 3e 6a 4f b5 3e 19 a9 e8 bf 29 97 e7 be
       0.35629445 0.3541215 -1.8176605 -0.45232514
0000b0 e0 57 8e bf 91 b7 7e 3e 38 d9 0c bf 34 60 92 3f
       -1.1120567 0.24874713 -0.5501895 1.1435609
0000c0 89 25 da 3e dc bb 5b 3f 86 c8 97 bf cd 32 eb 3e
       0.42606762 0.85833526 -1.185807 0.45937195
0000d0 ca 04 3a bf 7a 12 b4 be 31 f8 8f 3f c2 a7 4b 3f
       -0.7266356 -0.35170346 1.1247617 0.79552853
0000e0 4a 35 1a 3e b8 ba e6 be ce de 8e be dc b6 40 3f
       0.1505939 -0.4506433 -0.2790436 0.7527902
0000f0 64 4b 31 bf 4a 95 24 3f 79 88 17 bf 01 29 16 bf
       -0.6925566 0.642903 -0.59192616 -0.58656317
000100 db bc 0c bf 54 fa 9b bd d1 06 97 bf 9f 75 91 3f
       -0.5497567 -0.07616106 -1.1798955 1.136402
000110 a7 51 a9 3f 2d 82 7c bf 53 c8 b3 be b3 d4 b9 3f
       1.3228043 -0.9863613 -0.35113773 1.4518036
000120 b5 df 7a bc 92 96 e7 be 0c 6b 1d bd 42 9a 2a bf
       -0.015312125 -0.45232064 -0.038432166 -0.6664163
000130 86 f1 50 3f f6 f7 d5 3d a7 7e 96 ba a6 0e 0e 3f
       0.81618536 0.104476854 -0.0011481837 0.554911
000140 64 6c 25 3d 51 ae e1 be 9c 73 28 3f 94 89 bf 3f
       0.040386572 -0.44078305 0.65801406 1.496386
000150 fe e1 b1 bf 26 d5 c6 be eb 09 50 3f 4e 69 49 3f
       -1.3897092 -0.38834494 0.81265134 0.7867631
000160 ff 1e 19 3f 1d d1 51 3e 17 dc a8 be 83 44 01 c0
       0.5981292 0.20489927 -0.32980415 -2.0198066
000170 d3 7e 06 c0 d6 56 5d bf 83 19 83 bf 34 ac 17 40
       -2.1014907 -0.86460626 -1.024216 2.3698854
000180 e0 d1 91 bf 62 9f 42 bf 3d 63 ba 3e 8c 8e b0 bf
       -1.1392174 -0.7602445 0.36403838 -1.3793502
000190 06 28 50 be cc 67 c8 bf 43 7a 71 3e a3 42 e8 be
       -0.20327768 -1.5656676 0.23581795 -0.4536334
0001a0 eb 16 2a bf db 92 96 bf 36 8c e3 3f 1f 6f 9e bd
       -0.6644122 -1.1763567 1.7777164 -0.077360384
0001b0 3c 2a 3c 40 5b 38 1f 3f 35 17 4d be 52 25 a1 bf
       2.9400778 0.62195367 -0.20028384 -1.2589514
0001c0 df 55 c9 be 2d bb 67 3f 9a 81 07 bf 94 03 45 3f
       -0.39323327 0.9051998 -0.5293213 0.76958585
0001d0 40 da 06 bf 38 fb 40 bf ef 82 bb bd d8 95 3c 40
       -0.52676773 -0.7538333 -0.09155833 2.9466457
0001e0 4d 15 eb 3d 90 7a 1d 3e 55 f7 e8 3f cc 30 85 3f
       0.11478672 0.15378785 1.820048 1.0405517
0001f0 f7 41 94 3f b1 92 6f bd 52 30 52 bd 88 4a 82 3f
       1.1582631 -0.058489505 -0.051315613 1.0178995
000200 da d1 4c c0 eb 4a 04 be 57 c3 bc 3d 5e 6f 23 3f
       -3.2003083 -0.12919204 0.092169456 0.6384181
000210 99 5c 33 be 03 33 4b bf cd 9c 9c 3f 76 99 50 bf
       -0.17515792 -0.7937471 1.2235352 -0.8148416
000220 32 a8 14 3f 43 26 ac bf 26 e2 ae bd f6 b6 c8 3e
       0.58069146 -1.3449177 -0.08539228 0.39202088
000230 c2 2c 4a 3f b0 bc 07 3f c1 dc 8a bf 4b a9 5d bf
       0.78974545 0.5302229 -1.0848619 -0.86586446
000240 6e 99 5c 3f d1 95 f6 3e f5 21 cc 3a b7 fe 3d bf
       0.86171615 0.48161176 0.0015574085 -0.7421679
000250 31 31 82 3f 38 3c e8 bd f8 0f f7 bd aa 02 6a 3e
       1.0171262 -0.11339611 -0.12063593 0.22852579
000260 2f a7 c6 bd 85 3e d1 bf 1b d5 0b bf 29 ca d8 3e
       -0.096998565 -1.6347204 -0.5462205 0.42341736
000270 be 42 3b 3b 3d af a6 bf ca bf 39 3f fd 34 2c 3f
       0.0028573717 -1.3022228 0.7255827 0.67268354
000280 8e 15 1d 3d 05 39 0a 40 df 63 c3 3e e0 aa 9e bf
       0.038350634 2.1597302 0.38162133 -1.2395897
000290 0f 8b 8f be 0f b4 9e 3e 8c 60 9f be 53 66 bb 3f
       -0.2803578 0.3099675 -0.31128347 1.4640602
0002a0 9a e4 c5 3f f7 be 84 bf 57 d9 61 3e 02 1e 96 be
       1.5460389 -1.0370778 0.22055565 -0.2931977
0002b0 1f c4 18 bf 62 5d d2 3f 08 5f 48 3e e2 81 a1 bf
       -0.5967426 1.6434748 0.19567502 -1.2617762
0002c0 21 a5 bf 3e 61 04 d4 3f 0f 87 e9 3d be 70 ee be
       0.3743067 1.6563836 0.114027135 -0.4657039
0002d0 2c b8 87 bf 54 c4 52 bf 6b 73 14 40 88 57 0f 3f
       -1.060308 -0.8233082 2.3195446 0.5599294
0002e0 4f 37 3c bf 07 54 25 bf 80 76 ae 3e 04 ee d8 3e
       -0.73521894 -0.6458134 0.34074783 0.42369092
0002f0 6b 50 92 bf f2 b4 2f 3e b6 9f 86 bf c1 29 1a 3c
       -1.1430792 0.17158869 -1.051749 0.009409369
000300 aa 67 ce 3f 1f 99 72 3e 39 f0 93 3e 3a 76 99 bf
       1.6125386 0.23691224 0.28894213 -1.1989205
000310 c3 d6 d2 bf 39 17 1f 3e 98 a3 5b 3e a4 64 40 3f
       -1.647179 0.15536202 0.21449125 0.75153565
000320 73 a4 ec bd 5a c8 21 3f 1b 0b 02 be 51 3e c7 bf
       -0.11554804 0.6319634 -0.12699549 -1.5565892
000330 9c 71 a1 bf ec 28 f0 3e 1a 93 21 3e fe a0 f4 be
       -1.2612796 0.4690622 0.15778771 -0.47779077
000340 a2 6e 84 3f 9e 98 97 be bd 6b ae 3f a7 f9 a5 3f
       1.0346262 -0.29608625 1.3626629 1.2966813
000350 d7 04 05 3f 80 e3 b2 3f 92 ee a0 3e 6b af 99 bf
       0.5196051 1.3975677 0.31432015 -1.2006658
000360 2c 63 74 bf d2 70 08 3f a8 5e a4 3f 9c dd 7b 3e
       -0.95463824 0.5329715 1.2841387 0.24596256
000370 08 aa ea bf a3 24 41 bf 64 c0 79 3f c6 4b 9e be
       -1.833314 -0.7544653 0.9755919 -0.30917186
000380 e7 41 bb 3e e6 94 43 3f 2e 74 4e 3f cd 5b 1e 3f
       0.36573717 0.76399076 0.80646026 0.61858827
000390 e1 3f c1 bf 4d 07 94 3e f1 0a 9f be 72 8f fd 3e
       -1.5097619 0.2891182 -0.31063035 0.49523503
0003a0 74 cc bd 3e 5f f0 dc bf ae be 6e bf 1c c7 39 c0
       0.37070048 -1.7260855 -0.93259704 -2.9027777
0003b0 91 0b a6 be 7f 9f b3 3e da be a0 3f 7e 3e 70 3e
       -0.324307 0.35082623 1.2558243 0.23461339
0003c0 71 4a 3b bd f1 7b 85 bf 4d b8 5c bf a1 5a 9d 3e
       -0.04572529 -1.0428449 -0.8621872 0.30733207
0003d0 e2 db 53 3f 2f f9 a8 3e f1 43 fe bd c2 c0 7f bf
       0.8275739 0.33002612 -0.124153025 -0.999035
0003e0 9f 71 2b bf 77 c0 cd bf 55 5e 8c bd 2d 94 1e 3f
       -0.6697025 -1.6074361 -0.0685393 0.6194485
0003f0 59 95 19 c0 75 f9 9a be 2d 49 28 be 76 de 8e be
       -2.3997405 -0.30268446 -0.16434164 -0.279041

layers.0.0.output_mask f4 [80]
000000 00 00 80 3f 00 00 80 3f 00 00 80 3f 00 00 80 3f
       1.0 1.0 1.0 1.0
000010 00 00 80 3f 00 00 80 3f 00 00 80 3f 00 00 80 3f
       1.0 1.0 1.0 1.0
000020 00 00 80 3f 00 00 80 3f 00 00 80 3f 00 00 80 3f
       1.0 1.0 1.0 1.0
000030 00 00 80 3f 00 00 80 3f 00 00 80 3f 00 00 80 3f
       1.0 1.0 1.0 1.0
000040 00 00 80 3f 00 00 80 3f 00 00 80 3f 00 00 80 3f
       1.0 1.0 1.0 1.0
000050 00 00 80 3f 00 00 80 3f 00 00 80 3f 00 00 80 3f
       1.0 1.0 1.0 1.0
000060 00 00 80 3f 00 00 80 3f 00 00 80 3f 00 00 80 3f
       1.0 1.0 1.0 1.0
000070 00 00 80 3f 00 00 80 3f 00 00 80 3f 00 00 80 3f
       1.0 1.0 1.0 1.0
000080 00 00 80 3f 00 00 80 3f 00 00 80 3f 00 00 80 3f
       1.0 1.0 1.0 1.0
000090 00 00 80 3f 00 00 80 3f 00 00 80 3f 00 00 80 3f
       1.0 1.0 1.0 1.0
0000a0 00 00 80 3f 00 00 80 3f 00 00 80 3f 00 00 80 3f
       1.0 1.0 1.0 1.0
0000b0 00 00 80 3f 00 00 80 3f 00 00 80 3f 00 00 80 3f
       1.0 1.0 1.0 1.0
0000c0 00 00 80 3f 00 00 80 3f 00 00 80 3f 00 00 80 3f
       1.0 1.0 1.0 1.0
0000d0 00 00 80 3f 00 00 80 3f 00 00 80 3f 00 00 80 3f
       1.0 1.0 1.0 1.0
0000e0 00 00 80 3f 00 00 80 3f 00 00 80 3f 00 00 80 3f
       1.0 1.0 1.0 1.0
0000f0 00 00 80 3f 00 00 80 3f 00 00 80 3f 00 00 80 3f
       1.0 1.0 1.0 1.0
000100 00 00 80 3f 00 00 80 3f 00 00 80 3f 00 00 80 3f
       1.0 1.0 1.0 1.0
000110 00 00 80 3f 00 00 80 3f 00 00 80 3f 00 00 80 3f
       1.0 1.0 1.0 1.0
000120 00 00 80 3f 00 00 80 3f 00 00 80 3f 00 00 80 3f
       1.0 1.0 1.0 1.0
000130 00 00 80 3f 00 00 80 3f 00 00 80 3f 00 00 80 3f
       1.0 1.0 1.0 1.0

layers.0.1.mul.output_mask f4 [48]
000000 00 00 80 3f 00 00 80 3f 00 00 80 3f 00 00 80 3f
       1.0 1.0 1.0 1.0
000010 00 00 80 3f 00 00 80 3f 00 00 80 3f 00 00 80 3f
       1.0 1.0 1.0 1.0
000020 00 00 80 3f 00 00 80 3f 00 00 80 3f 00 00 80 3f
       1.0 1.0 1.0 1.0
000030 00 00 80 3f 00 00 80 3f 00 00 80 3f 00 00 80 3f
       1.0 1.0 1.0 1.0
000040 00 00 80 3f 00 00 80 3f 00 00 80 3f 00 00 80 3f
       1.0 1.0 1.0 1.0
000050 00 00 80 3f 00 00 80 3f 00 00 80 3f 00 00 80 3f
       1.0 1.0 1.0 1.0
000060 00 00 80 3f 00 00 80 3f 00 00 80 3f 00 00 80 3f
       1.0 1.0 1.0 1.0
000070 00 00 80 3f 00 00 80 3f 00 00 80 3f 00 00 80 3f
       1.0 1.0 1.0 1.0
000080 00 00 80 3f 00 00 80 3f 00 00 80 3f 00 00 80 3f
       1.0 1.0 1.0 1.0
000090 00 00 80 3f 00 00 80 3f 00 00 80 3f 00 00 80 3f
       1.0 1.0 1.0 1.0
0000a0 00 00 80 3f 00 00 80 3f 00 00 80 3f 00 00 80 3f
       1.0 1.0 1.0 1.0
0000b0 00 00 80 3f 00 00 80 3f 00 00 80 3f 00 00 80 3f
       1.0 1.0 1.0 1.0

layers.1.0.weight f4 [24576]
000000 0f b2 db be e4 32 8e ba 08 2d b4 3f 27 31 83 bd
       -0.42909285 -0.0010848907 1.4076242 -0.064058594
000010 89 cb 10 40 6a 77 5c bf 2d 12 76 bd a0 62 9d bf
       2.2624228 -0.8611971 -0.060075928 -1.2295723
000020 e2 9e 06 3f 8b f4 6d 3f e6 78 9b be 22 a4 ee bf
       0.52586186 0.9295127 -0.30365676 -1.8643839
000030 8f 1c 28 c0 27 03 9c be ff 75 82 3e a6 52 a7 3f
       -2.626743 -0.30471155 0.2548065 1.3072097
000040 0f 3d 71 bf 8a 47 0e 3f 40 90 85 3f 3a a0 19 3f
       -0.94233793 0.5557791 1.0434647 0.6001011
000050 fd 59 05 3e d0 4c a6 3f 02 ff 39 3f e3 cf 92 bf
       0.13022609 1.2992191 0.72654736 -1.1469692
000060 0c 97 80 bf de a4 52 3f ef cc 02 c0 17 17 28 be
       -1.0046096 0.8228282 -2.0437582 -0.16415058
000070 89 42 68 3f af bf e0 3e 42 da a7 bf 3f 12 53 bd
       0.90726525 0.43896243 -1.3113482 -0.051531073
000080 da 36 39 bf a9 f0 a5 3f 84 8f 1f 3f c3 21 25 bf
       -0.7234932 1.2964069 0.6232836 -0.6450464
000090 d1 fe 1b 3f 74 80 f5 bd 4b 07 c1 be 0f a1 05 bf
       0.60935694 -0.11987391 -0.37700877 -0.5219888
0000a0 b1 16 99 3e 46 ed d3 3f 55 58 eb 3e ad 41 1d c0
       0.29900125 1.6556785 0.4596583 -2.4571335
0000b0 54 eb 4e be 54 b9 77 3f d5 cf 49 3f b4 de 9d 3f
       -0.20206958 0.96767163 0.7883275 1.2333589
0000c0 83 ed 6d 3f d4 f9 79 3e b0 b9 06 bf 99 1c 8f 3f
       0.9294054 0.24411708 -0.52627087 1.1180602
0000d0 62 2b 45 bf ad 3b 83 3f 24 55 a9 be 1c bd 1a 3f
       -0.7701932 1.0252587 -0.3307277 0.6044481
0000e0 a3 ae 29 3f 8c 0f c8 3e 58 77 17 3f a9 26 9e be
       0.662821 0.3907436 0.5916648 -0.3088887
0000f0 93 1b 48 bf fa a2 4b bf 6b 39 8e 3f 2c 84 32 bf
       -0.78167075 -0.7954556 1.1111273 -0.6973293
000100 20 5f 97 3f 5d 0d 7b bf fd e5 a8 be 28 77 53 bf
       1.1825905 -0.98067266 -0.32987967 -0.82603693
000110 4a 52 7a 3e 0c ff ba 3f b5 21 15 3f f5 72 0d 3f
       0.24445453 1.4609084 0.5825456 0.55253536
000120 e1 7d 2b be cd 7b 18 bf a5 98 b5 be 4a 63 39 40
       -0.16747238 -0.59563905 -0.3546802 2.8966851
000130 47 d3 ad bf 76 85 0e be 1d dd de 3f 5f 79 19 40
       -1.3580102 -0.13918099 1.7411228 2.398033
000140 e1 41 1a 3e b4 ee 08 bf 03 f2 c5 be 19 00 4e be
       0.15064193 -0.5348923 -0.38661203 -0.20117225
000150 ce 41 d1 3e ca 6d e3 3e 54 55 ca 3f 18 2b 95 3e
       0.40870517 0.444197 1.580729 0.2913444
000160 7e 66 3c 3f 69 d2 94 3f 4a bb 9f be 74 c7 a4 3f
       0.7359389 1.1626712 -0.31197578 1.2873368
000170 06 11 6d 3e 5f bf 32 be ec f0 95 bf 31 bd 3a 3f
       0.23151025 -0.17455815 -1.1714149 0.72944933
000180 00 df c2 bf b7 3e 8e bf 35 d1 65 3e f4 7f fa bf
       -1.5224304 -1.1112889 0.22443087 -1.9570298
000190 ca be 39 bf 0e 97 79 be ac e3 92 3e 08 8d 00 be
       -0.72556746 -0.24374029 0.28689325 -0.12553799
0001a0 bd e1 97 3f b3 f4 68 3f a4 52 52 bf b2 83 07 3f
       1.1865765 0.9099838 -0.8215735 0.52935326
0001b0 3d f8 6b bf b2 68 fc bf f1 0f 31 3e 9a a1 77 be
       -0.92175657 -1.971945 0.17291237 -0.2418274
0001c0 f5 b3 3b be 48 8d c1 bd 3b b4 79 3d 39 19 a3 bf
       -0.18330367 -0.094507754 0.060962897 -1.2742072
0001d0 1f 2f 92 bf 75 e5 25 bf e0 83 42 bf fd e5 f9 bf
       -1.142063 -0.6480325 -0.75982475 -1.9523312
0001e0 7a a9 c3 be 6c ba db bf 21 6d 90 be 0d 83 98 bf
       -0.38215238 -1.7166266 -0.2820826 -1.1914994
0001f0 37 aa e2 be 4b 47 38 bf 68 d7 62 bf b9 3e a7 bf
       -0.4427049 -0.71983784 -0.88609934 -1.3066016
000200 08 70 d5 3e b1 79 0d 40 59 90 21 3f 75 9e 3e bf
       0.41687036 2.2105525 0.6311088 -0.74460536
000210 97 11 46 bf 99 dd 84 3e fc e5 c7 3f 06 b3 b3 3e
       -0.7737059 0.25950316 1.5617061 0.35097522
000220 a3 9b 9b 3d fb 78 c8 3f a0 1c 02 bf 9d 6c b4 3f
       0.07598045 1.566192 -0.5082493 1.4095646
000230 71 cf f4 be 06 57 52 3e fe 9d c3 3e dc 39 3b be
       -0.47814515 0.2054101 0.38206476 -0.1828379
000240 ed 85 46 3e 6a a0 15 40 a5 f3 24 c0 9d 40 35 bf
       0.19387026 2.337916 -2.577371 -0.7080172
000250 f2 61 94 be 42 df 5f 3d 91 cb a5 bf 51 85 67 3f
       -0.28980976 0.054656275 -1.2952749 0.904378
000260 40 52 e0 3f 93 13 a1 bf 8f db 9f 3f cb e2 d4 bf
       1.7525101 -1.2584099 1.2488879 -1.6631712
000270 32 0b ad 3f 8d 3e bb 3f e3 81 3d 3f b3 1d 9e bf
       1.3519042 1.4628464 0.74026316 -1.2352813
000280 ee ab 17 3f 98 9d 9c be c6 0a 5e 3f ec 6e 85 3e
       0.5924672 -0.30588984 0.8673519 0.2606119
000290 4c 32 16 40 1e e3 e0 3e 82 6e 85 bf e1 b2 91 bf
       2.3468199 0.43923277 -1.0424349 -1.1382715
0002a0 d0 82 9f be 2b b5 95 3f e7 27 b9 3d 14 82 76 be
       -0.3115449 1.1695913 0.09040814 -0.24073058
0002b0 41 ed 84 bf 24 f3 04 3d 9c 9a aa bf be 0f 10 40
       -1.0384904 0.03245844 -1.3328433 2.2509608
0002c0 b7 96 dd bf 7a f7 83 bf 63 77 83 be cb b3 74 3e
       -1.731162 -1.0309899 -0.25677022 0.2389671
0002d0 0b f4 09 3e a6 90 ec be 6d ef 01 3f 60 ec a6 bf
       0.13472001 -0.46204108 0.5075596 -1.3040886
0002e0 ed 55 a9 3e 45 f0 35 40 1d f8 29 40 58 c3 c3 bd
       0.3307337 2.84279 2.6557686 -0.09558743
0002f0 d8 e9 b0 bf dc 33 97 3f 62 b3 05 bf e5 a5 bc 3e
       -1.3821363 1.1812701 -0.5222684 0.36845317
000300 50 9c 3e 3d d0 6f 12 bf 08 1f 40 3f 75 cb 3b 3f
       0.04653579 -0.5720186 0.7504735 0.73357326
000310 50 61 d3 bf 18 b2 9c bf f0 d8 4b 3e bc 55 6a 3e
       -1.6514072 -1.224185 0.19906974 0.22884268
000320 10 6e 6b bd 6c ca e9 3d 3d 31 13 bf 95 96 1b bf
       -0.05747801 0.11415562 -0.57497007 -0.60776645
000330 eb a5 9c 3d 90 f0 e5 3e 36 97 20 3f 57 14 45 3e
       0.07648834 0.44910097 0.6273073 0.1924604
000340 89 96 0b bd b9 a3 f0 3f 5c 26 f5 bc 81 05 49 3f
       -0.03407911 1.8799964 -0.029925518 0.78524023
000350 6e 14 d5 bf 97 83 e4 3e 97 ba 54 bf 04 83 40 3f
       -1.664686 0.44631645 -0.83097214 0.75199914
000360 0c 01 e7 3d fa 0f b3 3e 27 43 8f 3f 13 c0 e8 be
       0.112794966 0.34973127 1.1192368 -0.4545904
000370 53 c9 94 3f ba 6a ae 3e 9e d2 91 3e 71 3a f9 3f
       1.1623939 0.340658 0.28481 1.947096
000380 12 d4 ad 3f b9 0b 9b 3f 01 68 ad 3e 76 a3 be be
       1.3580344 1.2112952 0.3386841 -0.37234086
000390 d1 97 48 3e c1 7c 0c bf 8d 5a b7 bf 36 ff a9 3f
       0.19589163 -0.5487786 -1.4324509 1.3281009
0003a0 3f 9b 73 3f 2d b6 af 3f d1 72 49 3f 1f 02 91 bd
       0.9515876 1.3727471 0.7869082 -0.07080483
0003b0 36 50 28 be 85 c7 96 be 57 03 bb bf 40 ba e8 be
       -0.16436848 -0.29449096 -1.4610394 -0.45454597
0003c0 46 6a 0c 3f 9d aa 49 bf 99 02 84 3f c1 e2 83 3d
       0.5484966 -0.7877596 1.0313293 0.06439734
0003d0 21 f4 a9 bf ee 0f 52 3f 3a 4c b6 3f 84 27 85 bf
       -1.3277627 0.82055557 1.4242013 -1.0402684
0003e0 dd 63 33 be 31 7b 23 bf ca 63 24 ba 56 68 93 bf
       -0.17518564 -0.6385985 -0.0006270973 -1.1516216
0003f0 ec f8 44 3f 72 77 aa 3f 3f 48 f2 bf 5c 5f 18 c0
       0.76942325 1.3317702 -1.8928298 -2.3808203

layers.1.0.output_mask f4 [80]
000000 00 00 80 3f 00 00 80 3f 00 00 80 3f 00 00 80 3f
       1.0 1.0 1.0 1.0
000010 00 00 80 3f 00 00 80 3f 00 00 80 3f 00 00 80 3f
       1.0 1.0 1.0 1.0
000020 00 00 80 3f 00 00 80 3f 00 00 80 3f 00 00 80 3f
       1.0 1.0 1.0 1.0
000030 00 00 80 3f 00 00 80 3f 00 00 80 3f 00 00 80 3f
       1.0 1.0 1.0 1.0
000040 00 00 80 3f 00 00 80 3f 00 00 80 3f 00 00 80 3f
       1.0 1.0 1.0 1.0
000050 00 00 80 3f 00 00 80 3f 00 00 80 3f 00 00 80 3f
       1.0 1.0 1.0 1.0
000060 00 00 80 3f 00 00 80 3f 00 00 80 3f 00 00 80 3f
       1.0 1.0 1.0 1.0
000070 00 00 80 3f 00 00 80 3f 00 00 80 3f 00 00 80 3f
       1.0 1.0 1.0 1.0
000080 00 00 80 3f 00 00 80 3f 00 00 80 3f 00 00 80 3f
       1.0 1.0 1.0 1.0
000090 00 00 80 3f 00 00 80 3f 00 00 80 3f 00 00 80 3f
       1.0 1.0 1.0 1.0
0000a0 00 00 80 3f 00 00 80 3f 00 00 80 3f 00 00 80 3f
       1.0 1.0 1.0 1.0
0000b0 00 00 80 3f 00 00 80 3f 00 00 80 3f 00 00 80 3f
       1.0 1.0 1.0 1.0
0000c0 00 00 80 3f 00 00 80 3f 00 00 80 3f 00 00 80 3f
       1.0 1.0 1.0 1.0
0000d0 00 00 80 3f 00 00 80 3f 00 00 80 3f 00 00 80 3f
       1.0 1.0 1.0 1.0
0000e0 00 00 80 3f 00 00 80 3f 00 00 80 3f 00 00 80 3f
       1.0 1.0 1.0 1.0
0000f0 00 00 80 3f 00 00 80 3f 00 00 80 3f 00 00 80 3f
       1.0 1.0 1.0 1.0
000100 00 00 80 3f 00 00 80 3f 00 00 80 3f 00 00 80 3f
       1.0 1.0 1.0 1.0
000110 00 00 80 3f 00 00 80 3f 00 00 80 3f 00 00 80 3f
       1.0 1.0 1.0 1.0
000120 00 00 80 3f 00 00 80 3f 00 00 80 3f 00 00 80 3f
       1.0 1.0 1.0 1.0
000130 00 00 80 3f 00 00 80 3f 00 00 80 3f 00 00 80 3f
       1.0 1.0 1.0 1.0

layers.1.1.mul.output_mask f4 [48]
000000 00 00 80 3f 00 00 80 3f 00 00 80 3f 00 00 80 3f
       1.0 1.0 1.0 1.0
000010 00 00 80 3f 00 00 80 3f 00 00 80 3f 00 00 80 3f
       1.0 1.0 1.0 1.0
000020 00 00 80 3f 00 00 80 3f 00 00 80 3f 00 00 80 3f
       1.0 1.0 1.0 1.0
000030 00 00 80 3f 00 00 80 3f 00 00 80 3f 00 00 80 3f
       1.0 1.0 1.0 1.0
000040 00 00 80 3f 00 00 80 3f 00 00 80 3f 00 00 80 3f
       1.0 1.0 1.0 1.0
000050 00 00 80 3f 00 00 80 3f 00 00 80 3f 00 00 80 3f
       1.0 1.0 1.0 1.0
000060 00 00 80 3f 00 00 80 3f 00 00 80 3f 00 00 80 3f
       1.0 1.0 1.0 1.0
000070 00 00 80 3f 00 00 80 3f 00 00 80 3f 00 00 80 3f
       1.0 1.0 1.0 1.0
000080 00 00 80 3f 00 00 80 3f 00 00 80 3f 00 00 80 3f
       1.0 1.0 1.0 1.0
000090 00 00 80 3f 00 00 80 3f 00 00 80 3f 00 00 80 3f
       1.0 1.0 1.0 1.0
0000a0 00 00 80 3f 00 00 80 3f 00 00 80 3f 00 00 80 3f
       1.0 1.0 1.0 1.0
0000b0 00 00 80 3f 00 00 80 3f 00 00 80 3f 00 00 80 3f
       1.0 1.0 1.0 1.0

layers.2.0.weight f4 [24576]
000000 71 3d 98 3f e8 52 26 bf 95 66 0e bf e0 1d c7 be
       1.189375 -0.64970255 -0.5562528 -0.3888998
000010 a5 d4 db 3f 72 36 3e 3f ce 75 b6 bf 67 61 39 bf
       1.7174269 0.74301827 -1.4254701 -0.7241425
000020 3f 4e b0 3e fd 4a 75 bf 11 45 88 bf 79 08 04 3f
       0.34434697 -0.9581755 -1.0646077 0.5157543
000030 97 b7 d2 bf 4c 49 f6 bf e4 f1 a2 bf 8f 9a 21 bf
       -1.6462277 -1.9241118 -1.2730069 -0.6312646
000040 06 0d c9 3f d3 e1 a5 bf d3 16 53 3f 67 c0 0f bf
       1.57071 -1.2959541 0.824567 -0.5615296
000050 03 af 04 40 b7 18 2a be 9f 48 dd bf b2 bc a7 3e
       2.0731819 -0.1661099 -1.7287787 0.3276115
000060 b3 1d ad 3f 97 9b 8d bf 86 eb c6 bf 67 5a 0b 3f
       1.3524688 -1.1063107 -1.5540626 0.5443482
000070 a9 f6 ee bf 32 f0 2f 3f 52 f6 3f 3e 4f e8 54 3f
       -1.8669025 0.68725884 0.18746307 0.83166975
000080 b9 3e 86 3f d0 33 d0 be 8b 66 05 c0 51 21 9a 3f
       1.0487891 -0.4066453 -2.0843837 1.2041417
000090 a8 15 0e 3e f2 44 02 40 c7 b7 1f 3f 67 97 76 3f
       0.13875449 2.035458 0.62389797 0.9632477
0000a0 d7 1f 3b bf 46 b0 87 bf 52 6c ca bf 43 85 d6 3e
       -0.7309546 -1.0600669 -1.5814307 0.41898546
0000b0 fa e5 12 bf f8 65 40 3e 87 b5 8b be 2b 6e 18 bf
       -0.57382166 0.18788898 -0.27286932 -0.595431
0000c0 88 32 50 3f f5 aa e2 bf b3 50 93 be af 3f 5f c0
       0.81327105 -1.7708422 -0.28772506 -3.488262
0000d0 52 4f a1 3f 4f be e7 3e b7 a2 ba bf 3f d9 ea be
       1.2602332 0.4526238 -1.4580907 -0.4586887
0000e0 68 7a 05 40 35 c4 90 bf 91 cb e1 be 7e a6 46 3f
       2.085596 -1.1309878 -0.4410062 0.77597797
0000f0 49 6e b9 bf 49 b4 96 bf 0c 4d 55 3f 64 28 d9 be
       -1.4486781 -1.1773769 0.8332069 -0.42413628
000100 bb 90 82 3f 41 82 32 3f 4b fb 02 3e 1a 61 96 bf
       1.0200418 0.6973 0.12791173 -1.1748383
000110 96 d9 bc 3f 3e 2b ac 3f 2f 55 9d bf f1 c6 a3 3f
       1.4753902 1.3450696 -1.2291621 1.2795087
000120 24 a3 3f 40 50 3c 1b 3f 3e e3 59 bf e2 84 6d 3f
       2.9943323 0.60638905 -0.8511237 0.9278089
000130 bd 0d 0d c0 bb db 1d c0 83 d4 92 bf c6 5a 70 3f
       -2.2039635 -2.4665363 -1.1471103 0.9388851
000140 ba a7 a9 3e 2b e2 be 3d 0c 23 bb 3e c2 71 96 3f
       0.33135778 0.09320482 0.36550176 1.1753466
000150 2a f6 15 3f 21 3c 17 3f df 7b 9e be 31 0b 9d 3e
       0.5857874 0.59076124 -0.3095388 0.306726
000160 24 2c d2 3f 0a 7b 66 be 26 c0 ac 3f 08 03 91 be
       1.6419721 -0.22507873 1.3496139 -0.28322625
000170 24 f4 22 40 cb ab 96 bf 68 b0 f6 3d 23 2c ab 3e
       2.5461512 -1.1771177 0.120453656 0.3343211
000180 4a b0 9e be ab 84 10 3f 9b fd 78 3f d6 2d a2 3f
       -0.30993873 0.56452435 0.9726197 1.2670238
000190 a1 3d a4 3e f7 ce 8c 3f 65 73 92 3f d8 4f 1e c0
       0.3207827 1.1000661 1.1441466 -2.4736233
0001a0 98 5f a5 3f 87 6b e6 3e 30 27 ad be fa f0 b4 bf
       1.2919798 0.45003912 -0.3381896 -1.413604
0001b0 1c 6d 2e bf cb 3b 9b bd 41 fa fc 3f fd 89 c0 3e
       -0.6813524 -0.07579764 1.9763871 0.37605277
0001c0 35 a9 c8 3f 6c 0e 6c bf e4 0f 5c bf 17 44 a7 bf
       1.5676638 -0.92209506 -0.8596175 -1.3067654
0001d0 0f 0b 0d 40 8e bc 8b be 56 3c 49 3d d5 cd 48 40
       2.2038 -0.27292293 0.049129806 3.137563
0001e0 61 9f 73 be 6d 9e c9 3e bf fd f5 3e e5 4a a6 bf
       -0.23791267 0.39378682 0.48045155 -1.2991606
0001f0 0a 15 14 bf 6b 20 3e 3f 94 96 a2 be e0 88 95 bf
       -0.57844603 0.74268216 -0.31755507 -1.1682396
000200 e1 48 13 40 2f fa 1c bf 1d 45 ef 3e 20 88 03 3d
       2.3013232 -0.6131925 0.46732417 0.03211224
000210 fe 9d 2f 40 42 2b 67 3e a1 d6 6e 3e 4e 2c 09 bc
       2.744018 0.22575095 0.23324062 -0.0083723795
000220 55 93 9e be 98 8c 3e 3e 04 c4 ca 3e ac 9a 2f 3f
       -0.3097178 0.1860832 0.39602673 0.68595386
000230 d0 68 b8 3f 30 81 07 bf f8 08 eb 3d 0f f1 23 3f
       1.4406986 -0.529315 0.1147632 0.640397
000240 81 05 f4 3f 57 72 cd be d0 b9 58 3f 8d 75 c0 be
       1.906418 -0.40126297 0.8465853 -0.37589684
000250 37 f4 fa 3f 77 b0 82 bf 60 43 42 bc 1d 0a 0a 3e
       1.9605778 -1.0210103 -0.011856884 0.1348042
000260 30 0c b1 3f 4b fe 3f 3f fe d8 5e 3f 26 6f 5f 3f
       1.3831844 0.74997395 0.87049854 0.87278974
000270 41 3a 1e bd 53 90 9e be 9e aa f8 bd a2 2f 36 3d
       -0.038629774 -0.30969486 -0.12141918 0.04447902
000280 39 e5 35 3f 49 0c 82 be 68 b4 3d 3f d8 75 cf bf
       0.7105289 -0.25399998 0.74103403 -1.6207838
000290 e3 f2 35 3d b7 53 c2 3f 73 01 4b 3f 9e 8b d9 3e
       0.044421088 1.5181798 0.79299086 0.42489332
0002a0 c2 ab c7 be 5b 1f 4a bf 68 c5 b6 bf 6f 7a 02 bd
       -0.38998228 -0.78954095 -1.4278994 -0.031855043
0002b0 f5 92 91 be 73 10 27 bf fb 00 e0 be c5 3b db bf
       -0.28432432 -0.65259475 -0.43750748 -1.7127615
0002c0 04 93 9a 3f 3a d0 23 3f 0b 04 45 be fc c8 4d bf
       1.2076116 0.63989604 -0.19239824 -0.803848
0002d0 c3 01 46 3f 28 1d 29 3f 3b 7b 83 be 63 72 d2 be
       0.7734644 0.66060114 -0.25679955 -0.41102895
0002e0 d4 3f cf bd 49 34 80 3f 8e dd 85 bf 77 a3 97 3e
       -0.10119596 1.0015956 -1.0458238 0.296169
0002f0 c1 d0 d4 be e3 df c7 bf 5c d7 4e 3f b7 65 9e 3e
       -0.41565517 -1.56152 0.8079736 0.30936977
000300 b4 1d 9c 3f b0 80 2c c0 4c 22 41 3f 85 22 ab bd
       1.2196565 -2.6953545 0.7544296 -0.083561935
000310 ba f5 9c 3e 7b 86 75 bf 74 6d e3 3d a4 20 7a 3d
       0.30656224 -0.95908326 0.11104861 0.061066285
000320 4c 6c 18 bf 1f fb 81 bf 35 14 93 bf 23 f6 6a 3f
       -0.5954025 -1.0154761 -1.1490542 0.91781825
000330 3d 45 d7 bd 7f 1f 53 3d 78 da 47 3f 9e e8 c7 be
       -0.10511253 0.05154371 0.7806773 -0.3904466
000340 9e 94 8c 3f d6 36 b8 be 4f 4f af 3f 5b b9 80 be
       1.0982854 -0.35979337 1.3696078 -0.25141415
000350 00 40 2a 3e 1d 49 f1 bf 52 4d b5 bf 52 2c bb be
       0.16625977 -1.8850437 -1.4164221 -0.3655725
000360 49 48 6d be 03 84 01 3f 9c 9f 88 3f 95 13 06 40
       -0.23172106 0.5059206 1.0673709 2.0949452
000370 0e 6b ca 3f 9a 24 d6 bf 1a e2 b2 3e b6 6b 8d 3f
       1.581392 -1.672992 0.34938127 1.1048496
000380 40 e8 94 3f 54 09 67 bf 13 c7 16 3d 16 c0 0d 40
       1.1633377 -0.9024861 0.036810946 2.214849
000390 ee f1 22 bf 82 4f 8a 3f 32 e6 b3 bd 51 a0 1b bf
       -0.63650405 1.0805514 -0.08784141 -0.607915
0003a0 3d 41 cb bf 28 6a 0a 3d 08 e9 ed 3f c2 b1 c5 3e
       -1.5879284 0.033792645 1.858674 0.3861218
0003b0 3e 33 03 c0 7f 67 14 bf d1 cb 08 be 37 a7 ff 3f
       -2.0500026 -0.5797042 -0.13359 1.9972905
0003c0 88 4d 2a 3e 77 ba 8d bf ef d2 30 bf c5 b9 3e bf
       0.16631138 -1.107253 -0.6907186 -0.7450221
0003d0 1d f1 da 3f 5b 11 eb 3e 1b c3 eb be 0e 2e 0b 3f
       1.7104832 0.4591168 -0.4604729 0.5436715
0003e0 f2 e1 47 3f 7e b7 3c c0 61 37 a2 3e 5c 75 f2 bf
       0.7807914 -2.9486995 0.31682876 -1.8942065
0003f0 77 86 f2 be d2 d6 87 bf 3f ad bd bc 49 d0 12 be
       -0.47368214 -1.0612433 -0.0231539 -0.14337267

layers.2.0.output_mask f4 [80]
000000 00 00 80 3f 00 00 80 3f 00 00 80 3f 00 00 80 3f
       1.0 1.0 1.0 1.0
000010 00 00 80 3f 00 00 80 3f 00 00 80 3f 00 00 80 3f
       1.0 1.0 1.0 1.0
000020 00 00 80 3f 00 00 80 3f 00 00 80 3f 00 00 80 3f
       1.0 1.0 1.0 1.0
000030 00 00 80 3f 00 00 80 3f 00 00 80 3f 00 00 80 3f
       1.0 1.0 1.0 1.0
000040 00 00 80 3f 00 00 80 3f 00 00 80 3f 00 00 80 3f
       1.0 1.0 1.0 1.0
000050 00 00 80 3f 00 00 80 3f 00 00 80 3f 00 00 80 3f
       1.0 1.0 1.0 1.0
000060 00 00 80 3f 00 00 80 3f 00 00 80 3f 00 00 80 3f
       1.0 1.0 1.0 1.0
000070 00 00 80 3f 00 00 80 3f 00 00 80 3f 00 00 80 3f
       1.0 1.0 1.0 1.0
000080 00 00 80 3f 00 00 80 3f 00 00 80 3f 00 00 80 3f
       1.0 1.0 1.0 1.0
000090 00 00 80 3f 00 00 80 3f 00 00 80 3f 00 00 80 3f
       1.0 1.0 1.0 1.0
0000a0 00 00 80 3f 00 00 80 3f 00 00 80 3f 00 00 80 3f
       1.0 1.0 1.0 1.0
0000b0 00 00 80 3f 00 00 80 3f 00 00 80 3f 00 00 80 3f
       1.0 1.0 1.0 1.0
0000c0 00 00 80 3f 00 00 80 3f 00 00 80 3f 00 00 80 3f
       1.0 1.0 1.0 1.0
0000d0 00 00 80 3f 00 00 80 3f 00 00 80 3f 00 00 80 3f
       1.0 1.0 1.0 1.0
0000e0 00 00 80 3f 00 00 80 3f 00 00 80 3f 00 00 80 3f
       1.0 1.0 1.0 1.0
0000f0 00 00 80 3f 00 00 80 3f 00 00 80 3f 00 00 80 3f
       1.0 1.0 1.0 1.0
000100 00 00 80 3f 00 00 80 3f 00 00 80 3f 00 00 80 3f
       1.0 1.0 1.0 1.0
000110 00 00 80 3f 00 00 80 3f 00 00 80 3f 00 00 80 3f
       1.0 1.0 1.0 1.0
000120 00 00 80 3f 00 00 80 3f 00 00 80 3f 00 00 80 3f
       1.0 1.0 1.0 1.0
000130 00 00 80 3f 00 00 80 3f 00 00 80 3f 00 00 80 3f
       1.0 1.0 1.0 1.0

layers.2.1.mul.output_mask f4 [48]
000000 00 00 80 3f 00 00 80 3f 00 00 80 3f 00 00 80 3f
       1.0 1.0 1.0 1.0
000010 00 00 80 3f 00 00 80 3f 00 00 80 3f 00 00 80 3f
       1.0 1.0 1.0 1.0
000020 00 00 80 3f 00 00 80 3f 00 00 80 3f 00 00 80 3f
       1.0 1.0 1.0 1.0
000030 00 00 80 3f 00 00 80 3f 00 00 80 3f 00 00 80 3f
       1.0 1.0 1.0 1.0
000040 00 00 80 3f 00 00 80 3f 00 00 80 3f 00 00 80 3f
       1.0 1.0 1.0 1.0
000050 00 00 80 3f 00 00 80 3f 00 00 80 3f 00 00 80 3f
       1.0 1.0 1.0 1.0
000060 00 00 80 3f 00 00 80 3f 00 00 80 3f 00 00 80 3f
       1.0 1.0 1.0 1.0
000070 00 00 80 3f 00 00 80 3f 00 00 80 3f 00 00 80 3f
       1.0 1.0 1.0 1.0
000080 00 00 80 3f 00 00 80 3f 00 00 80 3f 00 00 80 3f
       1.0 1.0 1.0 1.0
000090 00 00 80 3f 00 00 80 3f 00 00 80 3f 00 00 80 3f
       1.0 1.0 1.0 1.0
0000a0 00 00 80 3f 00 00 80 3f 00 00 80 3f 00 00 80 3f
       1.0 1.0 1.0 1.0
0000b0 00 00 80 3f 00 00 80 3f 00 00 80 3f 00 00 80 3f
       1.0 1.0 1.0 1.0

readout.weight f4 [16]
000000 f9 3e 83 be dd b9 f0 be 3a 3a ac bf 77 71 80 3f
       -0.25633982 -0.47016802 -1.3455269 1.0034627
000010 67 97 2c c0 be 18 cf bf 41 5b 58 be c4 21 c8 bf
       -2.6967409 -1.6179426 -0.2112856 -1.5635304
000020 28 d3 bd bf ff e5 03 3f 2d 43 bd bf 4e 82 af 3f
       -1.4830065 0.5152282 -1.4786125 1.3711641
000030 6e db 55 3f 2c 0c 5c 3d ef 2b ef 3f e3 c0 dc 3f
       0.8353795 0.053722546 1.8685282 1.7246364
