egnn_model_new.pth (torch, 305442 bytes, 12 tensors)

input_proj.weight f4 [256]
0	0xbeacd22a	-0.33754092
1	0xbe68bef1	-0.22729088
2	0xbf80c680	-1.0060577
3	0x3f1807f3	0.5938713
4	0x3f83923e	1.0279005
5	0x3f07dfad	0.5307568
6	0xbd9da24b	-0.076969706
7	0x3e978940	0.295969
8	0xbf96b60e	-1.1774309
9	0xbf9048ef	-1.1272258
10	0x3fb8bbd8	1.4432325
11	0x3f2bc5ac	0.670985
12	0x3f0611a2	0.52370656
13	0xc002c54b	-2.0432918
14	0xbf65b921	-0.8973561
15	0xbe0a8544	-0.135274
16	0x3dad1b05	0.08452419
17	0xbfd6982f	-1.6765193
18	0xbf028c1f	-0.5099506
19	0xbe662c21	-0.22477771
20	0xbd7031a5	-0.058641095
21	0xbefdb7fc	-0.4955443
22	0xbf728172	-0.9472877
23	0x3f85d802	1.0456545
24	0x3f70ca77	0.94058937
25	0xc0087f7f	-2.1327817
26	0x3f5cde17	0.8627638
27	0x3e73bb42	0.23801902
28	0xbf94e40e	-1.1632097
29	0x3e754d28	0.23955214
30	0xbf6604f2	-0.89851296
31	0x3e8944d6	0.2681033
32	0x3ea6b9c4	0.32563603
33	0xbf94e049	-1.1630946
34	0x3f87a6e3	1.0597805
35	0xbf128e6a	-0.57248557
36	0x3de29475	0.11063472
37	0x3ef362c4	0.4753629
38	0x3fc78368	1.5586977
39	0x3f64548e	0.8919152
40	0x3ea4434e	0.320826
41	0xbf22caa9	-0.63590485
42	0x3e8d5740	0.2760563
43	0x3f964b4f	1.1741732
44	0xbf73ca27	-0.95230335
45	0x3e091fad	0.1339099
46	0x3e1d5f5e	0.15368411
47	0xbe5f7239	-0.21820916
48	0xbfc290d5	-1.5200449
49	0x40434a86	3.0514235
50	0xbfe2223c	-1.7666698
51	0x40250e22	2.5789876
52	0xbe28dc94	-0.16490394
53	0xbf16755b	-0.5877282
54	0x3f817dd5	1.0116526
55	0xbfb13269	-1.3843509
56	0x40013803	2.0190437
57	0xc005a6a7	-2.0882967
58	0x3e987244	0.29774678
59	0x3f174eb7	0.59104484
60	0x3fbdd8cb	1.4831785
61	0x3f88cc22	1.0687296
62	0xbfe50b9b	-1.7894167
63	0xbfa80181	-1.3125459
64	0xbfccf909	-1.60135
65	0x3ff6ff1e	1.9296606
66	0xbf45a0ae	-0.771983
67	0xbe0b6229	-0.13611664
68	0x3d473d72	0.048642583
69	0xbfca40f5	-1.5801073
70	0xbf8062b4	-1.0030122
71	0xbfebc4f4	-1.841948
72	0xbc9a0662	-0.018801872
73	0x3eec2580	0.4612236
74	0x40336a8b	2.8033779
75	0x3ec6fb34	0.38863528
76	0x3e13b6f2	0.14425257
77	0x3ed7f024	0.421754
78	0x3ea5b946	0.32367915
79	0xbfa98667	-1.3244141
80	0x3eea71a1	0.45789817
81	0x3ee43bd9	0.4457691
82	0xbfa807b5	-1.3127352
83	0x3f9f7921	1.2458841
84	0x3eb85151	0.3599954
85	0xbf1c2c2e	-0.6100491
86	0x3fdf88a9	1.746358
87	0xbf80a4b9	-1.0050269
88	0xbfa78af8	-1.3089285
89	0xc0057cf2	-2.085751
90	0x3dba75d2	0.09104504
91	0x3eb6e35c	0.35720336
92	0x3f121449	0.570622
93	0xbfe357d0	-1.7761173
94	0xbf5500a3	-0.83204097
95	0x3fac7d04	1.3475652
96	0xbe7e933f	-0.24860857
97	0x3f66c8f1	0.9015036
98	0x3f8aa0bb	1.0830301
99	0x3f021c8e	0.5082482
100	0xbf73b112	-0.9519206
101	0x3d6acca9	0.057324085
102	0x3f9df520	1.2340431
103	0xbfd80590	-1.6876698
104	0x3f8e7612	1.1129782
105	0x401982f4	2.3986177
106	0xbf3d026c	-0.7383182
107	0xbf3abb4c	-0.7294204
108	0xbf3d92aa	-0.74051917
109	0xbf63a61a	-0.88925326
110	0x3f38146d	0.7190617
111	0xbf8b10ca	-1.0864499
112	0x3fe8e3f1	1.8194562
113	0x3f41f0b4	0.7575791
114	0xbfcbe082	-1.5927889
115	0xc0179bfd	-2.3688958
116	0xbff12bc9	-1.8841487
117	0x3f328df9	0.69747883
118	0x3d46baed	0.04851811
119	0xbf869be6	-1.0516326
120	0x3e259c12	0.16172817
121	0x3f280645	0.65634567
122	0x3faf8e7a	1.3715355
123	0xc0205ab1	-2.5055354
124	0xbfb4ff51	-1.4140416
125	0xbf2f7e81	-0.68552405
126	0xbf84a16b	-1.0361761
127	0x3f701014	0.93774533
128	0xbe6c2bba	-0.23063555
129	0xbf1d14d7	-0.61359924
130	0x3f63d5ea	0.8899828
131	0xbf2b7289	-0.6697164
132	0x3de8056e	0.11329161
133	0xbfb92500	-1.4464417
134	0x3ee48c8f	0.44638488
135	0x3e96dec6	0.29466838
136	0xbebc0c88	-0.3672831
137	0x3dc5eeb4	0.0966467
138	0x3f3322d8	0.6997504
139	0x3e3875e0	0.18013716
140	0xbdb66d11	-0.089075215
141	0x3f8cd6d2	1.1003058
142	0x3f07d2ca	0.53056014
143	0xbf8ea53d	-1.1144177
144	0xbf5bdd5b	-0.85884637
145	0x3eecfce5	0.46286693
146	0x3f6f9046	0.9357952
147	0x3f029a96	0.5101713
148	0x3f18f2c1	0.59745413
149	0xbc580339	-0.013184362
150	0x3e62b7c6	0.22140417
151	0xbf0bcfd9	-0.54614025
152	0xbfe1ce11	-1.7641011
153	0xbf43911a	-0.7639328
154	0x3e130294	0.14356452
155	0x3f494317	0.78617996
156	0xbf846c0c	-1.0345473
157	0x3f2c8228	0.673861
158	0x3f80dc3f	1.0067214
159	0x3e0bd316	0.13654742
160	0x3f0376fd	0.51353437
161	0xbf83cef8	-1.0297537
162	0x3f164261	0.58695036
163	0xbf4a5925	-0.79042274
164	0x3fb5b47b	1.4195703
165	0x3da11d35	0.07866899
166	0xbf88ce06	-1.0687873
167	0x3f3e2592	0.7427608
168	0xbf459a21	-0.7718831
169	0x3e98e2cb	0.2986053
170	0xbd66a908	-0.056313545
171	0x3fde7998	1.7380857
172	0x3f2430be	0.64136875
173	0x3d4f4e4b	0.050611775
174	0xbf4dbd95	-0.80367404
175	0x3ff38b5d	1.9026905
176	0xbf8add36	-1.0848758
177	0xbfe85bb9	-1.8152992
178	0xbe67cf46	-0.22637662
179	0xbe328094	-0.17431861
180	0xbeb004e7	-0.3437874
181	0x3efde125	0.49585834
182	0x3e64c441	0.2234049
183	0x3fc5dccf	1.545801
184	0x3f31fbd0	0.6952486
185	0x3e062f88	0.13104069
186	0x3f6b925f	0.9202022
187	0xbf9bc069	-1.2168094
188	0x3dcb7359	0.0993411
189	0xbe6b2cb5	-0.22966273
190	0xbd722b19	-0.059123132
191	0xc02ba52d	-2.6819565
192	0x3f8f63e4	1.1202359
193	0x4018a527	2.38508
194	0xc02dac5e	-2.7136455
195	0x3edc509f	0.4303026
196	0xbfae1630	-1.3600521
197	0xbe2c1dce	-0.16808245
198	0xbff82dba	-1.9388955
199	0x3de1f9cb	0.11033972
200	0x3fa2a642	1.2706988
201	0x3f055473	0.52081984
202	0xbf0df715	-0.5545514
203	0x3f44b510	0.7683878
204	0x3e12ab0b	0.1432306
205	0xbf8bd808	-1.0925303
206	0x3f5591b5	0.83425456
207	0x3ee9d32e	0.4566893
208	0xbf028f90	-0.5100031
209	0x3e0c819c	0.13721317
210	0x3fb687b1	1.426016
211	0x3f96017c	1.1719203
212	0x40532659	3.2992156
213	0x3ed2ff4c	0.412104
214	0x3f02392b	0.5086848
215	0xbfa381e7	-1.2774018
216	0x3ee6e1c7	0.4509413
217	0xbc54acf5	-0.012980689
218	0x3e79a911	0.243809
219	0x3f79fbbf	0.9764976
220	0xbfa3fbbd	-1.28112
221	0x3fb368fd	1.4016415
222	0x3d9d0a58	0.076679885
223	0xbfb9d78a	-1.4518902
224	0xbf48591f	-0.7826099
225	0x3e63f4d7	0.22261368
226	0x3e6046ad	0.2190196
227	0x3eabdc0e	0.33566326
228	0x3f6f0193	0.9336178
229	0x3ffe6130	1.9873409
230	0xbf1d5335	-0.6145509
231	0xbf6c9a0b	-0.9242255
232	0xbe1bbe92	-0.15209416
233	0x3f41553f	0.755207
234	0xbf92aa3c	-1.1458201
235	0x3efaba52	0.48970276
236	0xbfbca15a	-1.473674
237	0xbf232eb9	-0.6374317
238	0x3dac38db	0.08409282
239	0x3f0541d2	0.5205356
240	0x3f51ba6a	0.8192507
241	0xbdedce50	-0.116116166
242	0xbfd6a308	-1.6768503
243	0xbfe48c91	-1.7855397
244	0xbf9f8f43	-1.2465595
245	0x3eb3dd27	0.35129663
246	0x3ea63748	0.3246405
247	0xbfa2656b	-1.26872
248	0x3ecc584d	0.39911118
249	0x3e3cad92	0.18425587
250	0x3ec6b878	0.38812613
251	0xbf31c2cd	-0.6943787
252	0x3eae734f	0.34072348
253	0x3f8a4a72	1.0803969
254	0xbf3d1fa8	-0.7387643
255	0xbeaac2bb	-0.33351693

input_proj.output_mask f4 [64]
0	0x3f800000	1.0
1	0x3f800000	1.0
2	0x3f800000	1.0
3	0x3f800000	1.0
4	0x3f800000	1.0
5	0x3f800000	1.0
6	0x3f800000	1.0
7	0x3f800000	1.0
8	0x3f800000	1.0
9	0x3f800000	1.0
10	0x3f800000	1.0
11	0x3f800000	1.0
12	0x3f800000	1.0
13	0x3f800000	1.0
14	0x3f800000	1.0
15	0x3f800000	1.0
16	0x00000000	0.0
17	0x00000000	0.0
18	0x00000000	0.0
19	0x00000000	0.0
20	0x00000000	0.0
21	0x00000000	0.0
22	0x00000000	0.0
23	0x00000000	0.0
24	0x00000000	0.0
25	0x00000000	0.0
26	0x00000000	0.0
27	0x00000000	0.0
28	0x00000000	0.0
29	0x00000000	0.0
30	0x00000000	0.0
31	0x00000000	0.0
32	0x00000000	0.0
33	0x00000000	0.0
34	0x00000000	0.0
35	0x00000000	0.0
36	0x00000000	0.0
37	0x00000000	0.0
38	0x00000000	0.0
39	0x00000000	0.0
40	0x00000000	0.0
41	0x00000000	0.0
42	0x00000000	0.0
43	0x00000000	0.0
44	0x00000000	0.0
45	0x00000000	0.0
46	0x00000000	0.0
47	0x00000000	0.0
48	0x00000000	0.0
49	0x00000000	0.0
50	0x00000000	0.0
51	0x00000000	0.0
52	0x00000000	0.0
53	0x00000000	0.0
54	0x00000000	0.0
55	0x00000000	0.0
56	0x00000000	0.0
57	0x00000000	0.0
58	0x00000000	0.0
59	0x00000000	0.0
60	0x00000000	0.0
61	0x00000000	0.0
62	0x00000000	0.0
63	0x00000000	0.0

layers.0.0.weight f4 [24576]
0	0xbef84498	-0.48489833
1	0xbf8b36f7	-1.0876149
2	0xbf63c81a	-0.88977206
3	0xbf8c0057	-1.0937604
4	0xbe18d3a2	-0.14924482
5	0xbe8d42e7	-0.27590105
6	0x3f466257	0.77493805
7	0xbe8d4670	-0.27592802
8	0x3e41fa9a	0.18943253
9	0xbf579f41	-0.8422738
10	0xc025dd09	-2.591616
11	0xbf9c0226	-1.2188156
12	0xc061ea9c	-3.5299444
13	0xc01f9864	-2.4936762
14	0xc00bb32f	-2.1828115
15	0xbeff7cd2	-0.49899918
16	0x3fe9a534	1.8253541
17	0x3f915141	1.1352922
18	0xbe144cd6	-0.14482436
19	0x3fc4dab2	1.537924
20	0x3f08bd7f	0.5341415
21	0xbff492ee	-1.9107339
22	0x3ce7d4fe	0.028299805
23	0x3f6c4f9a	0.9230896
24	0x3f05141c	0.5198381
25	0x3fe94433	1.8223938
26	0x400cfbf0	2.202877
27	0xbefd2003	-0.49438486
28	0xbecfb730	-0.40569448
29	0xbf9ab890	-1.2087574
30	0xbf9939d9	-1.1970779
31	0x3fd68789	1.6760112
32	0x3fbab93f	1.4587783
33	0x3eeda807	0.46417257
34	0xbf291205	-0.6604312
35	0x3f45adf5	0.7721856
36	0x3f33b8b9	0.7020374
37	0xbf0ee7b8	-0.55822325
38	0xbf64e501	-0.8941193
39	0xbebae8a5	-0.3650562
40	0xbe4829cb	-0.19547193
41	0x3ea5944f	0.32339713
42	0xbf103645	-0.5633281
43	0x3f22180b	0.63317937
44	0xbf8e64e6	-1.1124542
45	0xbf2f9626	-0.68588483
46	0xbf0e3464	-0.5554869
47	0x3f82aac7	1.0208367
48	0x3f3edb91	0.7455378
49	0x3fb9d874	1.4519181
50	0xbf3bae35	-0.73312694
51	0x3d6bb34f	0.05754405
52	0xbf8a2653	-1.0792946
53	0xbfbc262d	-1.469915
54	0x3f055ef1	0.52097994
55	0x3f24b70b	0.643418
56	0xbea5fb06	-0.32418078
57	0x3e30ea6d	0.17276926
58	0x3f14849b	0.5801484
59	0xbf24b7d2	-0.6434299
60	0xbf61670a	-0.8804785
61	0x3f507a85	0.8143695
62	0xbcf0a061	-0.02937335
63	0xbf873608	-1.0563364
64	0xbf804dff	-1.0023803
65	0xbe3016e3	-0.1719623
66	0xbf3a554b	-0.72786397
67	0x3e90d65f	0.28288552
68	0x3f914d62	1.135174
69	0xbfd735f1	-1.6813337
70	0xbfb452fe	-1.4087827
71	0x3fa1b420	1.2633095
72	0xbf122b6c	-0.57097507
73	0xbde99997	-0.11406248
74	0x3e61cbd2	0.22050408
75	0xbfea46b3	-1.8302826
76	0x3d6e156e	0.058125906
77	0xbf84566f	-1.0338877
78	0xbd9d89fd	-0.07692335
79	0x3f87d330	1.0611324
80	0x3fb2d699	1.397174
81	0xbde54d42	-0.111963764
82	0xbce06b8e	-0.027395036
83	0x3f6101ac	0.87893176
84	0xbfa5f1e6	-1.2964447
85	0xbfb0e053	-1.3818458
86	0x3f31539c	0.692682
87	0x3fff4a10	1.9944477
88	0x3f0e0d82	0.5548936
89	0x3f143062	0.57886326
90	0x3e68cd1e	0.22734496
91	0xbf1fdb12	-0.6244365
92	0xc033b86f	-2.808132
93	0xbf71c9bc	-0.9444845
94	0xbde464d5	-0.11152045
95	0x3fe3660e	1.776552
96	0xbeed107e	-0.46301645
97	0xbf372bb7	-0.7155108
98	0xbeb4371f	-0.35198304
99	0xbfeb791a	-1.8396332
100	0xbfc81b0c	-1.5633254
101	0xc05a2ae3	-3.4088676
102	0xbf23a892	-0.6392909
103	0xbeb5c90c	-0.3550495
104	0xbd2b42ac	-0.04181163
105	0xc03246f7	-2.7855814
106	0x3f9530a8	1.1655474
107	0x4006a69e	2.1039195
108	0x4048110d	3.1260407
109	0x400f40c4	2.238328
110	0xbe18b286	-0.14911851
111	0xbfb9f382	-1.4527438
112	0x3eba27db	0.36358532
113	0xbed00556	-0.4062907
114	0xbed0e969	-0.40803078
115	0xbe1471b6	-0.14496502
116	0xbfb5b9f3	-1.4197372
117	0xbf5219a0	-0.8207035
118	0x3bfa81b2	0.0076448554
119	0x3f975657	1.1823224
120	0xbe138278	-0.14405239
121	0x3f094c2e	0.53631866
122	0x3e5c1ae7	0.21494637
123	0x40349018	2.8212948
124	0x3fa6275d	1.2980763
125	0x3f53423f	0.8252296
126	0x3e8f35f8	0.27970862
127	0x3f4620fa	0.7739407
128	0xbfb85b76	-1.4402912
129	0x3e356063	0.1771255
130	0xbd8832ef	-0.0665034
131	0xbe443a94	-0.19162971
132	0x3f3d1bd6	0.738706
133	0xbfdb0ee4	-1.7113919
134	0x3e6696bd	0.2251844
135	0x3e47d95e	0.19516513
136	0x3f3dcbf0	0.7413931
137	0xbfbd91f0	-1.4810162
138	0x3fe9e949	1.8274318
139	0x3e6fd805	0.23422249
140	0xbf3201e6	-0.69534147
141	0xbf922b88	-1.1419535
142	0xbe707a77	-0.23484217
143	0x3e155582	0.145834
144	0x4004feba	2.0780473
145	0x3fa47547	1.284829
146	0x3ee3298b	0.44367632
147	0xbd1276ed	-0.035757948
148	0x3e5c5f97	0.2152084
149	0x3e2564c4	0.1615172
150	0x3db74586	0.089488074
151	0x3feaffaf	1.8359278
152	0xbed84920	-0.4224329
153	0xbf4ca7f0	-0.7994375
154	0xbdf1f1c9	-0.11813695
155	0xbf38ed53	-0.7223713
156	0xbf7380c5	-0.9511836
157	0xbfb4612a	-1.4092152
158	0x3e71b990	0.23605943
159	0x3f982fea	1.1889622
160	0xbf3b3f18	-0.7314315
161	0x3f558020	0.8339863
162	0xbd8729c1	-0.06599761
163	0xbfda3b16	-1.7049282
164	0xbf273faa	-0.6533152
165	0xbd15e1d6	-0.036592327
166	0xbf163d30	-0.58687115
167	0x3e710ac7	0.23539267
168	0x3fb568b9	1.4172584
169	0xbfdbe2f9	-1.7178642
170	0xbf34aa15	-0.70572025
171	0x3f874492	1.0567801
172	0x3f57b5c2	0.84261715
173	0x3fc8b632	1.5680602
174	0x3edd6d79	0.43247584
175	0xbfcc22f2	-1.5948164
176	0xbeffca12	-0.49958855
177	0x3f4c3987	0.7977528
178	0x3fa9912f	1.3247432
179	0xbfda87ff	-1.7072753
180	0xbff32482	-1.8995516
181	0xbfc0d81b	-1.506595
182	0x4017002a	2.359385
183	0xbdd629e7	-0.10457211
184	0xbf8b5409	-1.088502
185	0x3f8e6547	1.1124657
186	0xbe4a9eb2	-0.197871
187	0xbf964f48	-1.1742945
188	0xbfa5b725	-1.2946516
189	0x3de8aa03	0.11360552
190	0xbfb81cf9	-1.4383842
191	0x3d6db771	0.05803627
192	0x4003263b	2.0492084
193	0x3e2c3d66	0.16820297
194	0xbef53a38	-0.4789598
195	0xbe3b6591	-0.18300463
196	0xbfcb2cbc	-1.5873027
197	0x3fd0aef2	1.6303389
198	0x3f869c09	1.0516368
199	0x3f290146	0.6601757
200	0x3f0d0663	0.5508787
201	0x3ef3c693	0.47612438
202	0xbf904de5	-1.1273772
203	0x3e95100f	0.29113814
204	0xbfaf9cf1	-1.371977
205	0x3f91f2a7	1.1402177
206	0xbe976d00	-0.29575348
207	0xbe7e01c7	-0.24805366
208	0x3f0c3133	0.5476257
209	0x3e7cb1b8	0.2467717
210	0x3fc819b3	1.5632843
211	0x40011f10	2.017521
212	0x3fd06279	1.6280051
213	0xbe58729d	-0.21137471
214	0xbe707dd9	-0.23485507
215	0xbf2e85f0	-0.6817312
216	0xc0076b8d	-2.1159394
217	0x3f909bbd	1.1297528
218	0x4003b275	2.0577672
219	0xbd808e4d	-0.06277142
220	0xbf884fae	-1.0649316
221	0xbfc6d901	-1.5534974
222	0x3f2bd8af	0.6712751
223	0xbd596485	-0.05307438
224	0x3e2e5b10	0.17026925
225	0x3fe19301	1.7622987
226	0x3ea897a4	0.32928193
227	0x3f967bef	1.1756572
228	0x3ebeff9c	0.3730439
229	0x3f1416de	0.5784739
230	0x3e0ff9eb	0.1406018
231	0x3f72de7b	0.9487073
232	0xbdfeac67	-0.12435227
233	0xbf8b7b7a	-1.0897057
234	0x3eda538b	0.42641863
235	0xc0127fc2	-2.2890477
236	0xbe8e201b	-0.2775887
237	0xbda2bbda	-0.07945986
238	0x3f78812e	0.9707211
239	0x3dddf05e	0.10836862
240	0xbf1ca761	-0.611929
241	0xbf79c066	-0.975592
242	0xbe564eaa	-0.20928445
243	0x3e029c5d	0.1275496
244	0x3fb127c0	1.3840256
245	0x3f5a7c76	0.8534616
246	0x3f1c5a64	0.61075425
247	0xbef59042	-0.47961622
248	0x3e2e18e6	0.17001686
249	0xbf87cfb5	-1.0610262
250	0xbcca03ba	-0.02465998
251	0x3e3ea04d	0.18615837
252	0xc03f90c3	-2.9932106
253	0xbdcb6b5b	-0.09932586
254	0x3ea8741d	0.32901087
255	0xbf45df0c	-0.7729347

layers.0.0.output_mask f4 [80]
0	0x3f800000	1.0
1	0x3f800000	1.0
2	0x3f800000	1.0
3	0x3f800000	1.0
4	0x3f800000	1.0
5	0x3f800000	1.0
6	0x3f800000	1.0
7	0x3f800000	1.0
8	0x3f800000	1.0
9	0x3f800000	1.0
10	0x3f800000	1.0
11	0x3f800000	1.0
12	0x3f800000	1.0
13	0x3f800000	1.0
14	0x3f800000	1.0
15	0x3f800000	1.0
16	0x3f800000	1.0
17	0x3f800000	1.0
18	0x3f800000	1.0
19	0x3f800000	1.0
20	0x3f800000	1.0
21	0x3f800000	1.0
22	0x3f800000	1.0
23	0x3f800000	1.0
24	0x3f800000	1.0
25	0x3f800000	1.0
26	0x3f800000	1.0
27	0x3f800000	1.0
28	0x3f800000	1.0
29	0x3f800000	1.0
30	0x3f800000	1.0
31	0x3f800000	1.0
32	0x3f800000	1.0
33	0x3f800000	1.0
34	0x3f800000	1.0
35	0x3f800000	1.0
36	0x3f800000	1.0
37	0x3f800000	1.0
38	0x3f800000	1.0
39	0x3f800000	1.0
40	0x3f800000	1.0
41	0x3f800000	1.0
42	0x3f800000	1.0
43	0x3f800000	1.0
44	0x3f800000	1.0
45	0x3f800000	1.0
46	0x3f800000	1.0
47	0x3f800000	1.0
48	0x3f800000	1.0
49	0x3f800000	1.0
50	0x3f800000	1.0
51	0x3f800000	1.0
52	0x3f800000	1.0
53	0x3f800000	1.0
54	0x3f800000	1.0
55	0x3f800000	1.0
56	0x3f800000	1.0
57	0x3f800000	1.0
58	0x3f800000	1.0
59	0x3f800000	1.0
60	0x3f800000	1.0
61	0x3f800000	1.0
62	0x3f800000	1.0
63	0x3f800000	1.0
64	0x3f800000	1.0
65	0x3f800000	1.0
66	0x3f800000	1.0
67	0x3f800000	1.0
68	0x3f800000	1.0
69	0x3f800000	1.0
70	0x3f800000	1.0
71	0x3f800000	1.0
72	0x3f800000	1.0
73	0x3f800000	1.0
74	0x3f800000	1.0
75	0x3f800000	1.0
76	0x3f800000	1.0
77	0x3f800000	1.0
78	0x3f800000	1.0
79	0x3f800000	1.0

layers.0.1.mul.output_mask f4 [48]
0	0x3f800000	1.0
1	0x3f800000	1.0
2	0x3f800000	1.0
3	0x3f800000	1.0
4	0x3f800000	1.0
5	0x3f800000	1.0
6	0x3f800000	1.0
7	0x3f800000	1.0
8	0x3f800000	1.0
9	0x3f800000	1.0
10	0x3f800000	1.0
11	0x3f800000	1.0
12	0x3f800000	1.0
13	0x3f800000	1.0
14	0x3f800000	1.0
15	0x3f800000	1.0
16	0x3f800000	1.0
17	0x3f800000	1.0
18	0x3f800000	1.0
19	0x3f800000	1.0
20	0x3f800000	1.0
21	0x3f800000	1.0
22	0x3f800000	1.0
23	0x3f800000	1.0
24	0x3f800000	1.0
25	0x3f800000	1.0
26	0x3f800000	1.0
27	0x3f800000	1.0
28	0x3f800000	1.0
29	0x3f800000	1.0
30	0x3f800000	1.0
31	0x3f800000	1.0
32	0x3f800000	1.0
33	0x3f800000	1.0
34	0x3f800000	1.0
35	0x3f800000	1.0
36	0x3f800000	1.0
37	0x3f800000	1.0
38	0x3f800000	1.0
39	0x3f800000	1.0
40	0x3f800000	1.0
41	0x3f800000	1.0
42	0x3f800000	1.0
43	0x3f800000	1.0
44	0x3f800000	1.0
45	0x3f800000	1.0
46	0x3f800000	1.0
47	0x3f800000	1.0

layers.1.0.weight f4 [24576]
0	0xbf6c0a07	-0.922028
1	0x3e360f81	0.17779352
2	0x4004f44b	2.0774105
3	0xbf7abc50	-0.9794359
4	0x3d556591	0.052098814
5	0xbf1d5dda	-0.6147133
6	0x3f29789b	0.66199654
7	0xc01dc0f2	-2.4649014
8	0xbf20ef23	-0.62864894
9	0x3e8e654e	0.27811664
10	0xbe63496a	-0.22195974
11	0xbfa3fa50	-1.2810764
12	0xbf5e1a13	-0.86758536
13	0xbf5767bb	-0.84142655
14	0x3f53f178	0.8279033
15	0x3e834356	0.2563731
16	0xbfb6ac01	-1.4271241
17	0x3f805940	1.0027237
18	0x3ff83f20	1.9394264
19	0x3f331115	0.6994794
20	0xbf2959eb	-0.6615283
21	0x3f3cd606	0.73764074
22	0x3ed2d5dd	0.4117879
23	0xbf897e34	-1.0741639
24	0xbfa7dd7a	-1.3114464
25	0x3de8a5df	0.113597624
26	0xbfce3c3f	-1.6112136
27	0xbf444ce9	-0.76679856
28	0x3f4fbad7	0.8114447
29	0xbef7d9cf	-0.48408362
30	0xbfb0295c	-1.3762622
31	0xbf96ac11	-1.177126
32	0xbf813f7b	-1.0097498
33	0x3e390150	0.18066907
34	0x3e2cc58c	0.16872233
35	0xbd0abbbc	-0.033870444
36	0x3f255aa5	0.6459144
37	0xbe83d535	-0.25748602
38	0xbf6d7da2	-0.92769825
39	0xbf8c77b1	-1.0974027
40	0xbef6b4f7	-0.4818494
41	0x3ff6f6b7	1.9294041
42	0xbed47056	-0.41491956
43	0xc070985e	-3.7592998
44	0x3efbd4ee	0.4918589
45	0x3f230570	0.6368017
46	0x3f2caaa5	0.6744788
47	0x3fa293e1	1.2701379
48	0x3f61adcc	0.8815582
49	0xbf31a8d8	-0.6939826
50	0x3efae645	0.49003807
51	0x3f9ee4f0	1.2413616
52	0xbfa11f2e	-1.258764
53	0xbedce386	-0.43142337
54	0xbfd2a2f2	-1.6455977
55	0x3f523c35	0.8212312
56	0x3eb014ab	0.34390768
57	0xbe41fd11	-0.18944193
58	0x3ea53910	0.32270098
59	0x3fc41e4d	1.5321747
60	0xbfaae711	-1.3351766
61	0x3e694180	0.22778893
62	0xbec1cd70	-0.3785205
63	0xbfea7aff	-1.8318785
64	0x3f69fb13	0.91398734
65	0xbf84e534	-1.0382447
66	0x3fdb924f	1.7154025
67	0x3e9448a8	0.28961682
68	0xbf80fb19	-1.0076629
69	0x3f8cf33c	1.1011729
70	0xbdda94b2	-0.10672893
71	0x3f350b3b	0.7072026
72	0xbe0b054f	-0.13576244
73	0xbf404f78	-0.7512126
74	0x3f288e7b	0.6584241
75	0x3fce71d6	1.612849
76	0xbf97513a	-1.1821663
77	0xbf91aca9	-1.1380817
78	0x3fcc0dd9	1.5941726
79	0x3f82ef9b	1.0229372
80	0x3e900d16	0.28134984
81	0xbfe776ae	-1.8083093
82	0x3e45527d	0.19269748
83	0x3e3278c3	0.1742888
84	0xbe289a49	-0.16465105
85	0x3d194e10	0.03742796
86	0x3f69ade5	0.91280967
87	0xc003cfb5	-2.0595524
88	0xbd8ea7bc	-0.069655865
89	0x3faf945f	1.3717154
90	0x3f197be0	0.59954643
91	0x3fd4bd17	1.6620206
92	0x3f2b3bfb	0.668884
93	0xbe8f185f	-0.2794828
94	0xbfabc02d	-1.3418022
95	0xbec80026	-0.39062613
96	0xbffdb8ab	-1.9821981
97	0xc007307a	-2.1123338
98	0x3e4c6af7	0.19962679
99	0x3ef73a20	0.48286533
100	0x3dc6382a	0.09678681
101	0xbe96aac4	-0.2942716
102	0xbf889e1a	-1.0673249
103	0x3edc8a33	0.43074188
104	0x3fec1869	1.8444949
105	0x4044250b	3.064761
106	0xbfa4cb8e	-1.287462
107	0xc004223d	-2.0645897
108	0x3e3f0de2	0.1865764
109	0xbfc44bff	-1.5335692
110	0x3f91ca96	1.1389949
111	0x3f2035ca	0.62582076
112	0x3fa5aaaa	1.2942708
113	0x3da1b983	0.07896712
114	0x405c75fe	3.4447017
115	0xbf316e00	-0.6930847
116	0xbffbd352	-1.9673865
117	0xc00ec3b5	-2.230695
118	0xbfd6a827	-1.6770066
119	0xbe74afad	-0.2389514
120	0x3ceab03e	0.028648492
121	0xc011ac6c	-2.2761488
122	0xbfbac219	-1.4590484
123	0xc0105b57	-2.255575
124	0xbfe545e8	-1.7911959
125	0xbf9c63ec	-1.2217994
126	0xbfc4d6fc	-1.5378108
127	0xc049b6f5	-3.1517918
128	0x3e4da92e	0.20084068
129	0x3fd24c36	1.6429508
130	0x3ed54ad9	0.41658667
131	0xbf060a16	-0.5235914
132	0xbffd3b78	-1.9783773
133	0xbe83a192	-0.25709206
134	0x3ff5c3e9	1.9200412
135	0xbef432cf	-0.47695014
136	0xbf526c24	-0.8219626
137	0x3eecb369	0.4623063
138	0x3ebaff46	0.36522883
139	0x3fbb3955	1.4626871
140	0x3f5ef765	0.87096244
141	0x3f28ccd3	0.65937537
142	0x40007fd4	2.007802
143	0xbd102838	-0.035194606
144	0xbd96cd8e	-0.07363425
145	0x4001950a	2.0247216
146	0xc052e827	-3.2954195
147	0x3facd24f	1.3501681
148	0xbfb70ac1	-1.4300157
149	0xbf6689b9	-0.900539
150	0xc00c6330	-2.193554
151	0x3f9e750e	1.2379472
152	0x3f061a24	0.5238364
153	0xbfff76ea	-1.9958165
154	0x3f5f36b0	0.8719282
155	0xbff46c4f	-1.9095553
156	0x3f977b71	1.1834546
157	0xbef94268	-0.48683476
158	0x3c8eb3e9	0.017419772
159	0xbff514a2	-1.9146922
160	0x3f8779df	1.0584067
161	0x3e8f2dce	0.27964634
162	0x40090cad	2.1413987
163	0x3f83b0e7	1.0288361
164	0x40147e66	2.3202147
165	0x3fbbfdb9	1.4686805
166	0xbf50c834	-0.81555486
167	0xbf815c19	-1.0106231
168	0x3f024af6	0.5089563
169	0x3f8e0ef1	1.109831
170	0x3e103c43	0.14085488
171	0xbecfe263	-0.40602407
172	0xbf04bcaa	-0.5185038
173	0xbfcfe6d4	-1.6242318
174	0x3f209d47	0.62739986
175	0x402b9e45	2.681535
176	0xbed562a7	-0.41676828
177	0xc060ffce	-3.515613
178	0xc02053d7	-2.5051172
179	0x3f28fd11	0.6601115
180	0x3f1e35ff	0.6180114
181	0xbf0e0025	-0.5546897
182	0xc0906fa5	-4.5136285
183	0xbebaa9b7	-0.36457607
184	0xbe64aa02	-0.22330478
185	0x3ff954c5	1.9478995
186	0x4028b38c	2.6359587
187	0x3f44c097	0.7685637
188	0x3f3496e3	0.70542735
189	0x3fdb8111	1.7148763
190	0xbf3c32c7	-0.7351498
191	0x3ddd0995	0.10792843
192	0x3eb50f1a	0.35363084
193	0xbddd7da0	-0.10814977
194	0x40262b63	2.596398
195	0xbeddceac	-0.4332174
196	0xc01b5513	-2.4270675
197	0xbf1bb736	-0.6082643
198	0xbf40b82b	-0.7528102
199	0xbf6c9fff	-0.92431635
200	0xbf914258	-1.1348372
201	0xbfc7f087	-1.5620278
202	0x3f981d7b	1.1883997
203	0x3f4db2c9	0.8035093
204	0xbeebab0e	-0.46028942
205	0x3f00aa1f	0.50259584
206	0x3f44632c	0.76713824
207	0x3efa155e	0.48844427
208	0xbf75448a	-0.9580771
209	0x40029423	2.0402915
210	0xbf3cc562	-0.7373868
211	0xbe0725f0	-0.13198066
212	0xc027fc0c	-2.6247587
213	0x3e85797a	0.26069242
214	0x3e0deb5c	0.13859314
215	0xbf680998	-0.9063964
216	0xbf56fe9b	-0.8398225
217	0x3eaaa8ea	0.33331996
218	0x3fd60b8b	1.6722273
219	0x3ed8f369	0.42373207
220	0x3e3fa503	0.1871529
221	0x3d8f7ef4	0.07006636
222	0x3eb2e44f	0.3493981
223	0x3f4d4859	0.8018852
224	0x3fd61325	1.6724592
225	0xbd923104	-0.07138255
226	0x40039dc9	2.0565054
227	0xbf035112	-0.5129558
228	0xbe3bcf43	-0.18340783
229	0xbf40f576	-0.75374544
230	0xc020b7aa	-2.51121
231	0x3f6457af	0.89196295
232	0x3f26dfb7	0.6518511
233	0x3fc89b0b	1.5672315
234	0x3fc7c791	1.5607778
235	0x3f388463	0.72077006
236	0x3fdd69d2	1.7297919
237	0xbfb9a286	-1.4502723
238	0xbf907ac4	-1.1287465
239	0xbf7013cf	-0.93780226
240	0x3f3955b5	0.72396404
241	0xbf6b4877	-0.9190745
242	0x3f02a76f	0.51036733
243	0x3f82956d	1.0201851
244	0xc001d520	-2.028633
245	0x3ef7c1c7	0.48390028
246	0x3e9d95cc	0.30778348
247	0xbf655dfd	-0.8959654
248	0x3c782a56	0.015146812
249	0xbf6299ac	-0.88515735
250	0xbf8d5c46	-1.1043785
251	0xbffba9e0	-1.9661217
252	0x3fb2f892	1.3982108
253	0x3ee019c8	0.4376967
254	0xc00536fe	-2.0814815
255	0xc011840c	-2.2736845

layers.1.0.output_mask f4 [80]
0	0x3f800000	1.0
1	0x3f800000	1.0
2	0x3f800000	1.0
3	0x3f800000	1.0
4	0x3f800000	1.0
5	0x3f800000	1.0
6	0x3f800000	1.0
7	0x3f800000	1.0
8	0x3f800000	1.0
9	0x3f800000	1.0
10	0x3f800000	1.0
11	0x3f800000	1.0
12	0x3f800000	1.0
13	0x3f800000	1.0
14	0x3f800000	1.0
15	0x3f800000	1.0
16	0x3f800000	1.0
17	0x3f800000	1.0
18	0x3f800000	1.0
19	0x3f800000	1.0
20	0x3f800000	1.0
21	0x3f800000	1.0
22	0x3f800000	1.0
23	0x3f800000	1.0
24	0x3f800000	1.0
25	0x3f800000	1.0
26	0x3f800000	1.0
27	0x3f800000	1.0
28	0x3f800000	1.0
29	0x3f800000	1.0
30	0x3f800000	1.0
31	0x3f800000	1.0
32	0x3f800000	1.0
33	0x3f800000	1.0
34	0x3f800000	1.0
35	0x3f800000	1.0
36	0x3f800000	1.0
37	0x3f800000	1.0
38	0x3f800000	1.0
39	0x3f800000	1.0
40	0x3f800000	1.0
41	0x3f800000	1.0
42	0x3f800000	1.0
43	0x3f800000	1.0
44	0x3f800000	1.0
45	0x3f800000	1.0
46	0x3f800000	1.0
47	0x3f800000	1.0
48	0x3f800000	1.0
49	0x3f800000	1.0
50	0x3f800000	1.0
51	0x3f800000	1.0
52	0x3f800000	1.0
53	0x3f800000	1.0
54	0x3f800000	1.0
55	0x3f800000	1.0
56	0x3f800000	1.0
57	0x3f800000	1.0
58	0x3f800000	1.0
59	0x3f800000	1.0
60	0x3f800000	1.0
61	0x3f800000	1.0
62	0x3f800000	1.0
63	0x3f800000	1.0
64	0x3f800000	1.0
65	0x3f800000	1.0
66	0x3f800000	1.0
67	0x3f800000	1.0
68	0x3f800000	1.0
69	0x3f800000	1.0
70	0x3f800000	1.0
71	0x3f800000	1.0
72	0x3f800000	1.0
73	0x3f800000	1.0
74	0x3f800000	1.0
75	0x3f800000	1.0
76	0x3f800000	1.0
77	0x3f800000	1.0
78	0x3f800000	1.0
79	0x3f800000	1.0

layers.1.1.mul.output_mask f4 [48]
0	0x3f800000	1.0
1	0x3f800000	1.0
2	0x3f800000	1.0
3	0x3f800000	1.0
4	0x3f800000	1.0
5	0x3f800000	1.0
6	0x3f800000	1.0
7	0x3f800000	1.0
8	0x3f800000	1.0
9	0x3f800000	1.0
10	0x3f800000	1.0
11	0x3f800000	1.0
12	0x3f800000	1.0
13	0x3f800000	1.0
14	0x3f800000	1.0
15	0x3f800000	1.0
16	0x3f800000	1.0
17	0x3f800000	1.0
18	0x3f800000	1.0
19	0x3f800000	1.0
20	0x3f800000	1.0
21	0x3f800000	1.0
22	0x3f800000	1.0
23	0x3f800000	1.0
24	0x3f800000	1.0
25	0x3f800000	1.0
26	0x3f800000	1.0
27	0x3f800000	1.0
28	0x3f800000	1.0
29	0x3f800000	1.0
30	0x3f800000	1.0
31	0x3f800000	1.0
32	0x3f800000	1.0
33	0x3f800000	1.0
34	0x3f800000	1.0
35	0x3f800000	1.0
36	0x3f800000	1.0
37	0x3f800000	1.0
38	0x3f800000	1.0
39	0x3f800000	1.0
40	0x3f800000	1.0
41	0x3f800000	1.0
42	0x3f800000	1.0
43	0x3f800000	1.0
44	0x3f800000	1.0
45	0x3f800000	1.0
46	0x3f800000	1.0
47	0x3f800000	1.0

layers.2.0.weight f4 [24576]
0	0xbf412054	-0.75439954
1	0xbed9ed12	-0.42563683
2	0xbf65c2eb	-0.89750546
3	0x3d1fd5aa	0.039022125
4	0x3de4b59e	0.11167453
5	0x3e8658bb	0.2623957
6	0xbfc6c273	-1.5528091
7	0xbf7b6a2b	-0.98208874
8	0x3ca59504	0.020212658
9	0xbe3367af	-0.17520021
10	0xbff035dd	-1.8766438
11	0xbf35fe84	-0.71091485
12	0xc008d4b3	-2.1379821
13	0xbbc0dba9	-0.0058855605
14	0xc02254c6	-2.5364242
15	0xbe4b3809	-0.19845594
16	0xbefc1d0d	-0.49240914
17	0xbeb22185	-0.34791198
18	0x3f920e43	1.1410602
19	0xc007c377	-2.1213052
20	0x3ff4f4e0	1.913723
21	0x3e4ef3ed	0.20210238
22	0xbfcd1ee2	-1.602505
23	0x3eae1e33	0.34007415
24	0x3eebf94b	0.46088633
25	0xbfcaf10b	-1.585481
26	0xbe6e2a6c	-0.2325837
27	0x3f29e0c5	0.66358596
28	0xbfe658d1	-1.7995855
29	0x40282a9b	2.6276004
30	0xbfcbc24f	-1.5918673
31	0xbc54e50e	-0.012994064
32	0xbebbceaa	-0.3668111
33	0x3ef1fa71	0.47261384
34	0xc02794bc	-2.618453
35	0x3f922e2e	1.1420343
36	0xbd70bcff	-0.05877399
37	0x3ff1e6ed	1.8898598
38	0x3fd1048b	1.6329511
39	0x3f4dd9a2	0.80410206
40	0xbfa1860c	-1.2619033
41	0xbebd117b	-0.369274
42	0xbf9730b0	-1.1811733
43	0x40170574	2.3597078
44	0xc0020fd7	-2.0322168
45	0x3eaf1440	0.34195137
46	0xbf9673bb	-1.1754068
47	0xbef849f1	-0.48493913
48	0xc03b6861	-2.9282458
49	0xbf91c679	-1.1388694
50	0x3ecef823	0.40423688
51	0xc06dc346	-3.7150435
52	0x3f874379	1.0567466
53	0x3e87e99e	0.26545423
54	0xbffe9f11	-1.9892293
55	0xbfc0c3c7	-1.5059747
56	0x3e8e2016	0.27758855
57	0xbfc342dc	-1.5254779
58	0xbecc558e	-0.39909023
59	0x3f13fe85	0.5781024
60	0xbf304a13	-0.6886303
61	0x3da8b2de	0.08237241
62	0xbf915afa	-1.1355889
63	0xbf9e000d	-1.2343765
64	0xbeda038f	-0.4258084
65	0x3f7e08f8	0.99232435
66	0xbed9c218	-0.42530894
67	0xbfd2a1e9	-1.6455661
68	0x3f8813ef	1.0631083
69	0x3eb7ae72	0.3587528
70	0xbeba592c	-0.36396158
71	0xbf279579	-0.6546245
72	0x400befc9	2.1865103
73	0xbe9e7ad5	-0.30953088
74	0xbf7367d1	-0.95080286
75	0x3f5533ba	0.83282053
76	0xbe1d07f2	-0.15335062
77	0xc005917e	-2.0870051
78	0xc00e5fa4	-2.2245874
79	0x3f8debf1	1.1087629
80	0xbf324149	-0.6963087
81	0x3f131b84	0.5746386
82	0x3ebf126e	0.37318748
83	0x3fb2913a	1.395057
84	0x3e757475	0.23970206
85	0x3dfd36c3	0.123639606
86	0x3f3a1e7b	0.7270276
87	0x3e7f791c	0.24948543
88	0x3f86a1b7	1.0518101
89	0xbd801100	-0.062532425
90	0x3ff1b7d4	1.8884225
91	0x3f9a698a	1.2063458
92	0x402e5f60	2.7245712
93	0xbf1e987e	-0.61951435
94	0xbf54fdca	-0.8319975
95	0x3fad3948	1.3533106
96	0xbff1e8b6	-1.8899143
97	0x3f2693de	0.6506938
98	0x3f0ac7aa	0.54210913
99	0x3f4cf0ce	0.8005494
100	0xbf3ad96c	-0.7298801
101	0x3e9c2655	0.30497995
102	0x3fbdf2b0	1.4839687
103	0xc00767cd	-2.1157105
104	0x3d9d507d	0.076813675
105	0x3f8d6137	1.1045293
106	0x3f11cefb	0.5695645
107	0x3ede348f	0.43399474
108	0x3f933bb1	1.1502591
109	0x3f4f596c	0.8099582
110	0x3f94c91d	1.1623875
111	0x3f5815f0	0.84408474
112	0xbfe9a964	-1.8254819
113	0xbe966217	-0.29371712
114	0x3fe0e508	1.7569895
115	0x3f5ae9c1	0.8551293
116	0x401cac3b	2.448012
117	0xbeaaaef4	-0.33336604
118	0x3c9ead9f	0.019369898
119	0x3ff55c6b	1.9168829
120	0xbf92ae6b	-1.1459478
121	0x3d1618aa	0.036644615
122	0x3f556fe1	0.8337384
123	0x3f3a9693	0.7288601
124	0x3ffa1c15	1.953982
125	0x401638f6	2.3472266
126	0xc007d525	-2.1223843
127	0x3e5b8915	0.21439011
128	0xbf55ce08	-0.83517504
129	0xbf951825	-1.1647993
130	0x3f3c8c42	0.73651516
131	0xbf4c2d78	-0.7975688
132	0x402beb91	2.6862528
133	0x3e68870f	0.22707771
134	0xbe84adb4	-0.25913775
135	0xbe0eeeda	-0.13958302
136	0xbfa617c7	-1.2976006
137	0xbdada46d	-0.08478627
138	0x3d9f8282	0.07788564
139	0xbf5b6ff7	-0.8571772
140	0x3f5ec890	0.87024784
141	0x3f6a1acc	0.9144714
142	0xc0155320	-2.3331985
143	0x3dcbff04	0.0996075
144	0xbf9cc345	-1.2247092
145	0xbf037f1e	-0.5136584
146	0x3f8f02e3	1.1172756
147	0xbf07bf93	-0.53026694
148	0x3fe5ec84	1.7962804
149	0xbf7db341	-0.99101645
150	0x3f76ffd4	0.9648411
151	0xbe8cee48	-0.27525544
152	0x3f1e09ff	0.61734
153	0xbe6ebb51	-0.23313643
154	0x3e92e561	0.28690627
155	0xbe42aba1	-0.19010784
156	0xbd29eec2	-0.041487463
157	0x3f8aae72	1.0834486
158	0xc0232eca	-2.5497308
159	0x3dd5f29d	0.104466654
160	0xbfe86124	-1.8154645
161	0xbde79116	-0.1130697
162	0x3fb0d0a1	1.3813668
163	0xbee38b75	-0.44442335
164	0xbe9c3209	-0.30506924
165	0x3f9ee972	1.2414992
166	0x3f684e56	0.9074453
167	0x3f8b0325	1.0860335
168	0xbf11bcbe	-0.5692862
169	0xbfaad3da	-1.3345902
170	0x3ed16281	0.40895465
171	0xbf8f9fb9	-1.1220618
172	0xbf1f488a	-0.6222006
173	0x3fd0928d	1.6294724
174	0xbfc27dae	-1.5194604
175	0xc0066fbb	-2.1005695
176	0xbe007378	-0.12544048
177	0x3f7da4cb	0.9907958
178	0xbf442428	-0.7661767
179	0x3ec19864	0.37811577
180	0xbdc7e8b7	-0.09761184
181	0x3d735e0b	0.05941586
182	0x3f14f179	0.5818096
183	0xbf0b1510	-0.54329014
184	0xbf48a47f	-0.78376
185	0x3fc519df	1.539852
186	0xbf559ec7	-0.834454
187	0x3f84e294	1.0381646
188	0xbf0fd010	-0.56176853
189	0xbf37525d	-0.7161005
190	0xbd1671e4	-0.03672971
191	0x3f979846	1.1843345
192	0xbf1c8be3	-0.6115095
193	0xbfe71412	-1.8053
194	0x40414fcc	3.0204954
195	0x3f7e7e42	0.99411404
196	0x3f15e816	0.5855726
197	0x3ea58c5f	0.32333657
198	0x3f5ab1c4	0.854275
199	0x404336dd	3.0502236
200	0x3fab04fd	1.3360897
201	0xbedeed90	-0.4354062
202	0xbf3c6bfe	-0.73602283
203	0x4032cb2f	2.7936513
204	0x3e8dbe8d	0.2768444
205	0xbbe771e2	-0.0070631364
206	0xbda8d168	-0.08243066
207	0x3f956995	1.1672846
208	0xc002da03	-2.0445564
209	0xbfa1081f	-1.2580603
210	0x3f31b336	0.6941408
211	0xbfdbf5c3	-1.7184376
212	0x3f86b65d	1.0524403
213	0xc0026a10	-2.0377235
214	0xbfffe4f6	-1.9991748
215	0xbfead9fc	-1.8347774
216	0xbfc4635c	-1.5342822
217	0xbf53df39	-0.82762486
218	0x3f70d0d0	0.9406862
219	0x4013c48d	2.3088715
220	0x4068f7b1	3.640118
221	0xbe418987	-0.18900119
222	0xc00d2c3d	-2.205825
223	0x3ffa1135	1.9536501
224	0xbfa467c1	-1.2844163
225	0xbe977a98	-0.2958572
226	0x3ead4ed7	0.33849213
227	0x40201b24	2.5016565
228	0xbfa87d5d	-1.3163258
229	0xbea30e50	-0.31846857
230	0x3ef4b73c	0.47796047
231	0xbdd5b0e0	-0.10434127
232	0xbfb06ad2	-1.3782599
233	0x3f99e1c2	1.2022021
234	0x405787c9	3.3676627
235	0x3dd9ffa7	0.10644465
236	0xbfd5d448	-1.6705408
237	0x3db05a43	0.08610966
238	0xbfa26d5b	-1.2689623
239	0x401314b1	2.298138
240	0xbfca551a	-1.5807221
241	0xbfd13511	-1.634432
242	0xbf540790	-0.8282404
243	0xbec42d01	-0.38315585
244	0x3f009be3	0.50237864
245	0xbf2433e2	-0.64141667
246	0xbf5aac36	-0.85419023
247	0x3f6d4048	0.9267621
248	0x3f2c2021	0.67236525
249	0xc024387a	-2.565947
250	0xbd4dae90	-0.050215304
251	0xbffd0442	-1.9766924
252	0x3f135bd6	0.57562006
253	0x3f9170dc	1.1362567
254	0xbf0c6b2a	-0.5485102
255	0x3f74b6e7	0.95591587

layers.2.0.output_mask f4 [80]
0	0x3f800000	1.0
1	0x3f800000	1.0
2	0x3f800000	1.0
3	0x3f800000	1.0
4	0x3f800000	1.0
5	0x3f800000	1.0
6	0x3f800000	1.0
7	0x3f800000	1.0
8	0x3f800000	1.0
9	0x3f800000	1.0
10	0x3f800000	1.0
11	0x3f800000	1.0
12	0x3f800000	1.0
13	0x3f800000	1.0
14	0x3f800000	1.0
15	0x3f800000	1.0
16	0x3f800000	1.0
17	0x3f800000	1.0
18	0x3f800000	1.0
19	0x3f800000	1.0
20	0x3f800000	1.0
21	0x3f800000	1.0
22	0x3f800000	1.0
23	0x3f800000	1.0
24	0x3f800000	1.0
25	0x3f800000	1.0
26	0x3f800000	1.0
27	0x3f800000	1.0
28	0x3f800000	1.0
29	0x3f800000	1.0
30	0x3f800000	1.0
31	0x3f800000	1.0
32	0x3f800000	1.0
33	0x3f800000	1.0
34	0x3f800000	1.0
35	0x3f800000	1.0
36	0x3f800000	1.0
37	0x3f800000	1.0
38	0x3f800000	1.0
39	0x3f800000	1.0
40	0x3f800000	1.0
41	0x3f800000	1.0
42	0x3f800000	1.0
43	0x3f800000	1.0
44	0x3f800000	1.0
45	0x3f800000	1.0
46	0x3f800000	1.0
47	0x3f800000	1.0
48	0x3f800000	1.0
49	0x3f800000	1.0
50	0x3f800000	1.0
51	0x3f800000	1.0
52	0x3f800000	1.0
53	0x3f800000	1.0
54	0x3f800000	1.0
55	0x3f800000	1.0
56	0x3f800000	1.0
57	0x3f800000	1.0
58	0x3f800000	1.0
59	0x3f800000	1.0
60	0x3f800000	1.0
61	0x3f800000	1.0
62	0x3f800000	1.0
63	0x3f800000	1.0
64	0x3f800000	1.0
65	0x3f800000	1.0
66	0x3f800000	1.0
67	0x3f800000	1.0
68	0x3f800000	1.0
69	0x3f800000	1.0
70	0x3f800000	1.0
71	0x3f800000	1.0
72	0x3f800000	1.0
73	0x3f800000	1.0
74	0x3f800000	1.0
75	0x3f800000	1.0
76	0x3f800000	1.0
77	0x3f800000	1.0
78	0x3f800000	1.0
79	0x3f800000	1.0

layers.2.1.mul.output_mask f4 [48]
0	0x3f800000	1.0
1	0x3f800000	1.0
2	0x3f800000	1.0
3	0x3f800000	1.0
4	0x3f800000	1.0
5	0x3f800000	1.0
6	0x3f800000	1.0
7	0x3f800000	1.0
8	0x3f800000	1.0
9	0x3f800000	1.0
10	0x3f800000	1.0
11	0x3f800000	1.0
12	0x3f800000	1.0
13	0x3f800000	1.0
14	0x3f800000	1.0
15	0x3f800000	1.0
16	0x3f800000	1.0
17	0x3f800000	1.0
18	0x3f800000	1.0
19	0x3f800000	1.0
20	0x3f800000	1.0
21	0x3f800000	1.0
22	0x3f800000	1.0
23	0x3f800000	1.0
24	0x3f800000	1.0
25	0x3f800000	1.0
26	0x3f800000	1.0
27	0x3f800000	1.0
28	0x3f800000	1.0
29	0x3f800000	1.0
30	0x3f800000	1.0
31	0x3f800000	1.0
32	0x3f800000	1.0
33	0x3f800000	1.0
34	0x3f800000	1.0
35	0x3f800000	1.0
36	0x3f800000	1.0
37	0x3f800000	1.0
38	0x3f800000	1.0
39	0x3f800000	1.0
40	0x3f800000	1.0
41	0x3f800000	1.0
42	0x3f800000	1.0
43	0x3f800000	1.0
44	0x3f800000	1.0
45	0x3f800000	1.0
46	0x3f800000	1.0
47	0x3f800000	1.0

readout.weight f4 [16]
0	0x3f2c17c5	0.6722377
1	0xbf0a4225	-0.5400718
2	0xbe8c583b	-0.27411065
3	0xbebdd08b	-0.37073168
4	0xbf590132	-0.8476745
5	0xbdbd0b66	-0.0923069
6	0xbecfb88b	-0.40570483
7	0x3cc00c4b	0.023443362
8	0x3f94ab76	1.1614826
9	0x3ef95b80	0.4870262
10	0xbd47c62a	-0.04877297
11	0xbf24ad74	-0.6432717
12	0xbec8ad1d	-0.39194575
13	0xbf47905a	-0.7795464
14	0x3f2892a0	0.6584873
15	0xbf8b8089	-1.0898601
