egnn_model_25.pth (torch, 305442 bytes, 12 tensors)

input_proj.weight f4 [256]
00000000: 926a bdbf 6f56 6c3e d8c6 40bf 7b60 243f
00000010: 7256 1c3f 5644 ad3f 8291 cdbc 5856 113e
00000020: d822 57bf a43c b9bf 8984 d23f d01a b63f
00000030: e82c 19be eb43 c0bf 25d3 73bf 66b4 64bf
00000040: 5669 0a3f 4415 2cc0 c3cd 5abf 7cf0 0ebe
00000050: f637 ae3f 5de5 07bf 0716 7ebf b787 733f
00000060: 3e22 893f 22d7 0ec0 9032 f93e 45a1 c63f
00000070: 00e9 abbf ff52 553f 2eb6 b0bf af46 823e
00000080: 67eb 323e 9a7f c7be b83a 0340 4348 813f
00000090: 9fc5 643e d23a c73f ddcf f43e 2f03 d13f
000000a0: 4daa e03e 231c 91be 87ae 35bf 5426 1640
000000b0: 1a45 72bf f4ae 403f 6a68 e43e 472f 38be
000000c0: 46a1 96bf 909c 1f40 6864 ecbf cc8f 3840
000000d0: 63a0 543d 3285 723d 4f31 1b3f ea75 a0bf
000000e0: 40a8 a73f 133c a8bf 62b5 26bd bcbf 333f
000000f0: 81c6 e63f 6775 b13f bdc6 77bf a7f8 b1bf
00000100: 18a3 78bf 5bc4 0140 8e4c 25bf 07e4 f0be
00000110: e705 043f 79d0 b5bf d139 dabf 4d6d 8fbf
00000120: afd4 d9bc dadf 543f b6ec 1b40 6014 fd3d
00000130: 8748 c63e 17eb b93e b257 df3e 7a1f 33bf
00000140: 6ee7 e7be d606 203f 6880 3ebf 53aa 633f
00000150: a58b c33f ba2b 38bf c9e6 cc3f 37c2 e4be
00000160: d009 9abe a6ca d5bf c146 ffbe b92d 933f
00000170: 378a 7ebe 9eeb c9bf b0be d0bf aa7c b43f
00000180: 8840 9d3e 0ae5 c03e 3ead 7c3f b0f2 ea3e
00000190: 04b3 dcbe 4b0e 603e ac3a 613f eeed afbf
000001a0: 6502 253f f2a1 3140 3fba 7ebf 177d 2fbf
000001b0: d938 d3be 0ba2 4abf 92cd 9d3f 7626 7ebf
000001c0: 6257 ef3f bac6 ec3d e31c b8bf 5d97 03c0
000001d0: cdf5 5fbf 97f0 ba3f 71d1 b13d 8d1c adbf
000001e0: 1ff7 a1bd 2b93 bd3e c7aa a73f 315b b3bf
000001f0: 82d1 a2bf 5cfe 983e 5438 7bbf aca0 a53e
00000200: 6307 6ebf db26 0ebf 611c 523f ecb6 27bf
00000210: 55b9 aabe f789 f7bf 13c7 913f 0503 80be
00000220: aa61 20be 7de0 4ebe e517 953f 9eb4 cf3e
00000230: 4554 20bf 795b 963f c4e6 943e 91c4 b1bf
00000240: da41 18bd 6ad3 55be fa01 383f 0777 113f
00000250: 7d35 b73f 4a89 58be 3a58 8a3d a1ce 16bf
00000260: ace7 05c0 e230 2dbf af5d 9ebc 94a2 7f3f
00000270: 7234 5cbf 95c6 353f 8c92 9f3f 81bf 763e
00000280: 4dfb 403f 2022 b0bf c9cc 323f e053 aabf
00000290: e8a9 e83f 3a3d 703e 9c02 aabf f572 a13f
000002a0: 1780 93bf 8430 613f 33f5 3bbe 8959 b03f
000002b0: e8db 973f 70b5 213d 5914 0ebe 5721 1340
000002c0: 387f 61bf 6008 c3bf fb7f 3fbe 071d 5cbf
000002d0: 2d83 9dbe 4684 dd3e 307b 7e3e 54e6 fc3f
000002e0: 0a6d 203f d284 083f 349a 4e3f 3915 06c0
000002f0: 29de e33d bbc7 59bf 3055 123e 1009 04c0
00000300: ce0a f23f b7dd a43f 4040 3ec0 e520 5ebe
00000310: a58d 7abe 531e bfbf 7917 adbf c627 c9bd
00000320: bcc5 a13f ffd4 c63e 8776 a4bd d757 7f3f
00000330: f4d1 a5bf 07e6 87bf 1d94 5a3e d97b 783f
00000340: 66f6 d53e fb1b 3d3e f812 e13e 4531 433f
00000350: d7bb 933f e4b8 3ebf 04a8 a93f b9d4 febf
00000360: 876b e7be 0155 1cbe f26b 8f3e 1819 79bf
00000370: f1fd e3bd e658 453e b382 463e aea1 a0bf
00000380: c3ae 233c 1969 5dbf 1357 00bd 7cfd c1be
00000390: c60d fb3f 0c60 2f3f b2d6 193d fb21 9ebf
000003a0: 80d9 2dbd c62e 363f 4b7f 6cbf 9856 263f
000003b0: 2a0a 2dc0 349c 32bf f64d f6be 60e2 a13f
000003c0: 1700 7dbd 90e7 893e 5995 d1bf 92ad 01c0
000003d0: b7db d0bf d493 a83d f6e8 253f bab1 97bf
000003e0: 6d33 743f 8524 af3e 222a 3a3f 207d 8cbf
000003f0: a536 313e 0f13 543f 0258 86bf 49fe 703c
-1.4798148 0.23079847 -0.7530341 0.6420972 0.61069405 1.353648 -0.025093798 0.14193094
-0.8403754 -1.4471631 1.6446697 1.4226933 -0.14958537 -1.5020727 -0.95244056 -0.89337766
0.5406698 -2.688798 -0.8547022 -0.13958925 1.3610828 -0.53084356 -0.9925236 0.9512896
1.0713575 -2.2318807 0.4867139 1.5517966 -1.3430481 0.83329767 -1.3805597 0.25444552
0.17472611 -0.3896454 2.050459 1.0100178 0.22341011 1.5564826 0.47814837 1.6329097
0.4387993 -0.2834178 -0.7096943 2.3460894 -0.9463669 0.7526696 0.44610912 -0.17986785
-1.1767967 2.4939308 -1.8468142 2.8837767 0.05191077 0.059209056 0.60622114 -1.2535985
1.3098221 -1.3143333 -0.040700324 0.7021444 1.8029329 1.3863953 -0.96787626 -1.3904008
-0.9712386 2.0276096 -0.6456994 -0.4704897 0.51571506 -1.4204246 -1.7048894 -1.1205231
-0.026590673 0.8315407 2.4363227 0.12357402 0.3872721 0.36312172 0.43621594 -0.69969904
-0.45293754 0.6251043 -0.7441468 0.8893177 1.5276991 -0.7194172 1.600793 -0.44679424
-0.3008561 -1.6702468 -0.49858668 1.1498328 -0.24857412 -1.577503 -1.6308193 1.4100544
0.30713296 0.37674743 0.98701847 0.4588828 -0.43105328 0.21880452 0.8798015 -1.3744485
0.6445678 2.7755094 -0.9950294 -0.68550247 -0.4125431 -0.7915351 1.232836 -0.99277437
1.8698542 0.115613416 -1.4383816 -2.0561135 -0.8748444 1.4604672 0.08682526 -1.3524338
-0.07908463 0.37026343 1.3098992 -1.4012204 -1.2720187 0.2988156 -0.98132825 0.32349145
-0.9298002 -0.5552804 0.8207455 -0.6551349 -0.33344522 -1.9338979 1.1388878 -0.25002304
-0.15662256 -0.20202823 1.1647917 0.40567487 -0.62628585 1.1746665 0.2908231 -1.3888112
-0.037172176 -0.2088143 0.71878016 0.56822246 1.4313198 -0.21146122 0.06755109 -0.5890904
-2.0922651 -0.67652714 -0.019331781 0.9985745 -0.86017525 0.7100614 1.2466598 0.2409649
0.75383455 -1.3760414 0.6984373 -1.3306847 1.8176851 0.23460856 -1.3282046 1.2613207
-1.1523465 0.87964654 -0.18355255 1.3777324 1.1863985 0.039479673 -0.1387495 2.29891
-0.88084745 -1.5236931 -0.18701164 -0.8598179 -0.30764142 0.4326498 0.2485168 1.975779
0.6266638 0.5332767 0.80704045 -2.0950453 0.11126358 -0.8507039 0.14290309 -2.0630531
1.8909547 1.2880162 -2.9726715 -0.21692236 -0.24468096 -1.4931129 -1.3522788 -0.09822039
1.2638469 0.38834378 -0.0803042 0.9974341 -1.2954698 -1.0617074 0.21345563 0.97063977
0.4178955 0.18467705 0.43959785 0.76247054 1.1541699 -0.7450087 1.3254399 -1.9908668
-0.45199224 -0.15266801 0.28012043 -0.97303915 -0.1113242 0.19272193 0.19385795 -1.2549341
0.009990397 -0.8648849 -0.03133304 -0.37888706 1.9613578 0.6850593 0.037558265 -1.235412
-0.042443752 0.7116512 -0.92381734 0.6497588 -2.7037454 -0.697696 -0.48106354 1.2647209
-0.061767664 0.2693448 -1.6373702 -2.026219 -1.6317052 0.08231321 0.64808595 -1.1851113
0.9539097 0.3420755 0.7272054 -1.0975685 0.17306001 0.8284158 -1.0495608 0.014709064

input_proj.output_mask f4 [64]
00000000: 0000 803f 0000 803f 0000 803f 0000 803f
00000010: 0000 803f 0000 803f 0000 803f 0000 803f
00000020: 0000 803f 0000 803f 0000 803f 0000 803f
00000030: 0000 803f 0000 803f 0000 803f 0000 803f
00000040: 0000 0000 0000 0000 0000 0000 0000 0000
00000050: 0000 0000 0000 0000 0000 0000 0000 0000
00000060: 0000 0000 0000 0000 0000 0000 0000 0000
00000070: 0000 0000 0000 0000 0000 0000 0000 0000
00000080: 0000 0000 0000 0000 0000 0000 0000 0000
00000090: 0000 0000 0000 0000 0000 0000 0000 0000
000000a0: 0000 0000 0000 0000 0000 0000 0000 0000
000000b0: 0000 0000 0000 0000 0000 0000 0000 0000
000000c0: 0000 0000 0000 0000 0000 0000 0000 0000
000000d0: 0000 0000 0000 0000 0000 0000 0000 0000
000000e0: 0000 0000 0000 0000 0000 0000 0000 0000
000000f0: 0000 0000 0000 0000 0000 0000 0000 0000
1.0 1.0 1.0 1.0 1.0 1.0 1.0 1.0
1.0 1.0 1.0 1.0 1.0 1.0 1.0 1.0
0.0 0.0 0.0 0.0 0.0 0.0 0.0 0.0
0.0 0.0 0.0 0.0 0.0 0.0 0.0 0.0
0.0 0.0 0.0 0.0 0.0 0.0 0.0 0.0
0.0 0.0 0.0 0.0 0.0 0.0 0.0 0.0
0.0 0.0 0.0 0.0 0.0 0.0 0.0 0.0
0.0 0.0 0.0 0.0 0.0 0.0 0.0 0.0

layers.0.0.weight f4 [24576]
00000000: 9394 71be f450 89bf de70 aebd bede 6cbe
00000010: 3d49 493f 932a 8a3f 209e ee3f 67a8 8d3e
00000020: 6680 6c3f c6b6 a83e 1519 8cbf ab6e b5be
00000030: 1f45 f4bf c261 86bf bd39 66bf d9e8 ba3f
00000040: 15bc a33e 0f2c 15bf 9a40 b1bf 02e0 bd3f
00000050: 2554 62bf 3be5 b2bf 0707 16bf b715 95bd
00000060: 88f7 473e 2ef8 c63e 380f 713f 401a d6be
00000070: e5e2 f93e 411d c7bf a26c 6fbf d2dd e53e
00000080: 60cc 263f 5069 34bf 8fac e9bd 6571 debd
00000090: 4441 a9bd aea8 083e c6e6 3b3e 7818 e2bf
000000a0: af87 713e fc92 d03e 469f d2bf fdff 34be
000000b0: 5d42 bcbf a7b2 a0bd 5394 27bf 5a52 e83f
000000c0: 44a8 bd3e 8ee5 483f c540 a1bf e5c7 2d3e
000000d0: bc1d fcbe 6920 9bbe f2ef 9d3f bf50 203f
000000e0: 0e9c 933d 14f3 c7be 51d3 36be a4cb 493f
000000f0: 5ea3 0cbd 4b97 d53e 5381 1fbf 4886 bcbe
00000100: 5dd2 15bf f2ef 2eba e337 9bbf 20c2 713f
00000110: 8fda ea3f 2987 74bf 1db2 e0be b2ad bc3f
00000120: f1f3 a63d 6c01 fdbe 0709 cbbd 1a7a 0ebf
00000130: 13b8 343f aeed 663e 1032 d3bd 52b8 8e3f
00000140: 656e 5dbf 6de2 87bf ae33 383f e047 9e3f
00000150: d94e a5bf 45fd 4e3e e761 b93f e07b 583f
00000160: afff 123f dd04 533f ace9 f4be 32f4 f8bf
00000170: 34df 9bbf ec3e b2bf 0527 87bf 030c 1940
00000180: af0b 86bf 8b6e 3ebf 7698 103f e317 a5bf
00000190: d2f7 28bf 3a8a d6bf d748 983e 1a91 dabe
000001a0: 6273 3fbf f903 9abf e7ad e43f dc2b 2dbe
000001b0: 3df1 3340 c94e 343f d790 e1bd 92b5 e4bf
000001c0: 263f 38bf 6026 16bc 4bd1 59bd cf71 c03e
000001d0: c320 3dbf 78b8 8ebe c431 043d 54a4 5140
000001e0: 6a67 b33e 17b6 613f 5bcb e63f ef8b 6d3f
000001f0: 2858 de3f 97be d4be 8036 a0bd 0ebb 2f3f
00000200: 9a49 0ec0 a8c3 69bd 5839 293f 68cb 2a3f
00000210: 46d2 e33e 1d4a 25bf 2765 363f 3624 cfbe
00000220: 8542 383f eeab a7bf f5ed 24bc f34b 283e
00000230: 565d ad3e 14fa 4a3f 829b 24bf 41f1 91bf
00000240: f484 343f 8fa4 0f3f 435a 7fbe 0a07 19bf
00000250: abef a23f 7574 a2bd 7a0a d53d 5ae2 9d3e
00000260: fe9d 06be 8381 d0bf b140 20bf bd3a 4f3f
00000270: 9d68 57bf 1461 d5bf 39d0 fc3e 44f7 c13f
00000280: 06b9 483d ecd5 f03f fd71 153f 425d b1bf
00000290: 624b f1be 5069 e83e 4f6f a0be 37b9 b53f
000002a0: 4fd1 bc3f 7e4e 96bf 34bd 4a3e e11b 29bf
000002b0: 4be1 27be 4f2c d63f 16d8 b03e 768e 08c0
000002c0: 683f f13e e77f b23f 726d 213f 1aed 8fbf
000002d0: efb6 37bf a564 3cbf 4eb2 1340 357b 223f
000002e0: 5912 adbe 3123 1bbf 435e 9e3e 8642 fcbb
000002f0: 4b4b 0fbf a957 a63e 8449 83bf 4a0c 92be
00000300: 66fa 983f 66ea 0dbe c25f dcbd a2ec 56bf
00000310: 5376 f4bf 7032 293f 6de1 fd3e 905c 353f
00000320: 7188 f7be 3580 3d3f 37ae 91be f946 a7bf
00000330: 3805 c7bf 6908 163e ed57 bd3d c7a2 febe
00000340: 9df8 813f cd91 cabc 3c4c 8a3f 96e4 8a3f
00000350: 75b9 8c3f 0cf1 b03f bf6b 593f fa71 b2bf
00000360: cf52 88bf a85b 853e 88ae a73f cd37 7f3e
00000370: ebf3 ddbf 4826 5abf 8a80 663f b430 763d
00000380: 4352 9d3e da85 813f c1c2 ef3e 5ba3 463f
00000390: ee31 acbf 86c0 4c3e e326 9ebc eb72 fd3e
000003a0: daf9 a83e 1276 debf 6035 5cbf 5679 21c0
000003b0: b9fa 4dbf 8b1c 533e ac1d 883f 6c33 823f
000003c0: 30a6 88bc bdc6 2abf 84c4 0cbf 9a8e 923e
000003d0: 692a 6f3f 849a 9c3d b2cc 35bf 1ee8 58bf
000003e0: 841a a8be c033 b6bf 2bc1 f7bc 3aa0 693f
000003f0: d38b 31c0 975e b93e 4a16 b7be fe9d d33e
-0.23591833 -1.072783 -0.085176215 -0.23131844 0.7862738 1.0794243 1.8642006 0.27667543
0.9238342 0.32951945 -1.0945154 -0.35435995 -1.9083594 -1.0498583 -0.8993185 1.460231
0.31979433 -0.58270353 -1.384784 1.4833987 -0.88409644 -1.3976206 -0.5860447 -0.072795324
0.1952802 0.3886122 0.94163847 -0.41816902 0.4880592 -1.5555803 -0.93525136 0.44895798
0.651556 -0.70473194 -0.11409866 -0.10861472 -0.082644016 0.13345596 0.18349752 -1.7663717
0.23586915 0.4073714 -1.6454856 -0.17675777 -1.4707752 -0.07846575 -0.654607 1.8150132
0.3704244 0.7847527 -1.2597891 0.16970785 -0.49241436 -0.30298164 1.233885 0.6262321
0.072074994 -0.3905264 -0.17854048 0.78826356 -0.034335487 0.4171699 -0.6230671 -0.36821198
-0.58524114 -0.0006673328 -1.212643 0.94436836 1.8347949 -0.9551874 -0.4388589 1.4740508
0.08151997 -0.49415147 -0.09913831 -0.5565506 0.70593375 0.22551605 -0.10312283 1.115
-0.86496574 -1.0615975 0.71953857 1.2365685 -1.2914687 0.20213802 1.4483002 0.8456402
0.5742139 0.82429296 -0.47834527 -1.9449522 -1.2177491 -1.3925452 -1.0558783 2.3913581
-1.0472316 -0.74387425 0.56482637 -1.2897915 -0.66003144 -1.6760933 0.29743072 -0.4268883
-0.74785435 -1.2032462 1.7865571 -0.16911262 2.811599 0.70432717 -0.11013954 -1.7867911
-0.71971357 -0.009164423 -0.053178113 0.3758683 -0.73878115 -0.27875113 0.032274023 3.2756548
0.35039836 0.8816847 1.8030809 0.92791647 1.7370653 -0.4155166 -0.07822895 0.686448
-2.2232423 -0.057071358 0.66103125 0.66716623 0.44496363 -0.6456621 0.71248096 -0.40457314
0.719765 -1.3099344 -0.010066499 0.16435222 0.33860272 0.7928784 -0.64299786 -1.140175
0.7051537 0.5611047 -0.24936776 -0.59776366 1.2729391 -0.07932369 0.10402389 0.30836755
-0.13146207 -1.6289524 -0.6259871 0.80949 -0.84144 -1.6670251 0.4937761 1.5153584
0.049004577 1.8815284 0.5837706 -1.3856585 -0.47127825 0.45392847 -0.31334922 1.4197148
1.4751376 -1.1742704 0.19798738 -0.66058165 -0.16394536 1.6732272 0.3453986 -2.1336951
0.47118688 1.3945283 0.63057625 -1.1244233 -0.7176351 -0.7359107 2.3077579 0.6346925
-0.3380306 -0.6060057 0.3093129 -0.00769836 -0.5597426 0.32488754 -1.025681 -0.28525
1.1951416 -0.13858947 -0.10760452 -0.83954823 -1.909861 0.66092587 0.4958605 0.70844364
-0.48346284 0.74023753 -0.28453228 -1.3068534 -1.5548468 0.14651646 0.09245286 -0.49733564
1.0153996 -0.024727726 1.0804515 1.0851009 1.0994097 1.3823562 0.8493003 -1.3941033
-1.0650271 0.2604649 1.3100138 0.2492363 -1.7340063 -0.8521466 0.90039885 0.06010504
0.30726823 1.0118973 0.46828273 0.7759301 -1.3452737 0.19995317 -0.019305652 0.49501738
0.33003122 -1.7379782 -0.86018944 -2.5230308 -0.804607 0.20616357 1.0634055 1.0171943
-0.016680807 -0.667095 -0.5498736 0.2862442 0.9342409 0.07646659 -0.71015465 -0.8472918
-0.3283273 -1.4234543 -0.030243477 0.9126011 -2.7741592 0.3620498 -0.35759193 0.41331476

layers.0.0.output_mask f4 [80]
00000000: 0000 803f 0000 803f 0000 803f 0000 803f
00000010: 0000 803f 0000 803f 0000 803f 0000 803f
00000020: 0000 803f 0000 803f 0000 803f 0000 803f
00000030: 0000 803f 0000 803f 0000 803f 0000 803f
00000040: 0000 803f 0000 803f 0000 803f 0000 803f
00000050: 0000 803f 0000 803f 0000 803f 0000 803f
00000060: 0000 803f 0000 803f 0000 803f 0000 803f
00000070: 0000 803f 0000 803f 0000 803f 0000 803f
00000080: 0000 803f 0000 803f 0000 803f 0000 803f
00000090: 0000 803f 0000 803f 0000 803f 0000 803f
000000a0: 0000 803f 0000 803f 0000 803f 0000 803f
000000b0: 0000 803f 0000 803f 0000 803f 0000 803f
000000c0: 0000 803f 0000 803f 0000 803f 0000 803f
000000d0: 0000 803f 0000 803f 0000 803f 0000 803f
000000e0: 0000 803f 0000 803f 0000 803f 0000 803f
000000f0: 0000 803f 0000 803f 0000 803f 0000 803f
00000100: 0000 803f 0000 803f 0000 803f 0000 803f
00000110: 0000 803f 0000 803f 0000 803f 0000 803f
00000120: 0000 803f 0000 803f 0000 803f 0000 803f
00000130: 0000 803f 0000 803f 0000 803f 0000 803f
1.0 1.0 1.0 1.0 1.0 1.0 1.0 1.0
1.0 1.0 1.0 1.0 1.0 1.0 1.0 1.0
1.0 1.0 1.0 1.0 1.0 1.0 1.0 1.0
1.0 1.0 1.0 1.0 1.0 1.0 1.0 1.0
1.0 1.0 1.0 1.0 1.0 1.0 1.0 1.0
1.0 1.0 1.0 1.0 1.0 1.0 1.0 1.0
1.0 1.0 1.0 1.0 1.0 1.0 1.0 1.0
1.0 1.0 1.0 1.0 1.0 1.0 1.0 1.0
1.0 1.0 1.0 1.0 1.0 1.0 1.0 1.0
1.0 1.0 1.0 1.0 1.0 1.0 1.0 1.0

layers.0.1.mul.output_mask f4 [48]
00000000: 0000 803f 0000 803f 0000 803f 0000 803f
00000010: 0000 803f 0000 803f 0000 803f 0000 803f
00000020: 0000 803f 0000 803f 0000 803f 0000 803f
00000030: 0000 803f 0000 803f 0000 803f 0000 803f
00000040: 0000 803f 0000 803f 0000 803f 0000 803f
00000050: 0000 803f 0000 803f 0000 803f 0000 803f
00000060: 0000 803f 0000 803f 0000 803f 0000 803f
00000070: 0000 803f 0000 803f 0000 803f 0000 803f
00000080: 0000 803f 0000 803f 0000 803f 0000 803f
00000090: 0000 803f 0000 803f 0000 803f 0000 803f
000000a0: 0000 803f 0000 803f 0000 803f 0000 803f
000000b0: 0000 803f 0000 803f 0000 803f 0000 803f
1.0 1.0 1.0 1.0 1.0 1.0 1.0 1.0
1.0 1.0 1.0 1.0 1.0 1.0 1.0 1.0
1.0 1.0 1.0 1.0 1.0 1.0 1.0 1.0
1.0 1.0 1.0 1.0 1.0 1.0 1.0 1.0
1.0 1.0 1.0 1.0 1.0 1.0 1.0 1.0
1.0 1.0 1.0 1.0 1.0 1.0 1.0 1.0

layers.1.0.weight f4 [24576]
00000000: 9b47 46bf 4d82 97be db74 9f3f cae5 3dbd
00000010: c715 0c40 d63d aabe b1e5 b9be 8165 9fbf
00000020: 3205 1c3f ce41 463f f245 9abe 6378 00c0
00000030: 185b 1fc0 8f16 10bd e1b0 183f c513 ca3f
00000040: 5e68 a4bf 0ff2 8b3e fb8d 2c3f 7325 883f
00000050: 548c 9f3e 3c6e dc3f 943c af3e b86e 71bf
00000060: cbf6 9cbf 7fee c93e dacc 06c0 1ba7 90be
00000070: a0ba 483f ae01 0b3f 89a1 9dbf 4ade 263e
00000080: cfd6 47bf 4c39 463f b758 453f cb26 50bf
00000090: 1140 533f 7911 803e b4b9 16be 8199 03bf
000000a0: edaa 083d 2034 0a40 afe7 f3bc 1633 13c0
000000b0: a197 ed3b c73f ce3f c5d7 803f 7b80 d93f
000000c0: 0b2f 343f 6606 ca3d dbfe 4bbf f153 ae3f
000000d0: 8570 5abf 3235 ac3f 8a58 95bf fb45 f53e
000000e0: da41 383f cc7a ae3e c366 f23e 5fb7 42be
000000f0: 9ec4 6bbf 1d5e 0ebf d9e4 993f 942b 1abf
00000100: 2b27 573f d45f 97bf 8876 08bf 224a 17bf
00000110: 483e 69bc a06d e33f 6ba4 123b b75d ea3e
00000120: 8f62 99be 5948 59bf 46a0 adbe f1ad 3240
00000130: 6117 b6bf 99f4 443e 49b7 d93f 1c8d 1e40
00000140: 1354 5ebe 7836 28bf 5939 b6be 0a26 34be
00000150: 5e6b 7b3e 44b2 893f 701e a93f 6880 4e3e
00000160: 1ca6 f33e b1ad 703f ed3a 90be 7b0d 833f
00000170: 95cf 8c3e 293b da3e b31c 96bf f31b 773f
00000180: 6412 ddbf 7614 a4bf f72e b33d 7e13 fbbf
00000190: 264a 43bf 7b1b 573e bad9 883d 8548 67be
000001a0: daa9 963f b6de 753f cec4 6abf ed87 713f
000001b0: 056e 49bf 117c b9bf 28ff ad3e 6787 363d
000001c0: 2dc1 ccbe ce77 a1be b772 06be 95b7 50bf
000001d0: 6fb8 99bf 2c89 f23d 653d 1fbf 8501 03c0
000001e0: c954 a3bb 4253 c4bf b501 f3be f26d dfbf
000001f0: d2ee e6bd 3485 debe cda0 46bf 4dd8 9bbf
00000200: fb4e 6e3e 8ab0 ed3f 78a4 0d3f 5262 1dbf
00000210: b00f 79bf 8084 373f 1f96 d33f 6c5c 9d3e
00000220: 3176 153e a4aa c83f f372 b1be 1d09 c53f
00000230: 44b9 19bf 306a 233f 054f 2d3f 832e 67bd
00000240: 61e9 e83d 9d30 0440 e659 23c0 b4cf 79be
00000250: 9635 a6be 14f4 2d3f 7518 aebf c2f8 463f
00000260: ca4b d13f 0f8e 53bf e361 563e 55de e8bf
00000270: 39cb 8b3f d821 d13f 857b 563f a211 89bf
00000280: 8044 933e 3d72 5abf 3d0b f63e 2000 053f
00000290: 777b f03f 1799 8c3f 0c4d 98bf 5d8b 9ebf
000002a0: e944 21bf 9e03 b93f c20b 83be 374f ccbe
000002b0: 5907 a6bf bd77 ee3e 8fad b3bf c521 1540
000002c0: 6997 d7bf b5e6 bbbf 9e36 67bf d96b 133f
000002d0: 8900 85bd 6a5e c33d c851 283e 397c adbf
000002e0: c6ca 763e 1d9e 2b40 246b 2d40 2b9c 2fbd
000002f0: f421 ddbf 9df5 ca3f def9 17bf d2b6 143f
00000300: 9f6d e33e e9bd 74bf d4bf 383f ad01 02bd
00000310: 7efa f1bf be0e b6bf 37f3 a2be a070 d8be
00000320: 796f 9abd c5fc e63e 68ab 04be 735d db3e
00000330: 6656 f7be f69c 583f 8fb5 813f 5e58 033f
00000340: 3fd6 adbd ef52 ec3f 26b9 65be ee58 0f3f
00000350: 4b5e cfbf 2551 503f 03dd b6bf 8fd5 393f
00000360: f885 ad3e 4400 113e 6b71 663f 1df2 14be
00000370: bb2d ad3f 8bec dc3e 5453 273f f383 0e40
00000380: 154a 8b3f fd0a 5f3f 70db 7f3e 7424 a8be
00000390: d789 f83d 46fa 09be eee5 babf 4767 b03f
000003a0: 9923 5e3f 7341 ad3f 23a2 6d3f 522d 5d3d
000003b0: 799c 37be 050a 17bd f650 99bf 8cfd d3be
000003c0: 8b45 4f3e bc86 8cbf cfc5 5e3f 5ac9 cc3e
000003d0: 0704 bcbf c644 983f 5d67 833f c53b 87bf
000003e0: 1c99 76be 2ceb 53bf 0091 14bd d4bf a7bf
000003f0: 453e 123f 149d ca3f 9201 f3bf dd34 0dc0
-0.7745301 -0.295916 1.2457536 -0.046361722 2.1888292 -0.33250302 -0.36308053 -1.2452852
0.6094543 0.7744416 -0.3013149 -2.0073478 -2.489935 -0.035177764 0.59644896 1.5787283
-1.284435 0.27333114 0.67404145 1.0636429 0.3116175 1.7221141 0.34225905 -0.9430957
-1.2262815 0.3943977 -2.1062531 -0.2825249 0.7840977 0.5429944 -1.2314922 0.16295734
-0.78062147 0.7743118 0.77088493 -0.81309193 0.8251963 0.2501333 -0.14719278 -0.51406103
0.033366133 2.1594315 -0.029773561 -2.299993 0.0072507416 1.6113213 1.0065848 1.6992334
0.7038428 0.09864502 -0.79685754 1.3619367 -0.8532794 1.3453734 -1.1667645 0.47904953
0.7197548 0.34078062 0.47344026 -0.19015263 -0.9209689 -0.55612355 1.2022964 -0.60222745
0.8404414 -1.182612 -0.53305864 -0.5909749 -0.01423604 1.776783 0.0022375833 0.45774624
-0.29958007 -0.8487602 -0.3391134 2.7918665 -1.4225885 0.19233932 1.7009059 2.4773626
-0.2171176 -0.6570811 -0.35590628 -0.17592636 0.24552676 1.0757527 1.3212414 0.2016617
0.4758767 0.9401503 -0.28169957 1.0238489 0.27502123 0.4262326 -1.1727508 0.9652702
-1.7271237 -1.2818744 0.08749192 -1.9615324 -0.76285017 0.21006577 0.06682153 -0.22586258
1.1770585 0.96042955 -0.9170655 0.9434803 -0.786835 -1.4490987 0.3398373 0.044562723
-0.3999113 -0.31536716 -0.13129698 -0.81530124 -1.200941 0.1184257 -0.62203056 -2.0469677
-0.0049844724 -1.5337908 -0.4746224 -1.7455428 -0.1127602 -0.43461 -0.7758911 -1.2175385
0.23272316 1.85695 0.55329084 -0.6147815 -0.9728956 0.71686554 1.6530188 0.30734575
0.14595868 1.5677075 -0.34658012 1.5393406 -0.6004832 0.63833904 0.676987 -0.05644084
0.113726385 2.0654671 -2.552362 -0.24395639 -0.32462758 0.6795056 -1.3601214 0.77723324
1.6351254 -0.8263864 0.20935778 -1.819285 1.0921394 1.6338453 0.83782226 -1.0708506
0.287632 -0.85330564 0.4805545 0.51953316 1.8787678 1.0984219 -1.1898513 -1.238628
-0.62995774 1.4454229 -0.25594908 -0.39904186 -1.2970992 0.46575728 -1.4037341 2.3301861
-1.6843082 -1.4679781 -0.90317714 0.5758644 -0.06494243 0.095394924 0.16437447 -1.3553535
0.2410079 2.6815255 2.7096643 -0.042873543 -1.7275987 1.5856205 -0.5936564 0.5809146
0.44419572 -0.9560228 0.72167706 -0.03173988 -1.8904569 -1.4223249 -0.31826183 -0.42273426
-0.07540793 0.45114723 -0.12956011 0.42844734 -0.48308104 0.84614503 1.0133532 0.5130671
-0.0848813 1.8462809 -0.2243391 0.5599507 -1.6200651 0.81373817 -1.4286197 0.7259149
0.33891273 0.14160258 0.9001681 -0.14545484 1.3529581 0.43149218 0.65361524 2.2268035
1.0881983 0.8712614 0.24986053 -0.32840312 0.12135666 -0.13474378 -1.4601419 1.3781518
0.8677307 1.3535599 0.92825526 0.0539983 -0.17930783 -0.03687479 -1.1977832 -0.41404378
0.20241372 -1.0978618 0.8702058 0.3999737 -1.4688729 1.1895988 1.0265919 -1.0565115
-0.24081844 -0.8278072 -0.036271095 -1.3105416 0.57126266 1.5829186 -1.8984854 -2.2063515

layers.1.0.output_mask f4 [80]
00000000: 0000 803f 0000 803f 0000 803f 0000 803f
00000010: 0000 803f 0000 803f 0000 803f 0000 803f
00000020: 0000 803f 0000 803f 0000 803f 0000 803f
00000030: 0000 803f 0000 803f 0000 803f 0000 803f
00000040: 0000 803f 0000 803f 0000 803f 0000 803f
00000050: 0000 803f 0000 803f 0000 803f 0000 803f
00000060: 0000 803f 0000 803f 0000 803f 0000 803f
00000070: 0000 803f 0000 803f 0000 803f 0000 803f
00000080: 0000 803f 0000 803f 0000 803f 0000 803f
00000090: 0000 803f 0000 803f 0000 803f 0000 803f
000000a0: 0000 803f 0000 803f 0000 803f 0000 803f
000000b0: 0000 803f 0000 803f 0000 803f 0000 803f
000000c0: 0000 803f 0000 803f 0000 803f 0000 803f
000000d0: 0000 803f 0000 803f 0000 803f 0000 803f
000000e0: 0000 803f 0000 803f 0000 803f 0000 803f
000000f0: 0000 803f 0000 803f 0000 803f 0000 803f
00000100: 0000 803f 0000 803f 0000 803f 0000 803f
00000110: 0000 803f 0000 803f 0000 803f 0000 803f
00000120: 0000 803f 0000 803f 0000 803f 0000 803f
00000130: 0000 803f 0000 803f 0000 803f 0000 803f
1.0 1.0 1.0 1.0 1.0 1.0 1.0 1.0
1.0 1.0 1.0 1.0 1.0 1.0 1.0 1.0
1.0 1.0 1.0 1.0 1.0 1.0 1.0 1.0
1.0 1.0 1.0 1.0 1.0 1.0 1.0 1.0
1.0 1.0 1.0 1.0 1.0 1.0 1.0 1.0
1.0 1.0 1.0 1.0 1.0 1.0 1.0 1.0
1.0 1.0 1.0 1.0 1.0 1.0 1.0 1.0
1.0 1.0 1.0 1.0 1.0 1.0 1.0 1.0
1.0 1.0 1.0 1.0 1.0 1.0 1.0 1.0
1.0 1.0 1.0 1.0 1.0 1.0 1.0 1.0

layers.1.1.mul.output_mask f4 [48]
00000000: 0000 803f 0000 803f 0000 803f 0000 803f
00000010: 0000 803f 0000 803f 0000 803f 0000 803f
00000020: 0000 803f 0000 803f 0000 803f 0000 803f
00000030: 0000 803f 0000 803f 0000 803f 0000 803f
00000040: 0000 803f 0000 803f 0000 803f 0000 803f
00000050: 0000 803f 0000 803f 0000 803f 0000 803f
00000060: 0000 803f 0000 803f 0000 803f 0000 803f
00000070: 0000 803f 0000 803f 0000 803f 0000 803f
00000080: 0000 803f 0000 803f 0000 803f 0000 803f
00000090: 0000 803f 0000 803f 0000 803f 0000 803f
000000a0: 0000 803f 0000 803f 0000 803f 0000 803f
000000b0: 0000 803f 0000 803f 0000 803f 0000 803f
1.0 1.0 1.0 1.0 1.0 1.0 1.0 1.0
1.0 1.0 1.0 1.0 1.0 1.0 1.0 1.0
1.0 1.0 1.0 1.0 1.0 1.0 1.0 1.0
1.0 1.0 1.0 1.0 1.0 1.0 1.0 1.0
1.0 1.0 1.0 1.0 1.0 1.0 1.0 1.0
1.0 1.0 1.0 1.0 1.0 1.0 1.0 1.0

layers.2.0.weight f4 [24576]
00000000: 1745 bd3f caa3 b6be f4d0 1bbf e119 6cbe
00000010: bdf6 4a3f 27ea 253f bf25 8ebf 90a2 56bf
00000020: 90c3 c6be e068 b43e af7d 8ebf bc22 0b3f
00000030: 20e6 a5bf 907b 7abf 362e 21bf ef75 1fbf
00000040: 2cbf c13f e97d 64bf 0e2d 1d3f 0517 61be
00000050: 584b 713f cde7 aabe 39b5 d8bf e482 2d3b
00000060: 501f 173f 0804 43be c944 e6bf 6ba4 483f
00000070: 7569 89bf 6b55 d53f c6c4 743f 0d90 593f
00000080: 639d 933f db9c 093d ff7d 02c0 2c2d ab3f
00000090: 7b8e 15bf f146 0a40 a669 4b3f aea3 0d3f
000000a0: 584b b7bf 7708 70bc d0c8 c0bf 91c8 293f
000000b0: 0fb9 e5bd b456 4d3f 6c6e 22bd 40b4 32bf
000000c0: dfc6 d1bd 7114 9bbf 40c4 b0bf 6af4 b3bf
000000d0: 5d8c c93e 0980 aebe 00f3 f6be e3b3 abbe
000000e0: cd61 943c 463a 4d3f a758 7dbf f136 313f
000000f0: f5e1 e43e 0301 65be 58fd d73f ab8a b3be
00000100: a810 9b3e 1210 3c3e 7b05 fa3e 31b5 aabf
00000110: e9ca bb3f 5f4c ef3f cc51 adbf 691b 9f3f
00000120: af86 2140 db43 973e bc2d 903e 88f3 be3e
00000130: cade e1bf 97ae f2bf 9e68 23bf 6d83 473f
00000140: 8cc9 1e3f 3818 a33e e806 5fbe eb07 8a3f
00000150: a420 d93e d56c d63e 9f30 0abe 2b10 b63d
00000160: de75 5d3f 35af 363f 47a6 533f 74c2 b13d
00000170: 2b7e 1440 b3be 02bf 305b 3c3f b796 1b3f
00000180: a4b4 78be 34d6 433f 4dde 4a3f 25a9 b03f
00000190: e5fc fabe a4ed 813f 72da a63f 9f5c 22c0
000001a0: 3f3c 423f ac2f ae3f c778 32be 209d b4bf
000001b0: 5863 01bf d5c5 483f fb5b 2d40 0304 c33e
000001c0: 70b4 453f c9c7 0ec0 0af9 b5bf 0260 36c0
000001d0: ee21 0b40 07b2 7bbe b8a1 84be 288e 1240
000001e0: cfd9 bebf 136a fe3e 05dd 6d3f c544 03c0
000001f0: b085 babd b63e b93f 940c 833f d114 cbbf
00000200: 0434 2640 329b c7be b01c 8f3e b2a6 233e
00000210: 050d e53f 5c39 013d 6a98 c73e d91a bbbd
00000220: 0a09 68bf 6487 a23f 0243 173e 86d1 3d3f
00000230: d9fc dd3f 02a7 363e 9c0f 3f3f 6a3c 1c3f
00000240: f26f 0440 7ff7 1abe ee28 163f bde2 7abe
00000250: 787d 8b3f 3d8e 98bf 078e 4d3e 4c55 3e3d
00000260: 2590 643f b725 ec3f db8e 293f c716 693f
00000270: d0f1 da3e d8ea 0c3f 9dcd 143f a0a1 9ebb
00000280: c3ca 313f 8281 dfbc 2372 093f f34b b9bf
00000290: d1c8 55bf 2e38 b13f 28c3 7b3f cefd ba3e
000002a0: 3684 72bf 6db0 883e f2d5 cdbf df50 a93b
000002b0: fff4 0f3e fe0d 923e d311 813e 1336 e1bf
000002c0: 3196 bc3f aece 5c3f c7b6 c6be 168f 3fbf
000002d0: 70fd 4bbb f693 083f 75d3 c8bd 4320 fbbe
000002e0: f452 29bf ef05 ff3f 6654 99bf 60a4 b43e
000002f0: 4b0d 98bd edfa 4cbf 1692 bb3f 3154 913e
00000300: 8f77 1c3f 5144 5ec0 bae6 c93f 7ad5 41be
00000310: 3766 9a3e 421f 8cbe 389c 2abe 5c09 f63e
00000320: b98b a5bf 5195 9cbf a35b 8cbf a0d9 3d3f
00000330: 1c93 34be 3ef6 8b3e 17f1 323f 383c a6be
00000340: 113e b93f 081c 783e 9b66 683f 3191 453e
00000350: 8037 0e3d 9882 f6bf 4e56 89bf 5073 59bf
00000360: 97b7 70bf a57b df3f 33d3 993f 3ce7 1540
00000370: 9176 ff3f f035 4dbf 95e1 583f 687a a73f
00000380: f274 d53e 9ad6 82bf 6ad1 10be 48b7 3440
00000390: 2cc0 45bf 9adc 123f f416 39be 07fb 97be
000003a0: aa10 36c0 5b35 243f 8c8a 2840 1fbf 67be
000003b0: 05a5 d5bf a88b 39bc 62a1 0e3c 9a34 0440
000003c0: 84e2 b83e b639 61bf df03 99bf 0040 6abf
000003d0: e4cc d33f 934b d93e 80e1 c8be c920 b33e
000003e0: 1af9 223e 918f 0cc0 3447 99bb c4a9 cebf
000003f0: 736e 34bf 5557 9dbe cf70 0a3f 0d6a f43d
1.478671 -0.35671836 -0.6086571 -0.23056747 0.7928274 0.64810413 -1.1105269 -0.838418
-0.38821077 0.35236263 -1.1132106 0.54349875 -1.2960854 -0.9784479 -0.6296114 -0.6228933
1.5136466 -0.89254624 0.61396873 -0.21981438 0.9425559 -0.33379975 -1.6930305 0.0026475722
0.59032154 -0.19044507 -1.7989742 0.7837588 -1.0735308 1.6666692 0.9561275 0.8498543
1.1532406 0.033596855 -2.0389402 1.337316 -0.5842053 2.16058 0.7945808 0.5532788
-1.4319868 -0.014650456 -1.5061283 0.66321665 -0.11216938 0.80210423 -0.039656088 -0.6980629
-0.1024301 -1.2115613 -1.3809891 -1.4058964 0.393649 -0.34082058 -0.4823227 -0.3353568
0.018113041 0.80167043 -0.989634 0.6922446 0.44703642 -0.22363667 1.6874189 -0.35066733
0.30286145 0.18365505 0.48832306 -1.3336545 1.4671298 1.8695182 -1.3540587 1.243024
2.5238454 0.29543957 0.28159893 0.37295175 -1.7646115 -1.895953 -0.6383151 0.77934915
0.62026286 0.31854415 -0.21779978 1.0783666 0.42407715 0.41879907 -0.1349511 0.088898025
0.86507976 0.71361095 0.82675594 0.08679667 2.3202007 -0.51072234 0.7357664 0.6077685
-0.24287659 0.76498723 0.79245454 1.3801619 -0.49021068 1.0150647 1.3035414 -2.5369031
0.7587318 1.3608298 -0.17428885 -1.4110451 -0.5054221 0.7842687 2.708739 0.38088998
0.7722845 -2.230944 -1.4216626 -2.8496099 2.173946 -0.24579631 -0.25904632 2.2899265
-1.491022 0.49690303 0.92915374 -2.0510724 -0.0910753 1.4472263 1.0238214 -1.5865728
2.5969248 -0.38985592 0.27951574 0.15981558 1.7894598 0.031548843 0.3898347 -0.0913598
-0.9063879 1.2697568 0.14771655 0.7414783 1.7342788 0.17837146 0.74633193 0.61029685
2.0693326 -0.15133475 0.58656204 -0.24500556 1.0897665 -1.1918408 0.2007371 0.046468064
0.8928245 1.844901 0.66233605 0.9105038 0.42762613 0.55045843 0.5812624 -0.0048410445
0.69450015 -0.027283434 0.53689784 -1.4476303 -0.83509547 1.384527 0.9834466 0.36521763
-0.9473299 0.26697102 -1.6080916 0.0051671113 0.14058302 0.285263 0.2520891 -1.7594627
1.4733335 0.8625287 -0.38811323 -0.74827707 -0.0031126402 0.5335077 -0.09805957 -0.4904805
-0.661422 1.9923686 -1.1978881 0.35281658 -0.074244104 -0.8007038 1.4653957 0.28384545
0.6111993 -3.4729197 1.5773537 -0.18929091 0.3015611 -0.27367598 -0.16661155 0.48054016
-1.2933265 -1.2233068 -1.0965465 0.74160194 -0.17634243 0.27336305 0.69899124 -0.32467818
1.4472066 0.24229443 0.90781564 0.19293667 0.034720898 -1.9258604 -1.0729463 -0.8494158
-0.94030136 1.7459608 1.2017578 2.3422384 1.9958059 -0.8016043 0.8471921 1.308423
0.41690785 -1.0221741 -0.14142385 2.8236866 -0.77246356 0.5736786 -0.18075162 -0.29683706
-2.844767 0.64143914 2.6334562 -0.226315 -1.6690985 -0.011324801 0.008705469 2.0657105
0.36110318 -0.87978685 -1.1954306 -0.91503906 1.6546903 0.4244047 -0.39234543 0.3498595
0.15915337 -2.1962626 -0.0046776775 -1.6145558 -0.7048103 -0.30730692 0.5407838 0.1193429

layers.2.0.output_mask f4 [80]
00000000: 0000 803f 0000 803f 0000 803f 0000 803f
00000010: 0000 803f 0000 803f 0000 803f 0000 803f
00000020: 0000 803f 0000 803f 0000 803f 0000 803f
00000030: 0000 803f 0000 803f 0000 803f 0000 803f
00000040: 0000 803f 0000 803f 0000 803f 0000 803f
00000050: 0000 803f 0000 803f 0000 803f 0000 803f
00000060: 0000 803f 0000 803f 0000 803f 0000 803f
00000070: 0000 803f 0000 803f 0000 803f 0000 803f
00000080: 0000 803f 0000 803f 0000 803f 0000 803f
00000090: 0000 803f 0000 803f 0000 803f 0000 803f
000000a0: 0000 803f 0000 803f 0000 803f 0000 803f
000000b0: 0000 803f 0000 803f 0000 803f 0000 803f
000000c0: 0000 803f 0000 803f 0000 803f 0000 803f
000000d0: 0000 803f 0000 803f 0000 803f 0000 803f
000000e0: 0000 803f 0000 803f 0000 803f 0000 803f
000000f0: 0000 803f 0000 803f 0000 803f 0000 803f
00000100: 0000 803f 0000 803f 0000 803f 0000 803f
00000110: 0000 803f 0000 803f 0000 803f 0000 803f
00000120: 0000 803f 0000 803f 0000 803f 0000 803f
00000130: 0000 803f 0000 803f 0000 803f 0000 803f
1.0 1.0 1.0 1.0 1.0 1.0 1.0 1.0
1.0 1.0 1.0 1.0 1.0 1.0 1.0 1.0
1.0 1.0 1.0 1.0 1.0 1.0 1.0 1.0
1.0 1.0 1.0 1.0 1.0 1.0 1.0 1.0
1.0 1.0 1.0 1.0 1.0 1.0 1.0 1.0
1.0 1.0 1.0 1.0 1.0 1.0 1.0 1.0
1.0 1.0 1.0 1.0 1.0 1.0 1.0 1.0
1.0 1.0 1.0 1.0 1.0 1.0 1.0 1.0
1.0 1.0 1.0 1.0 1.0 1.0 1.0 1.0
1.0 1.0 1.0 1.0 1.0 1.0 1.0 1.0

layers.2.1.mul.output_mask f4 [48]
00000000: 0000 803f 0000 803f 0000 803f 0000 803f
00000010: 0000 803f 0000 803f 0000 803f 0000 803f
00000020: 0000 803f 0000 803f 0000 803f 0000 803f
00000030: 0000 803f 0000 803f 0000 803f 0000 803f
00000040: 0000 803f 0000 803f 0000 803f 0000 803f
00000050: 0000 803f 0000 803f 0000 803f 0000 803f
00000060: 0000 803f 0000 803f 0000 803f 0000 803f
00000070: 0000 803f 0000 803f 0000 803f 0000 803f
00000080: 0000 803f 0000 803f 0000 803f 0000 803f
00000090: 0000 803f 0000 803f 0000 803f 0000 803f
000000a0: 0000 803f 0000 803f 0000 803f 0000 803f
000000b0: 0000 803f 0000 803f 0000 803f 0000 803f
1.0 1.0 1.0 1.0 1.0 1.0 1.0 1.0
1.0 1.0 1.0 1.0 1.0 1.0 1.0 1.0
1.0 1.0 1.0 1.0 1.0 1.0 1.0 1.0
1.0 1.0 1.0 1.0 1.0 1.0 1.0 1.0
1.0 1.0 1.0 1.0 1.0 1.0 1.0 1.0
1.0 1.0 1.0 1.0 1.0 1.0 1.0 1.0

readout.weight f4 [16]
00000000: 2bfc 423f 29c0 c93e 88e9 cebe 072c eb3e
00000010: 1248 e6bf 86c0 4bbf dee9 bbbd 4f25 6bbf
00000020: 002f 31bf 6834 383f f8c1 14bf 3820 c23e
00000030: 9fce 9d3e 0fa2 2f3e d101 1840 6564 df3e
0.7616603 0.3940442 -0.40412545 0.45932028 -1.7990744 -0.7959064 -0.09175466 -0.91853803
-0.6921234 0.71954966 -0.5810847 0.37915206 0.30821702 0.17151664 2.3751109 0.43631282
