egnn_model2.pth (torch, 305442 bytes, 12 tensors)

input_proj.weight f4 [256]
-0.31369916 -0.18767205 -0.9941539 0.6246715 1.040995 0.64946234 -0.104233414 0.3023306
-1.1630687 -1.1234066 1.4288754 0.68257326 0.5082282 -1.9895672 -0.86466074 -0.16229233
0.066572055 -1.6772163 -0.509901 -0.19380994 -0.050021004 -0.47054207 -0.962958 1.0299821
0.9606195 -2.141209 0.87906164 0.23658094 -1.1838709 0.20382366 -0.9347001 0.26153532
0.36157355 -1.1817206 1.1174061 -0.5669593 0.18132885 0.41086054 1.5234414 0.95082706
0.37069726 -0.5893432 0.27656287 1.209389 -1.0709721 0.1921871 0.108393215 0.050549917
-1.5164611 3.0728998 -1.7768247 2.6078424 -0.14222366 -0.5374225 0.96623397 -1.4308531
2.03115 -2.0986423 0.3037466 0.5902546 1.4707203 1.0629648 -1.8215026 -1.352545
-1.6059431 1.9014705 -0.7705504 -0.15980707 0.08987152 -1.720145 -1.0485597 -1.8478628
-0.00235968 0.45942345 2.8203266 0.38528177 0.13513054 0.4385024 0.29085833 -1.2620054
0.4571546 0.44928598 -1.2847254 1.2405283 0.37664977 -0.6352331 1.7428845 -1.0029727
-1.259142 -2.0716615 0.10777158 0.36206114 0.54045767 -1.7203373 -0.7988326 1.3989687
-0.2532139 0.9041342 1.0752832 0.535962 -0.93263805 0.0537202 1.1975757 -1.7080666
1.1205956 2.3909743 -0.727123 -0.73228234 -0.74336827 -0.9011712 0.68706113 -1.1079812
1.8330382 0.76750046 -1.5963333 -2.3395717 -1.86524 0.77295715 0.01735075 -1.0670532
0.18403289 0.64400643 1.370698 -2.500898 -1.4359304 -0.6963747 -1.0713465 0.91694844
-0.24018021 -0.54589427 0.8974341 -0.637227 0.09448512 -1.3331212 0.49315652 0.28368694
-0.36771554 0.09934692 0.68595654 0.18264534 -0.07690201 1.1076096 0.57079786 -1.1728889
-0.87210256 0.44174063 0.92982364 0.5356215 0.60468274 -0.022243576 0.22321112 -0.5605154
-1.7635314 -0.7713481 0.15662698 0.7819444 -1.0300865 0.63055354 0.9710361 0.12356331
0.5020539 -0.9855324 0.57549095 -0.75811476 1.4615643 0.08195183 -1.1104326 0.7049585
-0.75163674 0.29039776 -0.045462947 1.7346927 0.6484664 0.07526259 -0.8270945 1.8510929
-1.1119405 -1.7783121 -0.23253839 -0.19611058 -0.2859377 0.43699893 0.20014411 1.5185671
0.7114302 0.1291087 0.9308342 -1.2301477 0.10945234 -0.17416848 -0.06795935 -2.7089806
1.0601076 2.3833563 -2.7096891 0.43392423 -1.3731902 -0.16646868 -1.9007571 0.07386891
1.278311 0.5132208 -0.53322744 0.75193495 0.17422825 -1.1891958 0.81913567 0.3959748
-0.52599895 0.11797426 1.3670876 1.1284148 3.1726444 0.35834318 0.537994 -1.2755165
0.3752301 -0.012668368 0.20523603 0.94627273 -1.2172896 1.374478 0.10382985 -1.5096965
-0.8383506 0.21355486 0.21824278 0.32265514 0.9215707 1.9434916 -0.5795834 -0.95135474
-0.14994474 0.74929667 -1.1266577 0.47424665 -1.4509559 -0.7088515 0.06379735 0.49093732
0.81133413 -0.053783502 -1.669333 -1.8028847 -1.2423398 0.34133977 0.32238105 -1.2894987
0.41442996 0.19241628 0.3788179 -0.6923157 0.35689127 1.1310017 -0.6893824 -0.33465064
00000000: 2d9d a0be 1a2d 40be df80 7ebf 79ea 1f3f
00000010: 533f 853f 2a43 263f 5478 d5bd 14cb 9a3e
00000020: 6fdf 94bf cacb 8fbf 64e5 b63f 1fbd 2e3f
00000030: 3e1b 023f 23aa febf 685a 5dbf f62f 26be
00000040: ee56 883d 06af d6bf df88 02bf 1d76 46be
00000050: d3e2 4cbd e4ea f0be 6a84 76bf 74d6 833f
00000060: 29eb 753f 9109 09c0 2f0a 613f 4642 723e
00000070: 1589 97bf 26b7 503e 8148 6fbf f5e7 853e
00000080: 2b20 b93e 9f42 97bf 2a07 8f3f 3f24 11bf
00000090: 45ae 393e 505c d23e 2100 c33f 6769 733f
000000a0: 08cc bd3e 32df 16bf a699 8d3e 42cd 9a3f
000000b0: 9d15 89bf b2cc 443e 43fd dd3d 6e0d 4f3d
000000c0: 661b c2bf 64aa 4440 fe6e e3bf e4e6 2640
000000d0: 14a3 11be 8594 09bf 1c5b 773f 3226 b7bf
000000e0: 5dfe 0140 2850 06c0 ad84 9b3e ed1a 173f
000000f0: 9040 bc3f 3b0f 883f ff26 e9bf 3220 adbf
00000100: 8b8f cdbf 6363 f33f ca42 45bf 77a4 23be
00000110: 8f0e b83d b62d dcbf 3437 86bf c586 ecbf
00000120: dca4 1abb 8d39 eb3e 3b80 3440 a743 c53e
00000130: a95f 0a3e 6383 e03e 62eb 943e 6589 a1bf
00000140: 2b10 ea3e d008 e63e e271 a4bf a2c9 9e3f
00000150: 3dd8 c03e a39e 22bf d716 df3f 6961 80bf
00000160: 912b a1bf 1a96 04c0 59b7 dc3d 1460 b93e
00000170: 6f5b 0a3f 0334 dcbf 4b80 4cbf 6811 b33f
00000180: 41a5 81be 5775 673f e1a2 893f ce34 093f
00000190: 5ec1 6ebf b609 5c3d 294a 993f eda1 dabf
000001a0: ad6f 8f3f b905 1940 bc24 3abf db76 3bbf
000001b0: 624d 3ebf 28b3 66bf 3de3 2f3f 54d2 8dbf
000001c0: ffa0 ea3f e97a 443f a654 ccbf 8bbb 15c0
000001d0: 2fc0 eebf 85e0 453f 2923 8e3c 3395 88bf
000001e0: 1e73 3c3e 9bdd 243f 0873 af3f b60e 20c0
000001f0: 91cc b7bf 9d45 32bf e221 89bf 22bd 6a3f
00000200: cdf1 75be babf 0bbf 3ebe 653f 4f21 23bf
00000210: 6a81 c13d b7a3 aabf 037f fc3e 6a3f 913e
00000220: 3645 bcbe 6676 cb3d d99a 2f3f 6107 3b3e
00000230: cd7e 9dbd 27c6 8d3f cf1f 123f 3921 96bf
00000240: 1d42 5fbf d42b e23e ec08 6e3f 7e1e 093f
00000250: 7dcc 1a3f 2938 b6bc 7591 643e f07d 0fbf
00000260: 66bb e1bf 1277 45bf d362 203e 822d 483f
00000270: e0d9 83bf f56b 213f d295 783f c30e fd3d
00000280: 9b86 003f da4b 7cbf 6053 133f cf13 42bf
00000290: 8a14 bb3f 5cd6 a73d a822 8ebf 2978 343f
000002a0: 446b 40bf 04af 943e 5b37 3abd 690a de3f
000002b0: e501 263f 4623 9a3d 77bc 53bf 9df0 ec3f
000002c0: 1154 8ebf bb9f e3bf 8b1e 6ebe 36d1 48be
000002d0: 6d66 92be 53be df3e 94f2 4c3e 6860 c23f
000002e0: 4a20 363f 1235 043e 264b 6e3f 7b75 9dbf
000002f0: 8c28 e03d 3959 32be 462e 8bbd f05f 2dc0
00000300: 9bb1 873f e988 1840 8c6b 2dc0 512b de3e
00000310: b2c4 afbf c476 2abe 024c f3bf 9548 973d
00000320: b29f a33f 7062 033f 9881 08bf cf7e 403f
00000330: e468 323e 9137 98bf e0b2 513f 36bd ca3e
00000340: dea7 06bf 7d9c f13d bafc ae3f e56f 903f
00000350: 9b0c 4b40 c278 b73e fab9 093f 2044 a3bf
00000360: 291e c03e fd8e 4fbc 6529 523e ee3e 723f
00000370: 25d0 9bbf e5ee af3f bfa4 d43d bc3d c1bf
00000380: 259e 56bf 20ae 5a3e 097b 5f3e 0e33 a53e
00000390: 0fec 6b3f 55c4 f83f 945f 14bf fc8b 73bf
000003a0: 1d8b 19be e8d1 3f3f 5236 90bf 75d0 f23e
000003b0: ecb8 b9bf 4b77 35bf 2fa8 823d 235c fb3e
000003c0: 98b3 4f3f 174c 5cbd b4ac d5bf edc4 e6bf
000003d0: fe04 9fbf 16c4 ae3e 210f a53e 4b0e a5bf
000003e0: 2a30 d43e c608 453e 6bf4 c13e 9a3b 31bf
000003f0: 74ba b63e aac4 903f 5d7b 30bf 5457 abbe

input_proj.output_mask f4 [64]
1.0 1.0 1.0 1.0 1.0 1.0 1.0 1.0
1.0 1.0 1.0 1.0 1.0 1.0 1.0 1.0
0.0 0.0 0.0 0.0 0.0 0.0 0.0 0.0
0.0 0.0 0.0 0.0 0.0 0.0 0.0 0.0
0.0 0.0 0.0 0.0 0.0 0.0 0.0 0.0
0.0 0.0 0.0 0.0 0.0 0.0 0.0 0.0
0.0 0.0 0.0 0.0 0.0 0.0 0.0 0.0
0.0 0.0 0.0 0.0 0.0 0.0 0.0 0.0
00000000: 0000 803f 0000 803f 0000 803f 0000 803f
00000010: 0000 803f 0000 803f 0000 803f 0000 803f
00000020: 0000 803f 0000 803f 0000 803f 0000 803f
00000030: 0000 803f 0000 803f 0000 803f 0000 803f
00000040: 0000 0000 0000 0000 0000 0000 0000 0000
00000050: 0000 0000 0000 0000 0000 0000 0000 0000
00000060: 0000 0000 0000 0000 0000 0000 0000 0000
00000070: 0000 0000 0000 0000 0000 0000 0000 0000
00000080: 0000 0000 0000 0000 0000 0000 0000 0000
00000090: 0000 0000 0000 0000 0000 0000 0000 0000
000000a0: 0000 0000 0000 0000 0000 0000 0000 0000
000000b0: 0000 0000 0000 0000 0000 0000 0000 0000
000000c0: 0000 0000 0000 0000 0000 0000 0000 0000
000000d0: 0000 0000 0000 0000 0000 0000 0000 0000
000000e0: 0000 0000 0000 0000 0000 0000 0000 0000
000000f0: 0000 0000 0000 0000 0000 0000 0000 0000

layers.0.0.weight f4 [24576]
-0.504524 -1.0613847 -0.85489696 -1.0565492 -0.16665843 -0.23740852 0.8397046 -0.3034765
0.19707395 -0.8496743 -2.4936755 -1.1601896 -3.540359 -2.530918 -2.2124763 -0.4781714
1.8426187 1.1159192 -0.14991537 1.4967371 0.53372806 -1.9469099 -0.040635925 0.97617173
0.52189106 1.8495898 2.0797274 -0.53215235 -0.39564767 -1.2177546 -1.1681008 1.6266515
1.4914693 0.5126176 -0.66233927 0.7066153 0.54645306 -0.5785424 -1.0193704 -0.28871572
-0.18839133 0.28176785 -0.6443148 0.610462 -1.0852804 -0.73756087 -0.6328949 1.0766289
0.7675006 1.4304475 -0.7415293 0.014994575 -1.1040609 -1.4938836 0.43309054 0.71217674
-0.3163926 0.19369209 0.44103873 -0.66844887 -0.86907816 0.8209515 -0.009872533 -1.099079
-0.87824 -0.06536477 -0.75308084 0.26844215 1.0101867 -1.6500368 -1.3483869 1.22465
-0.58607495 -0.31354332 0.27376395 -1.9071176 0.11169228 -1.0624346 -0.30952895 1.0426613
1.3787609 -0.14027235 -0.15909545 0.82444096 -1.2736106 -1.4227321 0.5710801 2.018691
0.5326854 0.50195163 0.12276797 -0.66862655 -2.7919998 -0.8120158 -0.11710181 1.8428161
-0.4996467 -0.69852734 -0.3569573 -1.79022 -1.5874356 -3.371283 -0.5885218 -0.38093525
-0.051956214 -2.8019435 1.2514104 2.1291795 3.1162138 2.2429783 -0.18109198 -1.3116188
0.35540372 -0.37366235 -0.38456124 -0.08401275 -1.5103233 -0.7986831 0.02982917 1.187722
-0.15593612 0.55679256 0.31337646 2.855174 1.3089097 0.74292797 0.2438363 0.8388081
-1.4267224 0.17543653 -0.06436447 -0.24300833 0.72268057 -1.7208819 0.14298758 0.24506319
0.76292825 -1.4614727 1.719462 0.20692578 -0.6976632 -1.1194932 -0.22614111 0.10648161
2.1339169 1.2782018 0.32515508 -0.1298058 0.34575358 0.13154286 0.16998927 1.7931762
-0.47110102 -0.94042534 -0.17254438 -0.7906048 -0.9457613 -1.2888807 0.20266667 1.1964024
-0.79280317 0.8555367 0.010249687 -1.6107167 -0.6693721 0.00699827 -0.5932622 0.25495586
1.4481565 -1.5779487 -0.6399574 1.0768416 0.81775165 1.5040898 0.45707357 -1.6182058
-0.48065308 0.7650316 1.3253703 -1.7650552 -1.7750968 -1.5309643 2.348481 -0.120239705
-1.0698555 1.1204392 -0.27768257 -1.2043661 -1.3118821 0.17489722 -1.3843509 -0.115879074
2.0246165 0.16920573 -0.4949517 -0.13245086 -1.5389224 1.6617587 1.1385889 0.58357304
0.54116684 0.454335 -0.97306496 0.3013246 -1.3826371 1.1746126 -0.30038837 -0.18871962
0.6786826 0.3850425 1.5947516 1.8618302 1.4889615 -0.18445592 -0.2767688 -0.6667746
-2.0959969 0.9822271 2.0499225 -0.06918065 -1.0514776 -1.604266 0.54266214 -0.072281756
0.31288648 1.8548086 0.23350713 0.99650997 0.25300026 0.52306587 0.17665642 0.9170184
-0.24164374 -1.3709977 0.40139836 -2.2602315 -0.22630829 -0.088276334 0.8495232 0.2195318
-0.6441244 -1.0433859 -0.20932783 0.10099496 1.4599185 0.8004255 0.55123985 -0.42009544
0.16917178 -0.9878826 -0.117197156 0.2072498 -2.9899912 -0.09151633 0.45218238 -0.7403352
00000000: 7c28 01bf 74db 87bf 87da 5abf 013d 87bf
00000010: 82a8 2abe 381b 73be e1f6 563f 4661 9bbe
00000020: c1cd 493e 4184 59bf 6198 1fc0 1881 94bf
00000030: 3e95 62c0 8ffa 21c0 3699 0dc0 e2d2 f4be
00000040: eeda eb3f 71d6 8e3f 6a83 19be 1595 bf3f
00000050: 67a2 083f 5834 f9bf db71 26bd 64e6 793f
00000060: a79a 053f 5cbf ec3f 411a 0540 233b 08bf
00000070: 5592 cabe 62df 9bbf 5484 95bf 1e36 d03f
00000080: 77e8 be3f e83a 033f 118f 29bf bee4 343f
00000090: 59e4 0b3f 5b1b 14bf bb7a 82bf 8cd2 93be
000000a0: a8e9 40be e043 903e d1f1 24bf 3d47 1c3f
000000b0: 78ea 8abf cad0 3cbf 6605 22bf face 893f
000000c0: eb7a 443f e718 b73f ddd4 3dbf ceab 753c
000000d0: de51 8dbf 9437 bfbf 0bbe dd3e 3751 363f
000000e0: 36fe a1be 3857 463e d4cf e13e 771f 2bbf
000000f0: e87b 5ebf e129 523f 68c0 21bc 9fae 8cbf
00000100: 56d4 60bf f7dd 85bd e8c9 40bf 4071 893e
00000110: cc4d 813f 6834 d3bf f197 acbf 55c1 9c3f
00000120: 0209 16bf c088 a0be ca2a 8c3e 6e1c f4bf
00000130: ecbe e43d dbfd 87bf 947a 9ebe ed75 853f
00000140: 3d7b b03f 8ea3 0fbe ebe9 22be 900e 533f
00000150: ac05 a3bf 161c b6bf 4e32 123f 3c32 0140
00000160: 125e 083f e77f 003f c66d fb3d 1c2b 2bbf
00000170: 20b0 32c0 44e0 4fbf 13d3 efbd 66e1 eb3f
00000180: b1d1 ffbe b0d2 32bf 1bc3 b6be ee25 e5bf
00000190: 1731 cbbf 1ac3 57c0 5da9 16bf f209 c3be
000001a0: 0ad0 54bd 0b53 33c0 372e a03f 7a44 0840
000001b0: 0c70 4740 f58c 0f40 2d70 39be 20e3 a7bf
000001c0: 7af7 b53e ac50 bfbe 36e5 c4be e00e acbd
000001d0: 4652 c1bf 7f76 4cbf 4e5c f43c 4607 983f
000001e0: b8ad 1fbe f589 0e3f e172 a03e 2cbb 3640
000001f0: 5a8a a73f 8730 3e3f 39b0 793e 21bc 563f
00000200: d79e b6bf a2a5 333e 85d1 83bd 2dd7 78be
00000210: 9801 393f dc45 dcbf 566b 123e d8f1 7a3e
00000220: 444f 433f 8a11 bbbf 5517 dc3f 5ae4 533e
00000230: 0e9a 32bf 8e4b 8fbf 8991 67be 0813 da3d
00000240: 1892 0840 1e9c a33f ba7a a63e d0eb 04be
00000250: 9d06 b13e 2cb3 063e ab11 2e3e cc86 e53f
00000260: 2734 f1be b7bf 70bf 79af 30be 1465 4abf
00000270: 6a1d 72bf 0bfa a4bf da87 4f3e b723 993f
00000280: 26f5 4abf 7404 5b3f 4eee 273c f72b cebf
00000290: f85b 2bbf be51 e53b 08e0 17bf 9389 823e
000002a0: 315d b93f 39fa c9bf 40d4 23bf f2d5 893f
000002b0: 2c58 513f 0486 c03f 8c05 ea3e 5e21 cfbf
000002c0: 2918 f6be 1cd9 433f bca5 a93f 54ed e1bf
000002d0: 5f36 e3bf a3f6 c3bf 834d 1640 3c40 f6bd
000002e0: 06f1 88bf 8d6a 8f3f 692c 8ebe ab28 9abf
000002f0: c1eb a7bf 4218 333e 6932 b1bf 0252 edbd
00000300: 5193 0140 4444 2d3e 4f6a fdbe 33a1 07be
00000310: 69fb c4bf 82b4 d43f 48bd 913f 0b65 153f
00000320: e989 0a3f 999e e83e c91a 79bf 3847 9a3e
00000330: 41fa b0bf b559 963f 81cc 99be b73f 41be
00000340: 25be 2d3f 4a24 c53e d220 cc3f 7450 ee3f
00000350: 4a96 be3f 03e2 3cbe a4b4 8dbe bdb1 2abf
00000360: d024 06c0 3c73 7b3f ee31 0340 96ae 8dbd
00000370: d196 86bf 9758 cdbf e8eb 0a3f 7508 94bd
00000380: a832 a03e 5e6a ed3f 7e1c 6f3e 471b 7f3f
00000390: 4089 813e a5e7 053f 6ce5 343e b8c1 6a3f
000003a0: 7571 77be da7c afbf 1684 cd3e a2a7 10c0
000003b0: 5cbd 67be 39ca b4bd 5a7a 593f f2cc 603e
000003c0: 56e5 24bf ab8d 85bf 095a 56be 72d6 ce3d
000003d0: 9cde ba3f b0e8 4c3f 0e1e 0d3f c016 d7be
000003e0: 5e3b 2d3e e0e5 7cbf 1005 f0bd 4b39 543e
000003f0: 045c 3fc0 ea6c bbbd 7384 e73e 9c86 3dbf

layers.0.0.output_mask f4 [80]
1.0 1.0 1.0 1.0 1.0 1.0 1.0 1.0
1.0 1.0 1.0 1.0 1.0 1.0 1.0 1.0
1.0 1.0 1.0 1.0 1.0 1.0 1.0 1.0
1.0 1.0 1.0 1.0 1.0 1.0 1.0 1.0
1.0 1.0 1.0 1.0 1.0 1.0 1.0 1.0
1.0 1.0 1.0 1.0 1.0 1.0 1.0 1.0
1.0 1.0 1.0 1.0 1.0 1.0 1.0 1.0
1.0 1.0 1.0 1.0 1.0 1.0 1.0 1.0
1.0 1.0 1.0 1.0 1.0 1.0 1.0 1.0
1.0 1.0 1.0 1.0 1.0 1.0 1.0 1.0
00000000: 0000 803f 0000 803f 0000 803f 0000 803f
00000010: 0000 803f 0000 803f 0000 803f 0000 803f
00000020: 0000 803f 0000 803f 0000 803f 0000 803f
00000030: 0000 803f 0000 803f 0000 803f 0000 803f
00000040: 0000 803f 0000 803f 0000 803f 0000 803f
00000050: 0000 803f 0000 803f 0000 803f 0000 803f
00000060: 0000 803f 0000 803f 0000 803f 0000 803f
00000070: 0000 803f 0000 803f 0000 803f 0000 803f
00000080: 0000 803f 0000 803f 0000 803f 0000 803f
00000090: 0000 803f 0000 803f 0000 803f 0000 803f
000000a0: 0000 803f 0000 803f 0000 803f 0000 803f
000000b0: 0000 803f 0000 803f 0000 803f 0000 803f
000000c0: 0000 803f 0000 803f 0000 803f 0000 803f
000000d0: 0000 803f 0000 803f 0000 803f 0000 803f
000000e0: 0000 803f 0000 803f 0000 803f 0000 803f
000000f0: 0000 803f 0000 803f 0000 803f 0000 803f
00000100: 0000 803f 0000 803f 0000 803f 0000 803f
00000110: 0000 803f 0000 803f 0000 803f 0000 803f
00000120: 0000 803f 0000 803f 0000 803f 0000 803f
00000130: 0000 803f 0000 803f 0000 803f 0000 803f

layers.0.1.mul.output_mask f4 [48]
1.0 1.0 1.0 1.0 1.0 1.0 1.0 1.0
1.0 1.0 1.0 1.0 1.0 1.0 1.0 1.0
1.0 1.0 1.0 1.0 1.0 1.0 1.0 1.0
1.0 1.0 1.0 1.0 1.0 1.0 1.0 1.0
1.0 1.0 1.0 1.0 1.0 1.0 1.0 1.0
1.0 1.0 1.0 1.0 1.0 1.0 1.0 1.0
00000000: 0000 803f 0000 803f 0000 803f 0000 803f
00000010: 0000 803f 0000 803f 0000 803f 0000 803f
00000020: 0000 803f 0000 803f 0000 803f 0000 803f
00000030: 0000 803f 0000 803f 0000 803f 0000 803f
00000040: 0000 803f 0000 803f 0000 803f 0000 803f
00000050: 0000 803f 0000 803f 0000 803f 0000 803f
00000060: 0000 803f 0000 803f 0000 803f 0000 803f
00000070: 0000 803f 0000 803f 0000 803f 0000 803f
00000080: 0000 803f 0000 803f 0000 803f 0000 803f
00000090: 0000 803f 0000 803f 0000 803f 0000 803f
000000a0: 0000 803f 0000 803f 0000 803f 0000 803f
000000b0: 0000 803f 0000 803f 0000 803f 0000 803f

layers.1.0.weight f4 [24576]
-0.85196716 0.15196906 1.9018532 -0.95632225 0.04919211 -0.5969309 0.6552016 -2.2876735
-0.59724736 0.25023043 -0.30694035 -1.3639419 -1.0347935 -0.8182516 0.8292888 0.4810158
-1.2799953 1.0130068 1.8814869 0.6681853 -0.5265434 0.57128143 0.48056033 -0.8270645
-1.2711891 0.23144312 -1.7687607 -0.68579507 0.612216 -0.22881974 -1.4091464 -0.97612554
-0.9772851 0.13918082 0.19121683 -0.10824347 0.6574301 -0.25806126 -0.8518877 -1.2860649
-0.48983705 1.9428084 -0.467599 -3.914127 0.3408269 0.6761743 0.70434386 1.2548789
0.8809621 -0.7754596 0.70265764 1.0331293 -1.2745755 -0.1978226 -1.4417106 0.5223243
0.27292046 -0.034685463 0.3312483 1.3451701 -1.3045535 0.15090881 -0.059486378 -1.6234498
1.1193477 -1.2579647 2.0663648 -0.05197676 -0.7251542 0.77097565 0.19111143 1.0536826
0.11082599 -0.7658601 0.28432587 2.6079044 -1.2786075 -1.0208526 1.4028023 1.1783708
0.3929534 -1.8222008 0.11445572 0.13563938 -0.18325868 0.12998919 0.9853846 -2.1226447
0.0044491854 1.4054936 0.49155134 1.7727277 0.5038345 -0.23303294 -1.2993038 -0.19402951
-2.130592 -2.1953683 0.10655684 0.28782538 -0.14659287 -0.56862646 -0.8152219 0.5840822
1.8859068 2.6934402 -0.92015064 -1.4896315 0.13910417 -1.4638069 1.0078104 0.123837285
1.3033559 0.08481881 3.4538727 -0.7431636 -2.000748 -2.0661538 -1.6250551 -0.47657084
0.07554444 -2.199036 -1.5764098 -2.3119228 -1.9291334 -1.258978 -1.5906315 -3.028473
0.13213696 1.5800894 0.23756032 -0.54924774 -2.002847 -0.14102703 1.9269233 -0.22582173
-0.7496034 0.45278198 0.39353105 1.4718801 0.8489445 0.7325428 2.040237 0.04944426
-0.17919753 1.825894 -2.3571594 0.8881818 -1.3780396 -0.46078134 -1.8160679 0.9964431
0.69177157 -1.3982215 0.7415298 -2.1433601 1.1762923 -0.48613513 0.4810635 -1.1017225
0.8740156 -0.0027927125 2.5047653 0.53115094 2.0216787 1.4369313 -0.424799 -0.8919679
0.30090964 0.78798634 0.57480645 0.059329722 -0.74976116 -1.5784527 0.3948219 2.2646146
-0.36441815 -3.5466435 -2.5836344 0.62258905 0.5765267 -0.32072073 -4.457237 -0.4985853
-0.12883885 1.9595244 2.5591228 0.7035832 0.66442865 1.6762493 -0.61687064 0.2905771
0.35129565 -0.09143324 2.4763846 -0.40236965 -2.5500283 -0.5319922 -0.7481457 -0.8384242
-1.2137823 -1.6425787 1.2216672 0.77941287 -0.51766956 0.4000514 0.8505512 0.6771849
-0.99565506 1.9913666 -0.9967033 -0.111559 -2.6365988 0.30046248 0.106774464 -0.6288628
-0.76615864 0.26112583 1.7148453 0.41113806 0.1830328 0.13446458 0.3450682 0.8422085
1.6225492 0.072256796 1.8819516 -0.4282459 -0.34638003 -0.43841884 -2.5729377 0.77252746
0.80269116 1.5729758 1.5094483 0.8135075 1.6901324 -1.537347 -1.1978502 -0.81178474
0.7302054 -1.0082945 0.6913542 0.8535047 -2.0725794 0.4024577 0.43401766 -0.73823935
-0.196336 -0.9953552 -1.0376008 -1.5524724 1.2622228 0.41994622 -2.303727 -2.2069292
00000000: 851a 5abf c79d 1b3e ed6f f33f 89d1 74bf
00000010: aa7d 493d 77d0 18bf 4bbb 273f 3e69 12c0
00000020: 34e5 18bf 341e 803e 4927 9dbe a695 aebf
00000030: 1d74 84bf f078 51bf 454c 543f b447 f63e
00000040: e3d6 a3bf 35aa 813f 90d4 f03f 310e 2b3f
00000050: 8ccb 06bf 803f 123f 010c f63e 80ba 53bf
00000060: 53b6 a2bf 6dff 6c3e c066 e2bf 4490 2fbf
00000070: 30ba 1c3f b94f 6abe e95e b4bf 5de3 79bf
00000080: 5b2f 7abf 6b85 0e3e 58ce 433e c1ae ddbd
00000090: 574d 283f 9b20 84be 5015 5abf c69d a4bf
000000a0: eccb fabe f2ad f83f 2369 efbe 0f81 7ac0
000000b0: dd80 ae3e c219 2d3f e14f 343f df9f a03f
000000c0: bb86 613f 8584 46bf 5fe1 333f 953d 843f
000000d0: 4a25 a3bf 0292 4abe f989 b8bf 0cb7 053f
000000e0: 3bbc 8b3e 5812 0ebd 6199 a93e 892e ac3f
000000f0: 9cfb a6bf d787 1a3e fda7 73bd 34cd cfbf
00000100: c946 8f3f fd04 a1bf 523f 0440 95e5 54bd
00000110: b5a3 39bf a95e 453f b7b2 433e 12df 863f
00000120: bdf8 e23d 680f 44bf 2993 913e e8e7 2640
00000130: 69a9 a3bf 4cab 82bf 078f b33f dbd4 963f
00000140: 3031 c93e e03d e9bf c367 ea3d 0de5 0a3e
00000150: 2aa8 3bbe e31b 053e 2a42 7c3f 69d9 07c0
00000160: 79ca 913b 37e7 b33f 9eac fb3e bee8 e23f
00000170: 4cfb 003f 30a0 6ebe 964f a6bf acaf 46be
00000180: 9f5b 08c0 ea80 0cc0 793a da3d d95d 933e
00000190: 711c 16be 8191 11bf 62b2 50bf 6986 153f
000001a0: 6565 f13f 5361 2c40 fe8e 6bbf 3fac bebf
000001b0: 5371 0e3e 065e bbbf eeff 803f 679e fd3d
000001c0: 5ed4 a63f 7cb5 ad3d 400c 5d40 f83f 3ebf
000001d0: 410c 00c0 dd3b 04c0 ce01 d0bf 1801 f4be
000001e0: 0bb7 9a3d 01bd 0cc0 ccc7 c9bf 8bf6 13c0
000001f0: d8ed f6bf 3126 a1bf d099 cbbf 80d2 41c0
00000200: e94e 073e 5f40 ca3f 0343 733e 809b 0cbf
00000210: a52e 00c0 6469 10be 6ca5 f63f d03d 67be
00000220: 02e6 3fbf 0ad3 e73e e77c c93e 9166 bc3f
00000230: 6d54 593f ed87 3b3f 3e93 0240 1086 4a3d
00000240: 8f7f 37be e5b6 e93f b3db 16c0 e25f 633f
00000250: 9a63 b0bf 88eb ebbe ea74 e8bf e516 7f3f
00000260: f117 313f ecf8 b2bf e6d4 3d3f d02c 09c0
00000270: bf90 963f b4e6 f8be f44d f63e 3e05 8dbf
00000280: 7dbf 5f3f f105 37bb 134e 2040 82f9 073f
00000290: 2f63 0140 5ded b73f 417f d9be 0258 64bf
000002a0: d410 9a3e 79b9 493f 8426 133f b903 733d
000002b0: 59f0 3fbf bd0a cabf 1926 ca3e 72ef 1040
000002c0: 0495 babe 35fc 62c0 445a 25c0 ff61 1f3f
000002d0: 4197 133f 8235 a4be afa1 8ec0 9346 ffbe
000002e0: 55ee 03be b2d1 fa3f abc8 2340 071e 343f
000002f0: ff17 2a3f 568f d63f 3ceb 1dbf 86c6 943e
00000300: 06dd b33e 5a41 bbbd 167d 1e40 6503 cebe
00000310: aa33 23c0 a430 08bf 7a86 3fbf f8a2 56bf
00000320: 385d 9bbf 0540 d2bf 975f 9c3f 9a87 473f
00000330: fe85 04bf 89d3 cc3e b9bd 593f fd5b 2d3f
00000340: 40e3 7ebf 1ae5 fe3f f327 7fbf 0c79 e4bd
00000350: 09be 28c0 38d6 993e 92ac da3d 27fd 20bf
00000360: f922 44bf 49b2 853e 0d80 db3f b080 d23e
00000370: f36c 3b3e 15b1 093e c7ac b03e fa9a 573f
00000380: b1af cf3f 5ffb 933d cae3 f03f 0c43 dbbe
00000390: b958 b1be 6f78 e0be 03ab 24c0 5cc4 453f
000003a0: 2b7d 4d3f 4557 c93f 9a35 c13f 0742 503f
000003b0: 4256 d83f c9c7 c4bf 2853 99bf 20d1 4fbf
000003c0: beee 3a3f cb0f 81bf 97fc 303f 497f 5a3f
000003d0: 24a5 04c0 f00e ce3e 9037 de3e 41fd 3cbf
000003e0: 4e0c 49be 99cf 7ebf 1ad0 84bf 6ab7 c6bf
000003f0: 8490 a13f 3103 d73e 4370 13c0 543e 0dc0

layers.1.0.output_mask f4 [80]
1.0 1.0 1.0 1.0 1.0 1.0 1.0 1.0
1.0 1.0 1.0 1.0 1.0 1.0 1.0 1.0
1.0 1.0 1.0 1.0 1.0 1.0 1.0 1.0
1.0 1.0 1.0 1.0 1.0 1.0 1.0 1.0
1.0 1.0 1.0 1.0 1.0 1.0 1.0 1.0
1.0 1.0 1.0 1.0 1.0 1.0 1.0 1.0
1.0 1.0 1.0 1.0 1.0 1.0 1.0 1.0
1.0 1.0 1.0 1.0 1.0 1.0 1.0 1.0
1.0 1.0 1.0 1.0 1.0 1.0 1.0 1.0
1.0 1.0 1.0 1.0 1.0 1.0 1.0 1.0
00000000: 0000 803f 0000 803f 0000 803f 0000 803f
00000010: 0000 803f 0000 803f 0000 803f 0000 803f
00000020: 0000 803f 0000 803f 0000 803f 0000 803f
00000030: 0000 803f 0000 803f 0000 803f 0000 803f
00000040: 0000 803f 0000 803f 0000 803f 0000 803f
00000050: 0000 803f 0000 803f 0000 803f 0000 803f
00000060: 0000 803f 0000 803f 0000 803f 0000 803f
00000070: 0000 803f 0000 803f 0000 803f 0000 803f
00000080: 0000 803f 0000 803f 0000 803f 0000 803f
00000090: 0000 803f 0000 803f 0000 803f 0000 803f
000000a0: 0000 803f 0000 803f 0000 803f 0000 803f
000000b0: 0000 803f 0000 803f 0000 803f 0000 803f
000000c0: 0000 803f 0000 803f 0000 803f 0000 803f
000000d0: 0000 803f 0000 803f 0000 803f 0000 803f
000000e0: 0000 803f 0000 803f 0000 803f 0000 803f
000000f0: 0000 803f 0000 803f 0000 803f 0000 803f
00000100: 0000 803f 0000 803f 0000 803f 0000 803f
00000110: 0000 803f 0000 803f 0000 803f 0000 803f
00000120: 0000 803f 0000 803f 0000 803f 0000 803f
00000130: 0000 803f 0000 803f 0000 803f 0000 803f

layers.1.1.mul.output_mask f4 [48]
1.0 1.0 1.0 1.0 1.0 1.0 1.0 1.0
1.0 1.0 1.0 1.0 1.0 1.0 1.0 1.0
1.0 1.0 1.0 1.0 1.0 1.0 1.0 1.0
1.0 1.0 1.0 1.0 1.0 1.0 1.0 1.0
1.0 1.0 1.0 1.0 1.0 1.0 1.0 1.0
1.0 1.0 1.0 1.0 1.0 1.0 1.0 1.0
00000000: 0000 803f 0000 803f 0000 803f 0000 803f
00000010: 0000 803f 0000 803f 0000 803f 0000 803f
00000020: 0000 803f 0000 803f 0000 803f 0000 803f
00000030: 0000 803f 0000 803f 0000 803f 0000 803f
00000040: 0000 803f 0000 803f 0000 803f 0000 803f
00000050: 0000 803f 0000 803f 0000 803f 0000 803f
00000060: 0000 803f 0000 803f 0000 803f 0000 803f
00000070: 0000 803f 0000 803f 0000 803f 0000 803f
00000080: 0000 803f 0000 803f 0000 803f 0000 803f
00000090: 0000 803f 0000 803f 0000 803f 0000 803f
000000a0: 0000 803f 0000 803f 0000 803f 0000 803f
000000b0: 0000 803f 0000 803f 0000 803f 0000 803f

layers.2.0.weight f4 [24576]
-0.16312687 -0.3278337 -0.9625901 -0.0743413 0.1529779 0.3112606 -1.7982767 -0.64958274
0.023992484 -0.1219429 -1.9522854 -0.728075 -2.1373215 -0.11536131 -1.9692625 -0.21744467
-0.055420697 -0.27885732 1.0490448 -2.1464527 1.833456 0.19577774 -1.8560241 0.54900354
0.2427452 -1.516298 -0.39496619 0.66099536 -1.760388 2.561403 -1.2188697 -0.15717646
0.15329906 0.5452968 -2.6836915 1.1358653 -0.12990324 1.8937907 1.4633136 1.017217
-1.3769418 -0.334228 -1.3246366 2.388955 -2.0229373 0.29702067 -0.6996247 -0.5328852
-2.4248176 -1.011712 0.34837082 -3.827513 1.0200499 0.33610865 -2.151953 -1.2408469
0.18351828 -1.4477557 -0.42977205 0.6680559 -0.6765754 -0.014112636 -0.68201905 -1.3540577
0.17524917 1.0738323 -0.3336207 -1.6766639 0.9874771 0.29866984 -0.4211913 -0.31678852
1.9696686 -0.25606352 -1.0501515 0.834367 -0.15370072 -2.1492493 -1.639989 0.99183
-0.14948662 0.642367 0.3503781 1.372117 0.16497198 0.119366296 0.5768494 0.48719135
0.98048913 -0.0135153765 1.7281638 1.2216473 2.7847176 -0.6560091 -0.3185906 1.2446127
-1.284702 0.76668215 0.42359447 0.7834577 -0.77084273 0.31062767 1.2860487 -1.8540106
0.04193705 1.1213602 0.4497105 0.46069717 1.1956395 0.7730978 1.7419611 0.80399716
-0.97761214 -0.2143528 1.5222728 0.72628 2.6425507 -0.39684984 -0.0996914 2.267177
-1.1863184 0.039592575 0.9729543 0.6653725 1.9758787 2.367589 -1.2410686 0.23336151
-0.024124082 -1.0747274 0.68948567 -0.9016012 2.8011374 0.17440714 -0.37792942 0.28926545
-1.2904303 -0.06400032 0.1063447 -0.86947656 0.8971739 0.8701382 -1.4996549 0.1301513
-0.49405184 -0.44174564 0.8661144 -0.5510706 1.798163 -0.99917626 0.7090196 -0.08399565
0.6626816 -0.19471346 0.18035695 -0.17297678 -0.017630804 1.0744773 -1.8159015 0.09403268
-1.2672354 -0.037194543 1.3185117 -0.47153816 -0.40356088 1.2261035 0.7437157 1.3103027
-0.61898434 -1.2798282 0.23343472 -1.0999465 -0.6128348 1.5674356 -1.0157837 -2.1887295
0.47054854 1.0582902 -0.7468782 0.35103813 -0.1522887 0.05448021 0.43588793 -0.3165028
-0.8323827 1.5850896 -0.98539764 1.0695689 -0.5279574 -0.72553486 0.5355344 1.0746439
0.09779353 -1.6917119 2.8422375 0.91915137 0.5348395 0.30935332 0.53578115 3.29252
1.380831 -0.37252775 -0.91332775 2.798052 0.33209327 -0.057904955 0.61639786 1.0198576
-1.5032207 -1.1631227 0.7747454 -1.7495369 0.9957612 -2.0549796 -1.9971805 -1.5575835
-1.666821 -0.78821445 0.8962072 2.3499417 3.6685236 -0.25542808 -1.7003845 1.9385386
-0.7832421 -0.20865665 0.2784314 2.4916692 -1.3861396 -0.31993446 0.2593862 0.10751574
-1.4970337 1.2523443 3.2316017 0.13808715 -1.6316475 0.038896866 -0.8089677 2.1942213
-1.0897846 -1.5704479 -0.91981256 -0.42076322 0.41436902 -0.66075665 -1.1641613 1.1149495
0.69168895 -2.4973125 -0.22454585 -1.9871029 0.5668798 1.018599 -0.10138331 0.8452172
00000000: bb0a 27be d2d9 a7be 4e6c 76bf 4040 98bd
00000010: 3da6 1c3e 8d5d 9f3e ee2d e6bf 0e4b 26bf
00000020: e38b c43c 33bd f9bd 7de4 f9bf 2063 3abf
00000030: e0c9 08c0 8d42 ecbd cb10 fcbf d1a9 5ebe
00000040: d000 63bd 63c6 8ebe 1a47 863f 7b5f 09c0
00000050: b0ae ea3f f679 483e 3392 edbf 7f8b 0c3f
00000060: 3392 783e 0e16 c2bf 0239 cabe fe36 293f
00000070: 6554 e1bf 07ee 2340 ec03 9cbf def2 20be
00000080: 6efa 1c3e 9298 0b3f 9ac1 2bc0 0964 913f
00000090: 5b05 05be bc67 f23f dc4d bb3f 2b34 823f
000000a0: a13f b0bf ef1f abbe b18d a9bf a4e4 1840
000000b0: ce77 01c0 1813 983e 9b1a 33bf 2a6b 08bf
000000c0: 3630 1bc0 c77f 81bf a95d b23e f9f5 74c0
000000d0: ff90 823f 6f16 ac3e 99b9 09c0 12d4 9ebf
000000e0: 37ec 3b3e 0f50 b9bf 150b dcbe b605 2b3f
000000f0: 0c34 2dbf b038 67bc cd98 2ebf c351 adbf
00000100: 8574 333e 5673 893f 55d0 aabe ec9c d6bf
00000110: 4dcb 7c3f 41eb 983e 63a6 d7be 1b32 a2be
00000120: 1a1e fc3f c21a 83be 5d6b 86bf 1399 553f
00000130: b963 1dbe 4d8d 09c0 29eb d1bf 92e8 7d3f
00000140: 0513 19be 2a72 243f c264 b33e 88a1 af3f
00000150: 6aee 283e 5176 f43d 67ac 133f 2571 f93e
00000160: 5601 7b3f 996f 5dbc 7934 dd3f f05e 9c3f
00000170: d038 3240 36f0 27bf 4f1e a3be 784f 9f3f
00000180: 1d71 a4bf 4845 443f 60e1 d83e af90 483f
00000190: f355 45bf 970a 9f3e 3e9d a43f 3850 edbf
000001a0: 2fc6 2b3d bb88 8f3f 7440 e63e 80e0 eb3e
000001b0: b70a 993f bde9 453f 95f8 de3f c2d2 4d3f
000001c0: ca44 7abf 4d7f 5bbe d6d9 c23f 7ced 393f
000001d0: 8d1f 2940 e72f cbbe 012b ccbd 6e19 1140
000001e0: 48d9 97bf d32b 223d 8813 793f da55 2a3f
000001f0: 98e9 fc3f 9486 1740 56db 9ebf 52f6 6e3e
00000200: de9f c5bc ab90 89bf 2282 303f 56cf 66bf
00000210: d645 3340 c997 323e f77f c1be 9a1a 943e
00000220: d22c a5bf 9a12 83bd 40cb d93d 0496 5ebf
00000230: 30ad 653f 61c1 5e3f b1f4 bfbf 6246 053e
00000240: 5df4 fcbe 7c2c e2be acb9 5d3f f612 0dbf
00000250: 352a e63f 04ca 7fbf 4f82 353f e905 acbd
00000260: 80a5 293f f762 47be 7eaf 383e d320 31be
00000270: 7a6e 90bc 7988 893f 766f e8bf 3594 c03d
00000280: c534 a2bf 4e59 18bd fec4 a83f 736d f1be
00000290: 889f cebe f6f0 9c3f 2764 3e3f 00b8 a73f
000002a0: c275 1ebf 69d1 a3bf 8309 6f3e 0ccb 8cbf
000002b0: bee2 1cbf bba1 c83f 3305 82bf 2514 0cc0
000002c0: bdeb f03e 0e76 873f 6933 3fbf 45bb b33e
000002d0: 92f1 1bbe a426 5f3d b42c df3e a80c a2be
000002e0: 0817 55bf 37e4 ca3f 0543 7cbf a2e7 883f
000002f0: 3728 07bf a7bc 39bf c818 093f ee8d 893f
00000300: f947 c83d 048a d8bf 38e7 3540 814d 6b3f
00000310: 3eeb 083f 8f63 9e3e f428 093f a6b8 5240
00000320: 12bf b03f f5bb bebe d9cf 69bf 4913 3340
00000330: 2108 aa3e bf2d 6dbd 40cc 1d3f b28a 823f
00000340: 8969 c0bf 34e1 94bf b755 463f d3f0 dfbf
00000350: 35ea 7e3f c984 03c0 9ca3 ffbf e55e c7bf
00000360: 645a d5bf 6cc8 49bf d66d 653f 7265 1640
00000370: 17c9 6a40 78c7 82be 33a6 d9bf 0822 f83f
00000380: 8e82 48bf 17aa 55be 8f8e 8e3e 8277 1f40
00000390: 066d b1bf 73ce a3be 45ce 843e 3631 dc3d
000003a0: cd9e bfbf d14c a03f 90d2 4e40 b866 0d3e
000003b0: d3d9 d0bf 5252 1f3d 8218 4fbf 1f6e 0c40
000003c0: 107e 8bbf 7004 c9bf d678 6bbf 476e d7be
000003d0: 2d28 d43e 5927 29bf 3d03 95bf aab6 8e3f
000003e0: 8712 313f f8d3 1fc0 59ef 65be 6359 febf
000003f0: 091f 113f 7461 823f 0ea2 cfbd 2860 583f

layers.2.0.output_mask f4 [80]
1.0 1.0 1.0 1.0 1.0 1.0 1.0 1.0
1.0 1.0 1.0 1.0 1.0 1.0 1.0 1.0
1.0 1.0 1.0 1.0 1.0 1.0 1.0 1.0
1.0 1.0 1.0 1.0 1.0 1.0 1.0 1.0
1.0 1.0 1.0 1.0 1.0 1.0 1.0 1.0
1.0 1.0 1.0 1.0 1.0 1.0 1.0 1.0
1.0 1.0 1.0 1.0 1.0 1.0 1.0 1.0
1.0 1.0 1.0 1.0 1.0 1.0 1.0 1.0
1.0 1.0 1.0 1.0 1.0 1.0 1.0 1.0
1.0 1.0 1.0 1.0 1.0 1.0 1.0 1.0
00000000: 0000 803f 0000 803f 0000 803f 0000 803f
00000010: 0000 803f 0000 803f 0000 803f 0000 803f
00000020: 0000 803f 0000 803f 0000 803f 0000 803f
00000030: 0000 803f 0000 803f 0000 803f 0000 803f
00000040: 0000 803f 0000 803f 0000 803f 0000 803f
00000050: 0000 803f 0000 803f 0000 803f 0000 803f
00000060: 0000 803f 0000 803f 0000 803f 0000 803f
00000070: 0000 803f 0000 803f 0000 803f 0000 803f
00000080: 0000 803f 0000 803f 0000 803f 0000 803f
00000090: 0000 803f 0000 803f 0000 803f 0000 803f
000000a0: 0000 803f 0000 803f 0000 803f 0000 803f
000000b0: 0000 803f 0000 803f 0000 803f 0000 803f
000000c0: 0000 803f 0000 803f 0000 803f 0000 803f
000000d0: 0000 803f 0000 803f 0000 803f 0000 803f
000000e0: 0000 803f 0000 803f 0000 803f 0000 803f
000000f0: 0000 803f 0000 803f 0000 803f 0000 803f
00000100: 0000 803f 0000 803f 0000 803f 0000 803f
00000110: 0000 803f 0000 803f 0000 803f 0000 803f
00000120: 0000 803f 0000 803f 0000 803f 0000 803f
00000130: 0000 803f 0000 803f 0000 803f 0000 803f

layers.2.1.mul.output_mask f4 [48]
1.0 1.0 1.0 1.0 1.0 1.0 1.0 1.0
1.0 1.0 1.0 1.0 1.0 1.0 1.0 1.0
1.0 1.0 1.0 1.0 1.0 1.0 1.0 1.0
1.0 1.0 1.0 1.0 1.0 1.0 1.0 1.0
1.0 1.0 1.0 1.0 1.0 1.0 1.0 1.0
1.0 1.0 1.0 1.0 1.0 1.0 1.0 1.0
00000000: 0000 803f 0000 803f 0000 803f 0000 803f
00000010: 0000 803f 0000 803f 0000 803f 0000 803f
00000020: 0000 803f 0000 803f 0000 803f 0000 803f
00000030: 0000 803f 0000 803f 0000 803f 0000 803f
00000040: 0000 803f 0000 803f 0000 803f 0000 803f
00000050: 0000 803f 0000 803f 0000 803f 0000 803f
00000060: 0000 803f 0000 803f 0000 803f 0000 803f
00000070: 0000 803f 0000 803f 0000 803f 0000 803f
00000080: 0000 803f 0000 803f 0000 803f 0000 803f
00000090: 0000 803f 0000 803f 0000 803f 0000 803f
000000a0: 0000 803f 0000 803f 0000 803f 0000 803f
000000b0: 0000 803f 0000 803f 0000 803f 0000 803f

readout.weight f4 [16]
0.83705854 -0.41499195 -0.37119865 -0.3595923 -0.6893389 -0.09744577 -0.26679698 -0.03847604
0.6353355 0.5763816 -0.063798964 -0.7421496 -0.39221075 -0.8720874 0.80977947 -0.96749574
00000000: 7849 563f d379 d4be c00d bebe 7b1c b8be
00000010: 8478 30bf a691 c7bd 9d99 88be 0d99 1dbd
00000020: 59a5 223f bf8d 133f 08a9 82bd 84fd 3dbf
00000030: d9cf c8be 1f41 5fbf b54d 4f3f cdad 77bf
