egnn_model_21.pth (torch, 305442 bytes, 12 tensors)

input_proj.weight f4 [256]
0	0xbfbd2941	-1.4778215
1	0x3e709c23	0.23497061
2	0xbf40442c	-0.7510402
3	0x3f24351f	0.64143556
4	0x3f1c83d3	0.6113865
5	0x3fad1222	1.3521159
6	0xbcb2ce19	-0.02182679
7	0x3e0e5c4e	0.13902399
8	0xbf579da5	-0.8422492
9	0xbfb8e0b0	-1.4443569
10	0x3fd27e32	1.6444762
11	0x3fb57015	1.417483
12	0xbe180367	-0.14845048
13	0xbfbfc00a	-1.4980481
14	0xbf744f64	-0.9543364
15	0xbf658358	-0.8965354
16	0x3f099194	0.5373776
17	0xc02bd3c5	-2.6848004
18	0xbf5a15f2	-0.85189736
19	0xbe0f59a7	-0.13999043
20	0x3fad4dfe	1.3539426
21	0xbf078e33	-0.52951354
22	0xbf7e2ca2	-0.99286854
23	0x3f73d1b4	0.95241857
24	0x3f89bddc	1.0761065
25	0xc00ed7b5	-2.2319157
26	0x3efa4136	0.48877877
27	0x3fc648d3	1.5490974
28	0xbfab92f8	-1.3404226
29	0x3f54f17f	0.83180994
30	0xbfb13ed3	-1.3847297
31	0x3e830956	0.2559306
32	0x3e3413d8	0.17585695
33	0xbecb124f	-0.39662406
34	0x4002eceb	2.0457103
35	0x3f8198a7	1.0124711
36	0x3e6aba0f	0.22922538
37	0x3fc773a2	1.5582163
38	0x3ef3be4b	0.4760612
39	0x3fd1263c	1.6339793
40	0x3ee06ed8	0.43834567
41	0xbe925dbc	-0.2858714
42	0xbf35fd91	-0.71090037
43	0x40164211	2.3477824
44	0xbf72ef67	-0.9489655
45	0x3f417208	0.7556462
46	0x3ee643ca	0.44973594
47	0xbe3934a4	-0.18086487
48	0xbf96ad96	-1.1771724
49	0x401f6764	2.4906855
50	0xbfec5600	-1.8463745
51	0x4038adab	2.8855999
52	0x3d565d0d	0.052334834
53	0x3d7fc05c	0.062439308
54	0x3f1a9b2b	0.6039302
55	0xbfa02fc4	-1.2514577
56	0x3fa7a3bd	1.3096844
57	0xbfa89888	-1.3171549
58	0xbd29892c	-0.041390583
59	0x3f3520ff	0.70753473
60	0x3fe6a7a9	1.8019916
61	0x3fb1707a	1.386245
62	0xbf767c13	-0.9628307
63	0xbfb2212c	-1.3916373
64	0xbf78ea8b	-0.97232884
65	0x400139f2	2.0191617
66	0xbf262250	-0.64896107
67	0xbef07c0e	-0.46969646
68	0x3f04a721	0.5181752
69	0xbfb50fd3	-1.4145454
70	0xbfdaedc2	-1.7103808
71	0xbf8ec605	-1.1154181
72	0xbce7350f	-0.028223542
73	0x3f544f76	0.8293375
74	0x401bdc37	2.4353158
75	0x3e04be80	0.12963295
76	0x3ec6159c	0.38688362
77	0x3eb86a89	0.3601878
78	0x3ee1a4d0	0.44071054
79	0xbf32704f	-0.6970262
80	0xbeea8972	-0.45807987
81	0x3f214503	0.6299593
82	0xbf3e445a	-0.74323046
83	0x3f62b939	0.8856388
84	0x3fc311a2	1.5239756
85	0xbf389662	-0.72104466
86	0x3fcd11b1	1.6021024
87	0xbee51273	-0.44740638
88	0xbe9987a9	-0.29986313
89	0xbfd57210	-1.6675434
90	0xbefe855c	-0.4971112
91	0x3f922b5f	1.1419486
92	0xbe7a0499	-0.24415816
93	0xbfca17c8	-1.5788507
94	0xbfd18e7e	-1.637161
95	0x3fb502f3	1.4141525
96	0x3e9cce4a	0.30626136
97	0x3ebeb26e	0.37245506
98	0x3f7c76e8	0.98618937
99	0x3eeb1585	0.45914856
100	0xbedcba4b	-0.4311088
101	0x3e63887a	0.2222003
102	0x3f605068	0.8762269
103	0xbfaf7262	-1.3706782
104	0x3f25214e	0.64503944
105	0x40315aee	2.771175
106	0xbf7ee947	-0.995747
107	0xbf2dbec3	-0.67869204
108	0xbed3ce27	-0.4136822
109	0xbf4b0a4e	-0.793126
110	0x3f9e6a39	1.2376167
111	0xbf7e11d2	-0.9924594
112	0x3fef0c9d	1.8675724
113	0x3df29560	0.11844897
114	0xbfb738ae	-1.4314172
115	0xc00390f3	-2.055722
116	0xbf61352c	-0.8797176
117	0x3fbb23d5	1.462031
118	0x3db23fbc	0.087035626
119	0xbfad127b	-1.3521265
120	0xbda163d2	-0.07880367
121	0x3ebd445c	0.36966217
122	0x3fa7b17f	1.3101043
123	0xbfb36784	-1.4015965
124	0xbfa2e104	-1.2724919
125	0x3e993574	0.29923594
126	0xbf7b1fe8	-0.9809556
127	0x3ea5242b	0.32254156
128	0xbf6e2afb	-0.93034333
129	0xbf0c1853	-0.54724616
130	0x3f52f875	0.82410365
131	0xbf28e0b9	-0.659679
132	0xbeac4f32	-0.3365417
133	0xbff806ac	-1.9377036
134	0x3f925b00	1.1434021
135	0xbe825347	-0.2545416
136	0xbe1f9766	-0.15585098
137	0xbe4b6e12	-0.19866207
138	0x3f95576e	1.1667306
139	0x3ecb92d4	0.39760458
140	0xbf1faeb5	-0.62375957
141	0x3f96691e	1.1750829
142	0x3e91d716	0.2848441
143	0xbfb1d549	-1.3893214
144	0xbd2029e2	-0.039102443
145	0xbe56f334	-0.20991212
146	0x3f380824	0.7188742
147	0x3f116eec	0.5680988
148	0x3fb6f802	1.4294436
149	0xbe5637e7	-0.20919763
150	0x3d85997d	0.06523416
151	0xbf15fa04	-0.5858462
152	0xc005be5c	-2.0897436
153	0xbf2e0a80	-0.6798477
154	0xbc986135	-0.01860104
155	0x3f8052be	1.0025251
156	0xbf5c4a6f	-0.86051077
157	0x3f3535c8	0.7078519
158	0x3f9fdfe8	1.2490206
159	0x3e7893fc	0.24275202
160	0x3f4093e3	0.7522566
161	0xbfb0d53e	-1.3815076
162	0x3f328239	0.69729954
163	0xbfaa9159	-1.3325607
164	0x3fe89a18	1.8172026
165	0x3e74c86e	0.23904583
166	0xbfaac2a2	-1.3340647
167	0x3fa1ea71	1.2649671
168	0xbf93a52e	-1.1534784
169	0x3f60b98d	0.8778313
170	0xbe3d39fb	-0.18479149
171	0x3fb129e1	1.3840905
172	0x3f97e25c	1.1865954
173	0x3d185d9d	0.03719865
174	0xbe084ba3	-0.13310103
175	0x401348ca	2.3013177
176	0xbf622704	-0.88340783
177	0xbfc4282d	-1.5324761
178	0xbe444c6d	-0.19169779
179	0xbf5c354e	-0.86018836
180	0xbe9bd6e8	-0.30437398
181	0x3edfe819	0.43731764
182	0x3e7a877e	0.24465749
183	0x3ffd0dff	1.9769896
184	0x3f1eda20	0.6205158
185	0x3f07cdd1	0.53048426
186	0x3f4e081d	0.8048113
187	0xc005d69e	-2.0912242
188	0x3de3d940	0.111254215
189	0xbf5a03f0	-0.8516226
190	0x3e1577e5	0.14596517
191	0xc003f8f3	-2.0620697
192	0x3ff14166	1.8848083
193	0x3fa58fbc	1.2934489
194	0xc03e179e	-2.9701915
195	0xbe60a4ed	-0.21937914
196	0xbe813b8d	-0.25240746
197	0xbfbf31dd	-1.4937092
198	0xbfad0c56	-1.351939
199	0xbdc9b23a	-0.09848447
200	0x3fa26192	1.2686026
201	0x3ec8e61d	0.39238063
202	0xbd9ddd33	-0.07708206
203	0x3f7e1741	0.9925423
204	0xbfa4e4d6	-1.2882335
205	0xbf88c45d	-1.0684925
206	0x3e52a4a3	0.20570616
207	0x3f793557	0.97347015
208	0x3ed733ba	0.42031652
209	0x3e374306	0.17896661
210	0x3ee067d6	0.4382922
211	0x3f43be62	0.76462376
212	0x3f945942	1.1589739
213	0xbf3f1aca	-0.7465025
214	0x3fa9cffa	1.3266594
215	0xbffee38b	-1.9913191
216	0xbee90701	-0.45513156
217	0xbe1db586	-0.15401277
218	0x3e8e8728	0.2783749
219	0xbf78048c	-0.9688194
220	0xbdebda77	-0.11516278
221	0x3e45d5da	0.19319859
222	0x3e4971fb	0.19672386
223	0xbfa098ad	-1.2546593
224	0x3b8b0f57	0.004243772
225	0xbf5c4f48	-0.86058474
226	0xbcf5fe45	-0.030028472
227	0xbec2c133	-0.38038024
228	0x3ff9ff18	1.9530973
229	0x3f2f7144	0.68532205
230	0x3d1737c9	0.036918435
231	0xbf9e2323	-1.2354473
232	0xbd220074	-0.039551213
233	0x3f36dce4	0.714308
234	0xbf6ba83d	-0.92053586
235	0x3f2598ec	0.64686465
236	0xc02cbd45	-2.699052
237	0xbf343e8f	-0.70407957
238	0xbefa2ae2	-0.48860842
239	0x3fa24372	1.2676833
240	0xbd7faa34	-0.062418178
241	0x3e8a6d2d	0.2703642
242	0xbfd1d540	-1.6393204
243	0xc001d2e5	-2.028497
244	0xbfd0ff91	-1.6327993
245	0x3da62549	0.0811258
246	0x3f260d53	0.6486408
247	0xbf97d0b1	-1.1860563
248	0x3f7389ce	0.9513215
249	0x3eb1a434	0.3469559
250	0x3f3a3df4	0.7275078
251	0xbf8d0055	-1.1015726
252	0x3e32f901	0.174778
253	0x3f53fee8	0.8281083
254	0xbf86a8c1	-1.052025
255	0x3c6d5536	0.014485648

input_proj.output_mask f4 [64]
0	0x3f800000	1.0
1	0x3f800000	1.0
2	0x3f800000	1.0
3	0x3f800000	1.0
4	0x3f800000	1.0
5	0x3f800000	1.0
6	0x3f800000	1.0
7	0x3f800000	1.0
8	0x3f800000	1.0
9	0x3f800000	1.0
10	0x3f800000	1.0
11	0x3f800000	1.0
12	0x3f800000	1.0
13	0x3f800000	1.0
14	0x3f800000	1.0
15	0x3f800000	1.0
16	0x00000000	0.0
17	0x00000000	0.0
18	0x00000000	0.0
19	0x00000000	0.0
20	0x00000000	0.0
21	0x00000000	0.0
22	0x00000000	0.0
23	0x00000000	0.0
24	0x00000000	0.0
25	0x00000000	0.0
26	0x00000000	0.0
27	0x00000000	0.0
28	0x00000000	0.0
29	0x00000000	0.0
30	0x00000000	0.0
31	0x00000000	0.0
32	0x00000000	0.0
33	0x00000000	0.0
34	0x00000000	0.0
35	0x00000000	0.0
36	0x00000000	0.0
37	0x00000000	0.0
38	0x00000000	0.0
39	0x00000000	0.0
40	0x00000000	0.0
41	0x00000000	0.0
42	0x00000000	0.0
43	0x00000000	0.0
44	0x00000000	0.0
45	0x00000000	0.0
46	0x00000000	0.0
47	0x00000000	0.0
48	0x00000000	0.0
49	0x00000000	0.0
50	0x00000000	0.0
51	0x00000000	0.0
52	0x00000000	0.0
53	0x00000000	0.0
54	0x00000000	0.0
55	0x00000000	0.0
56	0x00000000	0.0
57	0x00000000	0.0
58	0x00000000	0.0
59	0x00000000	0.0
60	0x00000000	0.0
61	0x00000000	0.0
62	0x00000000	0.0
63	0x00000000	0.0

layers.0.0.weight f4 [24576]
0	0xbe722cfb	-0.23649971
1	0xbf88c207	-1.0684212
2	0xbdaa19c7	-0.08305698
3	0xbe7242d5	-0.23658307
4	0x3f491f7c	0.78563666
5	0x3f89fbeb	1.0780004
6	0x3fee44f7	1.8614796
7	0x3e907553	0.2821451
8	0x3f6c6f1d	0.92357045
9	0x3ea7fb6f	0.32809016
10	0xbf8c0ac3	-1.0940784
11	0xbeb5fdaf	-0.35545108
12	0xbff467a2	-1.9094126
13	0xbf8618a6	-1.0476272
14	0xbf66f525	-0.9021781
15	0x3fba0ba0	1.4534798
16	0x3ea459c3	0.32099733
17	0xbf13300d	-0.57495195
18	0xbfb18290	-1.386797
19	0x3fbe6820	1.4875526
20	0xbf62075e	-0.8829249
21	0xbfb31c6d	-1.399305
22	0xbf159e53	-0.5844471
23	0xbda70038	-0.081543386
24	0x3e4954c0	0.19661236
25	0x3ec5167c	0.38493717
26	0x3f712c83	0.94208544
27	0xbed3edeb	-0.41392455
28	0x3efa77ba	0.4891947
29	0xbfc6f114	-1.5542321
30	0xbf6e4195	-0.9306882
31	0x3ee7a8f6	0.45246094
32	0x3f26affd	0.65112287
33	0xbf3285c6	-0.6973537
34	0xbdeb329e	-0.11484264
35	0xbdddf7d7	-0.10838287
36	0xbda6ba35	-0.08140985
37	0x3e0541e2	0.13013414
38	0x3e376a89	0.17911734
39	0xbfe26774	-1.7687821
40	0x3e6edebc	0.23327154
41	0x3ecf27c4	0.40460026
42	0xbfd27ed5	-1.6444956
43	0xbe326933	-0.17422943
44	0xbfbc4e85	-1.4711462
45	0xbd9c37f2	-0.07627858
46	0xbf27c16d	-0.6552952
47	0x3fe7fdb6	1.8124301
48	0x3ebbf140	0.36707497
49	0x3f49b7cb	0.7879607
50	0xbfa1760d	-1.2614151
51	0x3e33954d	0.17537422
52	0xbefb38be	-0.49066728
53	0xbe9c159c	-0.30485237
54	0x3f9dab62	1.2317927
55	0x3f20a770	0.6275549
56	0x3d9606bc	0.07325503
57	0xbec69c61	-0.38791183
58	0xbe36fc28	-0.17869627
59	0x3f4a6ab4	0.79069066
60	0xbd122ba0	-0.035686135
61	0x3ed5f074	0.41785014
62	0xbf204246	-0.62601125
63	0xbebcec9a	-0.36899263
64	0xbf162362	-0.5864774
65	0x39e7fafc	0.0004424675
66	0xbf9b2859	-1.2121688
67	0x3f6fa167	0.93605655
68	0x3feadd73	1.8348831
69	0xbf747057	-0.95483917
70	0xbee18481	-0.44046405
71	0x3fbdca4e	1.4827363
72	0x3da4e42f	0.08051335
73	0xbefcd4c7	-0.49381086
74	0xbdcb91c4	-0.09939912
75	0xbf0eecdf	-0.55830187
76	0x3f349fe3	0.7055647
77	0x3e67a937	0.22623144
78	0xbdd8dc1d	-0.10588858
79	0x3f8e1b37	1.1102055
80	0xbf5f6a89	-0.87271935
81	0xbf87333d	-1.0562512
82	0x3f3652ba	0.7121998
83	0x3f9f432a	1.2442372
84	0xbfa47ec3	-1.2851185
85	0x3e4f3725	0.2023588
86	0x3fb96832	1.4484923
87	0x3f595ae8	0.84904337
88	0x3f12eaf9	0.5738979
89	0x3f53592d	0.82557946
90	0xbef73b76	-0.48287553
91	0xbff7bf88	-1.9355326
92	0xbf9b2ee3	-1.2123684
93	0xbfb26cf0	-1.3939495
94	0xbf862dde	-1.0482748
95	0x40196cb6	2.3972602
96	0xbf85d002	-1.0454104
97	0xbf3f71eb	-0.747832
98	0x3f1135d6	0.5672277
99	0xbfa4abf8	-1.2864981
100	0xbf295fcf	-0.6616182
101	0xbfd67c6a	-1.6756718
102	0x3e9987e9	0.29986504
103	0xbede0311	-0.43361714
104	0xbf3f7969	-0.7479463
105	0xbf99ed3e	-1.2025526
106	0x3fe4b82a	1.7868702
107	0xbe2d8afe	-0.16947553
108	0x4033f17b	2.8116138
109	0x3f341473	0.70343703
110	0xbdde2c9a	-0.10848351
111	0xbfe4354f	-1.7828768
112	0xbf38f956	-0.72255456
113	0xbc8b51ed	-0.017006839
114	0xbd78acd0	-0.06071168
115	0x3ec317ec	0.38104188
116	0xbf3c05fe	-0.73446643
117	0xbe8de57f	-0.27714154
118	0x3d17c13c	0.037049517
119	0x4051be9c	3.2772589
120	0x3eb33524	0.3500148
121	0x3f623d4d	0.8837479
122	0x3fe6b70c	1.8024611
123	0x3f6e8947	0.9317822
124	0x3fdf1a31	1.7429868
125	0xbed7149f	-0.4200792
126	0xbd903596	-0.07041471
127	0x3f30ab9f	0.69011873
128	0xc00e1995	-2.2203114
129	0xbd80e981	-0.06294537
130	0x3f296204	0.66165185
131	0x3f2b3a99	0.6688629
132	0x3ee2bb78	0.44283652
133	0xbf25ba48	-0.6473737
134	0x3f379f3c	0.7172735
135	0xbed0c147	-0.4077246
136	0x3f3815de	0.71908367
137	0xbfa7a0d4	-1.3095956
138	0xbbf117f2	-0.007357591
139	0x3e255d00	0.16148758
140	0x3eadd10d	0.33948556
141	0x3f4ae195	0.7925046
142	0xbf241e7e	-0.6410903
143	0xbf922dd4	-1.1420236
144	0x3f3467cc	0.7047088
145	0x3f118174	0.56838155
146	0xbe801fa9	-0.25024155
147	0xbf1a1187	-0.60182995
148	0x3fa32333	1.2745117
149	0xbda41b90	-0.0801307
150	0x3dd07a20	0.101795435
151	0x3e9fc92c	0.3120817
152	0xbe083aed	-0.13303728
153	0xbfd0f782	-1.6325533
154	0xbf207ca4	-0.62690187
155	0x3f4f2b70	0.80925655
156	0xbf56dc4b	-0.8392989
157	0xbfd50cc4	-1.6644521
158	0x3efcebfc	0.49398792
159	0x3fc1718e	1.5112779
160	0x3d48eea7	0.04905572
161	0x3ff01d18	1.8758879
162	0x3f151648	0.58237123
163	0xbfb0efc2	-1.3823168
164	0xbef14f91	-0.47131017
165	0x3ee9dcef	0.4567637
166	0xbe9ea13c	-0.30982387
167	0x3fb5332d	1.4156243
168	0x3fbcf840	1.476326
169	0xbf95e730	-1.1711178
170	0x3e49beff	0.19701765
171	0xbf28dc50	-0.6596117
172	0xbe2773f4	-0.16352826
173	0x3fd5c84a	1.6701748
174	0x3eb18ea3	0.34679136
175	0xc00813c3	-2.1262062
176	0x3eee9f4c	0.4660591
177	0x3fb10b79	1.3831626
178	0x3f214d7a	0.63008845
179	0xbf8f97af	-1.1218165
180	0xbf3784f5	-0.7168725
181	0xbf3b7bdf	-0.7323589
182	0x4013ae46	2.3075118
183	0x3f23f159	0.6404014
184	0xbeaa0216	-0.33204716
185	0xbf197712	-0.5994731
186	0x3e9d6cc5	0.30747047
187	0xbc2418a9	-0.010015645
188	0xbf0f7819	-0.5604263
189	0x3ea3c5ed	0.31986943
190	0xbf839874	-1.02809
191	0xbe9072d4	-0.28212607
192	0x3f98beb9	1.1933204
193	0xbe0356c7	-0.12826072
194	0xbde946c6	-0.11390452
195	0xbf5707d0	-0.83996296
196	0xbff43687	-1.907914
197	0x3f2a0911	0.66420084
198	0x3eff32a0	0.4984331
199	0x3f34de0b	0.7065131
200	0xbef9534f	-0.48696372
201	0x3f3cba0e	0.73721397
202	0xbe932a4e	-0.28743213
203	0xbfa6265c	-1.2980456
204	0xbfc68b5b	-1.5511278
205	0x3e168a3e	0.14701173
206	0x3dc91c9d	0.09819911
207	0xbefc2e6f	-0.49254176
208	0x3f81ca8a	1.0139935
209	0xbca52d98	-0.020163342
210	0x3f8ae488	1.0850992
211	0x3f8ab790	1.0837269
212	0x3f8c92f1	1.0982343
213	0x3fb0fa72	1.382643
214	0x3f587510	0.84553623
215	0xbfb243d7	-1.3926953
216	0xbf880a53	-1.0628151
217	0x3e8634b3	0.2621208
218	0x3fa79176	1.3091266
219	0x3e7f3cc0	0.24925518
220	0xbfde5923	-1.7370952
221	0xbf59d383	-0.85088366
222	0x3f64fcc9	0.8944822
223	0x3d6f458b	0.05841593
224	0x3e9d36cf	0.30705878
225	0x3f826b7a	1.0189049
226	0x3ef07947	0.46967527
227	0x3f45f04a	0.77319777
228	0xbfac12c9	-1.3443233
229	0x3e4ac67f	0.19802283
230	0xbcc54486	-0.024080526
231	0x3efe7c0e	0.4970402
232	0x3ea87c5f	0.32907388
233	0xbfded4f2	-1.7408736
234	0xbf5c27ca	-0.85998213
235	0xc0217851	-2.5229685
236	0xbf4e4099	-0.8056732
237	0x3e55bf71	0.2087381
238	0x3f87e087	1.0615395
239	0x3f8197d8	1.0124464
240	0xbc8a08b8	-0.01684986
241	0xbf2c5323	-0.67314357
242	0xbf0c9d07	-0.54927105
243	0x3e8ef324	0.27919877
244	0x3f6f0acc	0.9337585
245	0x3d991d55	0.07476298
246	0xbf35c86b	-0.7100894
247	0xbf56a902	-0.83851635
248	0xbea967b8	-0.33086944
249	0xbfb6364e	-1.4235322
250	0xbcecdd2d	-0.028914059
251	0x3f687488	0.9080281
252	0xc0317f70	-2.7734032
253	0x3eb929a1	0.36164573
254	0xbeb7b28e	-0.35878414
255	0x3eceb24c	0.40370405

layers.0.0.output_mask f4 [80]
0	0x3f800000	1.0
1	0x3f800000	1.0
2	0x3f800000	1.0
3	0x3f800000	1.0
4	0x3f800000	1.0
5	0x3f800000	1.0
6	0x3f800000	1.0
7	0x3f800000	1.0
8	0x3f800000	1.0
9	0x3f800000	1.0
10	0x3f800000	1.0
11	0x3f800000	1.0
12	0x3f800000	1.0
13	0x3f800000	1.0
14	0x3f800000	1.0
15	0x3f800000	1.0
16	0x3f800000	1.0
17	0x3f800000	1.0
18	0x3f800000	1.0
19	0x3f800000	1.0
20	0x3f800000	1.0
21	0x3f800000	1.0
22	0x3f800000	1.0
23	0x3f800000	1.0
24	0x3f800000	1.0
25	0x3f800000	1.0
26	0x3f800000	1.0
27	0x3f800000	1.0
28	0x3f800000	1.0
29	0x3f800000	1.0
30	0x3f800000	1.0
31	0x3f800000	1.0
32	0x3f800000	1.0
33	0x3f800000	1.0
34	0x3f800000	1.0
35	0x3f800000	1.0
36	0x3f800000	1.0
37	0x3f800000	1.0
38	0x3f800000	1.0
39	0x3f800000	1.0
40	0x3f800000	1.0
41	0x3f800000	1.0
42	0x3f800000	1.0
43	0x3f800000	1.0
44	0x3f800000	1.0
45	0x3f800000	1.0
46	0x3f800000	1.0
47	0x3f800000	1.0
48	0x3f800000	1.0
49	0x3f800000	1.0
50	0x3f800000	1.0
51	0x3f800000	1.0
52	0x3f800000	1.0
53	0x3f800000	1.0
54	0x3f800000	1.0
55	0x3f800000	1.0
56	0x3f800000	1.0
57	0x3f800000	1.0
58	0x3f800000	1.0
59	0x3f800000	1.0
60	0x3f800000	1.0
61	0x3f800000	1.0
62	0x3f800000	1.0
63	0x3f800000	1.0
64	0x3f800000	1.0
65	0x3f800000	1.0
66	0x3f800000	1.0
67	0x3f800000	1.0
68	0x3f800000	1.0
69	0x3f800000	1.0
70	0x3f800000	1.0
71	0x3f800000	1.0
72	0x3f800000	1.0
73	0x3f800000	1.0
74	0x3f800000	1.0
75	0x3f800000	1.0
76	0x3f800000	1.0
77	0x3f800000	1.0
78	0x3f800000	1.0
79	0x3f800000	1.0

layers.0.1.mul.output_mask f4 [48]
0	0x3f800000	1.0
1	0x3f800000	1.0
2	0x3f800000	1.0
3	0x3f800000	1.0
4	0x3f800000	1.0
5	0x3f800000	1.0
6	0x3f800000	1.0
7	0x3f800000	1.0
8	0x3f800000	1.0
9	0x3f800000	1.0
10	0x3f800000	1.0
11	0x3f800000	1.0
12	0x3f800000	1.0
13	0x3f800000	1.0
14	0x3f800000	1.0
15	0x3f800000	1.0
16	0x3f800000	1.0
17	0x3f800000	1.0
18	0x3f800000	1.0
19	0x3f800000	1.0
20	0x3f800000	1.0
21	0x3f800000	1.0
22	0x3f800000	1.0
23	0x3f800000	1.0
24	0x3f800000	1.0
25	0x3f800000	1.0
26	0x3f800000	1.0
27	0x3f800000	1.0
28	0x3f800000	1.0
29	0x3f800000	1.0
30	0x3f800000	1.0
31	0x3f800000	1.0
32	0x3f800000	1.0
33	0x3f800000	1.0
34	0x3f800000	1.0
35	0x3f800000	1.0
36	0x3f800000	1.0
37	0x3f800000	1.0
38	0x3f800000	1.0
39	0x3f800000	1.0
40	0x3f800000	1.0
41	0x3f800000	1.0
42	0x3f800000	1.0
43	0x3f800000	1.0
44	0x3f800000	1.0
45	0x3f800000	1.0
46	0x3f800000	1.0
47	0x3f800000	1.0

layers.1.0.weight f4 [24576]
0	0xbf45fecd	-0.7734192
1	0xbe9776f9	-0.29582956
2	0x3f9ee0d1	1.2412359
3	0xbd36ff20	-0.0446769
4	0x400bd487	2.1848466
5	0xbea7d793	-0.32781658
6	0xbeba7936	-0.36420602
7	0xbf9faa4a	-1.2473843
8	0x3f1bf51d	0.6092089
9	0x3f4590a8	0.7717385
10	0xbe958ae3	-0.29207525
11	0xbfff9875	-1.9968401
12	0xc01f5d32	-2.4900632
13	0xbd0c71de	-0.03428828
14	0x3f1797fb	0.5921628
15	0x3fca7bbb	1.581901
16	0xbfa498b2	-1.2859099
17	0x3e8c8a7c	0.27449405
18	0x3f2c2c56	0.6725515
19	0x3f882723	1.0636944
20	0x3ea29f82	0.3176232
21	0x3fdcd5e6	1.7252777
22	0x3eaf9aec	0.34297884
23	0xbf71ba1c	-0.94424605
24	0xbf9cba31	-1.2244321
25	0x3ec751b2	0.38929516
26	0xc00628f1	-2.0962489
27	0xbe8ac2df	-0.271018
28	0x3f48e8a3	0.78479975
29	0x3f0a7274	0.5408089
30	0xbf9e1556	-1.2350261
31	0x3e299e27	0.16564237
32	0xbf47c38f	-0.78032774
33	0x3f459dfc	0.7719419
34	0x3f442b4a	0.76628554
35	0xbf4fa150	-0.8110552
36	0x3f5267bf	0.82189554
37	0x3e81ec0b	0.253754
38	0xbe1c224d	-0.1524746
39	0xbf03f415	-0.51544315
40	0x3d104b53	0.035228085
41	0x400a992b	2.1655986
42	0xbc98c142	-0.01864684
43	0xc0135e5f	-2.302635
44	0x3bfd5bc3	0.007731886
45	0x3fcef176	1.6167438
46	0x3f809ee3	1.0048488
47	0x3fd9bc42	1.7010577
48	0x3f3371b5	0.7009538
49	0x3dcbb3b8	0.09946388
50	0xbf4d37da	-0.8016335
51	0x3fae8e98	1.3637266
52	0xbf5af674	-0.8553231
53	0x3facc528	1.3497667
54	0xbf954020	-1.1660194
55	0x3ef3f6d5	0.47649255
56	0x3f389c36	0.7211336
57	0x3ead4802	0.33844
58	0x3ef7fc0f	0.48434493
59	0xbe36fd6a	-0.17870107
60	0xbf6be982	-0.9215318
61	0xbf0e8dbe	-0.5568503
62	0x3f998d84	1.1996312
63	0xbf190641	-0.5977517
64	0x3f577996	0.841699
65	0xbf9730e9	-1.1811801
66	0xbf08d524	-0.53450227
67	0xbf16fdfb	-0.58981293
68	0xbc76df1a	-0.01506784
69	0x3fe3c469	1.7794315
70	0x3b318a5f	0.0027090532
71	0x3ee98132	0.4560638
72	0xbe992443	-0.29910478
73	0xbf5a94af	-0.85383123
74	0xbea8c100	-0.32959747
75	0x403370c6	2.8037581
76	0xbfb601a9	-1.4219257
77	0x3e44df72	0.19225863
78	0x3fd90edb	1.6957659
79	0x401eb03a	2.479506
80	0xbe5dd396	-0.21662745
81	0xbf277791	-0.6541682
82	0xbeb65499	-0.35611418
83	0xbe33854b	-0.17531316
84	0x3e7a7bec	0.24461335
85	0x3f8a1ef6	1.0790699
86	0x3fa8ca7b	1.3186792
87	0x3e4e026a	0.20118108
88	0x3ef45fcb	0.47729334
89	0x3f6ece61	0.9328366
90	0xbe89e72b	-0.2693418
91	0x3f83d43d	1.0299145
92	0x3e8cca67	0.2749817
93	0x3edbb120	0.42908573
94	0xbf9695bd	-1.1764446
95	0x3f77ef77	0.9684977
96	0xbfdd05c6	-1.7267387
97	0xbfa40f34	-1.281714
98	0x3da87395	0.082251705
99	0xbffad135	-1.9595095
100	0xbf4458ff	-0.766983
101	0x3e5cac8b	0.21550195
102	0x3d80cd6a	0.062891796
103	0xbe69b6ea	-0.22823682
104	0x3f96cc9f	1.1781195
105	0x3f759241	0.9592629
106	0xbf6771ab	-0.9040782
107	0x3f736496	0.95075357
108	0xbf498834	-0.78723454
109	0xbfb91561	-1.4459649
110	0x3eac6fcd	0.33679047
111	0x3d4318dd	0.047631133
112	0xbecc730d	-0.39931527
113	0xbea271d9	-0.31727484
114	0xbe0c1d17	-0.13682972
115	0xbf504072	-0.81348336
116	0xbf9a4823	-1.2053264
117	0x3dfdd808	0.1239472
118	0xbf201711	-0.62535197
119	0xc0032a99	-2.049475
120	0xbb70d6ae	-0.0036749053
121	0xbfc44e31	-1.5336362
122	0xbeeee8d3	-0.46662006
123	0xbfdf78b1	-1.7458707
124	0xbde5f513	-0.11228385
125	0xbedcb35b	-0.43105587
126	0xbf474d6c	-0.7785251
127	0xbf9b8d81	-1.2152559
128	0x3e718ee8	0.2358967
129	0x3fedde6b	1.8583502
130	0x3f0df1e3	0.55447215
131	0xbf1cfa7d	-0.61319715
132	0xbf7a2ec0	-0.97727585
133	0x3f38b355	0.7214864
134	0x3fd38b21	1.6526834
135	0x3e9ad666	0.30241698
136	0x3e153af0	0.14573264
137	0x3fc82999	1.5637695
138	0xbeac43f8	-0.33645606
139	0x3fc66692	1.5500052
140	0xbf196215	-0.59915286
141	0x3f24b2d1	0.6433535
142	0x3f2c2863	0.67249125
143	0xbd61d734	-0.055136874
144	0x3dee0229	0.11621506
145	0x4004940b	2.0715358
146	0xc0232f1e	-2.5497508
147	0xbe77fc64	-0.24217373
148	0xbea6bb27	-0.3256466
149	0x3f2ffe36	0.6874727
150	0xbfae0ec0	-1.3598251
151	0x3f474c6f	0.77851003
152	0x3fd19eba	1.6376565
153	0xbf5348ca	-0.8253294
154	0x3e59632a	0.21229234
155	0xbfe872af	-1.8159999
156	0x3f8c3db2	1.0956328
157	0x3fd0cfb4	1.6313386
158	0x3f55d582	0.8352891
159	0xbf885315	-1.0650355
160	0x3e9290f6	0.2862622
161	0xbf5a7bd8	-0.8534522
162	0x3ef24f8c	0.47326314
163	0x3f05817e	0.52150714
164	0x3ff092bd	1.8794781
165	0x3f8db973	1.107222
166	0xbf984dc3	-1.1898731
167	0xbf9e3c6d	-1.236219
168	0xbf2119ec	-0.6293018
169	0x3fb8b808	1.4431162
170	0xbe7e77f8	-0.24850452
171	0xbec8a771	-0.39190248
172	0xbfa5d45c	-1.2955432
173	0x3eedc606	0.46440142
174	0xbfb4020c	-1.4063125
175	0x40156a1a	2.334601
176	0xbfd78e53	-1.6840309
177	0xbfbba564	-1.4659848
178	0xbf66ea8d	-0.90201646
179	0x3f13aa96	0.5768217
180	0xbd809a19	-0.06279392
181	0x3dcd5eff	0.10027885
182	0x3e290f86	0.16509828
183	0xbfad55e5	-1.3541838
184	0x3e760a0d	0.24027272
185	0x402b741c	2.6789618
186	0x402e0e3a	2.7196183
187	0xbd05ae7c	-0.032637104
188	0xbfdccf6d	-1.7250801
189	0x3fcaaacc	1.5833373
190	0xbf197d26	-0.59956586
191	0x3f15716e	0.58376205
192	0x3ee342bb	0.4438685
193	0xbf7668e7	-0.9625382
194	0x3f36da1b	0.7142655
195	0xbcef2575	-0.029192666
196	0xbff28dbe	-1.8949506
197	0xbfb5e699	-1.4210998
198	0xbea3d708	-0.31999993
199	0xbeda9854	-0.42694342
200	0xbd9bda3a	-0.07609983
201	0x3ee6fd04	0.4511491
202	0xbdf5ac9f	-0.119958155
203	0x3ede86f4	0.43462336
204	0xbef7a71e	-0.48369688
205	0x3f5981bd	0.8496359
206	0x3f813e1c	1.0097079
207	0x3f037057	0.5134329
208	0xbdb2e7d9	-0.08735628
209	0x3fec7126	1.847203
210	0xbe6aa323	-0.22913794
211	0x3f0f6a80	0.5602188
212	0xbfcf8b79	-1.6214439
213	0x3f51657c	0.8179548
214	0xbfb6c035	-1.4277407
215	0x3f38bca6	0.72162855
216	0x3eadf43e	0.33975405
217	0x3e0e8c79	0.13920774
218	0x3f692546	0.910725
219	0xbe08603e	-0.13317963
220	0x3fad0d32	1.3519652
221	0x3edcd1dd	0.43128863
222	0x3f26c05e	0.6513728
223	0x400ebff2	2.2304654
224	0x3f8b725c	1.0894275
225	0x3f5f1fe0	0.8715801
226	0x3e80281e	0.25030607
227	0xbea63a8c	-0.32466543
228	0x3deee966	0.11665611
229	0xbe07e69d	-0.13271566
230	0xbfbaebdc	-1.4603229
231	0x3fafe220	1.3740883
232	0x3f5e0678	0.8672862
233	0x3facb3b7	1.3492345
234	0x3f70276f	0.9381017
235	0x3d87ecaf	0.06636941
236	0xbe36bd48	-0.17845643
237	0xbd0a3596	-0.03374251
238	0xbf9a1092	-1.2036307
239	0xbed37217	-0.4129798
240	0x3e503a77	0.20334803
241	0xbf8c5542	-1.0963519
242	0x3f5e8b4c	0.869313
243	0x3ecd539a	0.40102845
244	0xbfbc36cb	-1.4704221
245	0x3f98d120	1.193882
246	0x3f8363dd	1.0264851
247	0xbf877a7d	-1.0584255
248	0xbe75840d	-0.23976155
249	0xbf5512e7	-0.8323197
250	0xbcd833d3	-0.0263919
251	0xbfa673ff	-1.3004149
252	0x3f127de8	0.5722337
253	0x3fca868e	1.5822313
254	0xbff39919	-1.9031097
255	0xc00cff39	-2.2030776

layers.1.0.output_mask f4 [80]
0	0x3f800000	1.0
1	0x3f800000	1.0
2	0x3f800000	1.0
3	0x3f800000	1.0
4	0x3f800000	1.0
5	0x3f800000	1.0
6	0x3f800000	1.0
7	0x3f800000	1.0
8	0x3f800000	1.0
9	0x3f800000	1.0
10	0x3f800000	1.0
11	0x3f800000	1.0
12	0x3f800000	1.0
13	0x3f800000	1.0
14	0x3f800000	1.0
15	0x3f800000	1.0
16	0x3f800000	1.0
17	0x3f800000	1.0
18	0x3f800000	1.0
19	0x3f800000	1.0
20	0x3f800000	1.0
21	0x3f800000	1.0
22	0x3f800000	1.0
23	0x3f800000	1.0
24	0x3f800000	1.0
25	0x3f800000	1.0
26	0x3f800000	1.0
27	0x3f800000	1.0
28	0x3f800000	1.0
29	0x3f800000	1.0
30	0x3f800000	1.0
31	0x3f800000	1.0
32	0x3f800000	1.0
33	0x3f800000	1.0
34	0x3f800000	1.0
35	0x3f800000	1.0
36	0x3f800000	1.0
37	0x3f800000	1.0
38	0x3f800000	1.0
39	0x3f800000	1.0
40	0x3f800000	1.0
41	0x3f800000	1.0
42	0x3f800000	1.0
43	0x3f800000	1.0
44	0x3f800000	1.0
45	0x3f800000	1.0
46	0x3f800000	1.0
47	0x3f800000	1.0
48	0x3f800000	1.0
49	0x3f800000	1.0
50	0x3f800000	1.0
51	0x3f800000	1.0
52	0x3f800000	1.0
53	0x3f800000	1.0
54	0x3f800000	1.0
55	0x3f800000	1.0
56	0x3f800000	1.0
57	0x3f800000	1.0
58	0x3f800000	1.0
59	0x3f800000	1.0
60	0x3f800000	1.0
61	0x3f800000	1.0
62	0x3f800000	1.0
63	0x3f800000	1.0
64	0x3f800000	1.0
65	0x3f800000	1.0
66	0x3f800000	1.0
67	0x3f800000	1.0
68	0x3f800000	1.0
69	0x3f800000	1.0
70	0x3f800000	1.0
71	0x3f800000	1.0
72	0x3f800000	1.0
73	0x3f800000	1.0
74	0x3f800000	1.0
75	0x3f800000	1.0
76	0x3f800000	1.0
77	0x3f800000	1.0
78	0x3f800000	1.0
79	0x3f800000	1.0

layers.1.1.mul.output_mask f4 [48]
0	0x3f800000	1.0
1	0x3f800000	1.0
2	0x3f800000	1.0
3	0x3f800000	1.0
4	0x3f800000	1.0
5	0x3f800000	1.0
6	0x3f800000	1.0
7	0x3f800000	1.0
8	0x3f800000	1.0
9	0x3f800000	1.0
10	0x3f800000	1.0
11	0x3f800000	1.0
12	0x3f800000	1.0
13	0x3f800000	1.0
14	0x3f800000	1.0
15	0x3f800000	1.0
16	0x3f800000	1.0
17	0x3f800000	1.0
18	0x3f800000	1.0
19	0x3f800000	1.0
20	0x3f800000	1.0
21	0x3f800000	1.0
22	0x3f800000	1.0
23	0x3f800000	1.0
24	0x3f800000	1.0
25	0x3f800000	1.0
26	0x3f800000	1.0
27	0x3f800000	1.0
28	0x3f800000	1.0
29	0x3f800000	1.0
30	0x3f800000	1.0
31	0x3f800000	1.0
32	0x3f800000	1.0
33	0x3f800000	1.0
34	0x3f800000	1.0
35	0x3f800000	1.0
36	0x3f800000	1.0
37	0x3f800000	1.0
38	0x3f800000	1.0
39	0x3f800000	1.0
40	0x3f800000	1.0
41	0x3f800000	1.0
42	0x3f800000	1.0
43	0x3f800000	1.0
44	0x3f800000	1.0
45	0x3f800000	1.0
46	0x3f800000	1.0
47	0x3f800000	1.0

layers.2.0.weight f4 [24576]
0	0x3fbda3bb	1.4815592
1	0xbeb609ca	-0.35554343
2	0xbf1ca255	-0.611852
3	0xbe6b8924	-0.23001534
4	0x3f4b607a	0.79444087
5	0x3f2729d7	0.6529822
6	0xbf8f0a95	-1.1175104
7	0xbf56435b	-0.83696526
8	0xbec774fa	-0.38956434
9	0x3eb6eb48	0.3572638
10	0xbf8dfc4b	-1.1092619
11	0x3f0b251c	0.543535
12	0xbfa67c26	-1.3006637
13	0xbf79fee1	-0.9765454
14	0xbf20b6b8	-0.62778807
15	0xbf1f69fd	-0.622711
16	0x3fc1af2b	1.5131582
17	0xbf641662	-0.89096653
18	0x3f1d6445	0.61481124
19	0xbe5f4dab	-0.21806972
20	0x3f718eb8	0.94358397
21	0xbea751d4	-0.32679617
22	0xbfd7e821	-1.6867715
23	0x3b5f60aa	0.0034084716
24	0x3f17277d	0.5904463
25	0xbe3d48f2	-0.18484858
26	0xbfe5cb2f	-1.7952632
27	0x3f48d94e	0.7845658
28	0xbf898a86	-1.0745399
29	0x3fd59dbd	1.6688763
30	0x3f751f57	0.95750946
31	0x3f59982e	0.8499783
32	0x3f938083	1.1523594
33	0x3d01645d	0.031589855
34	0xc0024c0a	-2.035891
35	0x3fab3d1d	1.3378025
36	0xbf167970	-0.5877905
37	0x400a52ff	2.1613157
38	0x3f4d3654	0.80161023
39	0x3f0def0e	0.55442894
40	0xbfb764e8	-1.4327669
41	0xbc253e54	-0.010085661
42	0xbfc11f3e	-1.5087659
43	0x3f29bda3	0.6630499
44	0xbde4ce07	-0.11172109
45	0x3f4d29d0	0.80141926
46	0xbd23a4a4	-0.039951935
47	0xbf328b38	-0.6974368
48	0xbdd6f4cd	-0.10495911
49	0xbf9b2ca4	-1.2122998
50	0xbfb011a0	-1.3755379
51	0xbfb3bcf4	-1.4042039
52	0x3eca4f98	0.3951385
53	0xbeaecfaa	-0.3414281
54	0xbeefb6f7	-0.4681928
55	0xbeab79c1	-0.33491328
56	0x3c9cdfa7	0.019149614
57	0x3f4da94a	0.8033644
58	0xbf7c5cec	-0.9857929
59	0x3f313731	0.6922484
60	0x3ee5c68b	0.4487804
61	0xbe650e51	-0.22368743
62	0x3fd834e1	1.6891137
63	0xbeb374db	-0.3505009
64	0x3e991e89	0.2990611
65	0x3e3abd49	0.18236269
66	0x3efba03c	0.49145687
67	0xbfab4e5d	-1.338329
68	0x3fbc125d	1.4693104
69	0x3fef98b0	1.8718472
70	0xbfacd9cd	-1.3503968
71	0x3f9f5119	1.2446624
72	0x4021977d	2.524871
73	0x3e962fa5	0.29333225
74	0x3e90b7c2	0.28265196
75	0x3ebca98c	0.36848104
76	0xbfe21b09	-1.76645
77	0xbff2d810	-1.8972187
78	0xbf249b98	-0.6429992
79	0x3f468fa2	0.77562916
80	0x3f1ec027	0.6201195
81	0x3ea27386	0.31728762
82	0xbe5d5062	-0.21612695
83	0x3f8a2b9f	1.0794562
84	0x3edbf704	0.42961895
85	0x3ed8ccf6	0.42343873
86	0xbe080e3e	-0.13286683
87	0x3db68e38	0.08913845
88	0x3f5e2231	0.8677092
89	0x3f366c52	0.71259034
90	0x3f5516f6	0.8323816
91	0x3db086fb	0.086194955
92	0x40146366	2.3185668
93	0xbf0310ef	-0.51197714
94	0x3f3c82f5	0.73637325
95	0x3f1b9cc5	0.60786086
96	0xbe7780e2	-0.24170259
97	0x3f43f6ea	0.76548636
98	0x3f4aedaa	0.79268897
99	0x3fb0ad1f	1.3802832
100	0xbef97d88	-0.48728585
101	0x3f82b21a	1.0210602
102	0x3fa6fd5e	1.3046072
103	0xc0224cce	-2.5359378
104	0x3f422b78	0.7584758
105	0x3faecb95	1.3655878
106	0xbe2e10e3	-0.1699863
107	0xbfb49f5f	-1.4111136
108	0xbf023e9a	-0.5087677
109	0x3f4901ad	0.7851818
110	0x402d79ed	2.7105668
111	0x3ec322e1	0.38112548
112	0x3f450b97	0.7697081
113	0xc00eb95a	-2.230063
114	0xbfb52dea	-1.4154637
115	0xc0374a3a	-2.8639054
116	0x400b2792	2.1742902
117	0xbe7aacdf	-0.24480008
118	0xbe82fa15	-0.25581422
119	0x40128672	2.289456
120	0xbfbf5ce7	-1.4950227
121	0x3efd4755	0.49468485
122	0x3f6da6a2	0.92832386
123	0xc002f17d	-2.0459893
124	0xbdbfb6b2	-0.09361018
125	0x3fb9817d	1.4492642
126	0x3f83b475	1.0289446
127	0xbfca4257	-1.5801495
128	0x40264a3f	2.5982816
129	0xbec71ade	-0.38887686
130	0x3e8d7a29	0.27632263
131	0x3e2439d5	0.16037686
132	0x3fe53ed3	1.7909797
133	0x3d168f54	0.036757782
134	0x3ec7c5bc	0.39018047
135	0xbdb80dfc	-0.08987042
136	0xbf682cf2	-0.9069358
137	0x3fa32c9d	1.274799
138	0x3e1ad7db	0.15121405
139	0x3f3db4d3	0.7410404
140	0x3fddac3d	1.7318188
141	0x3e36733e	0.17817399
142	0x3f3f3eb2	0.7470504
143	0x3f1c4222	0.6103841
144	0x40047faf	2.0702932
145	0xbe1a690e	-0.15079138
146	0x3f162d34	0.58662724
147	0xbe7a67eb	-0.24453704
148	0x3f8bb4e6	1.0914581
149	0xbf97dd7d	-1.1864468
150	0x3e4d8942	0.20071891
151	0x3d429724	0.04750742
152	0x3f649104	0.89283776
153	0x3fecc0f1	1.8496381
154	0x3f2a7efe	0.66600025
155	0x3f6913c7	0.910458
156	0x3ed99341	0.42495158
157	0x3f0d2c68	0.55145884
158	0x3f1542c0	0.5830498
159	0xbb98db42	-0.0046648094
160	0x3f31f6f8	0.6951747
161	0xbcdaf952	-0.026730213
162	0x3f0973ec	0.5369251
163	0xbfb93aae	-1.4471033
164	0xbf556961	-0.8336392
165	0x3fb1e3ee	1.3897684
166	0x3f7bc418	0.9834609
167	0x3ebb87ee	0.36627144
168	0xbf728aff	-0.9474334
169	0x3e8b0adb	0.2715672
170	0xbfcd653e	-1.6046522
171	0x3ba7c6cf	0.0051201354
172	0x3e0d36b8	0.13790405
173	0x3e928e6e	0.2862429
174	0x3e81ed98	0.25376582
175	0xbfe13045	-1.7592856
176	0x3fbcb15f	1.4741629
177	0x3f5cf28c	0.863076
178	0xbec6aebd	-0.3880519
179	0xbf3f7146	-0.74782217
180	0xbac0de62	-0.0014714713
181	0x3f09f420	0.5388813
182	0xbdc8c986	-0.098040625
183	0xbefa965e	-0.48942846
184	0xbf295e29	-0.661593
185	0x3fff9d67	1.996991
186	0xbf98ddcc	-1.1942687
187	0x3eb49e29	0.35276917
188	0xbd9dc126	-0.07702856
189	0xbf4cbab2	-0.79972374
190	0x3fbbc975	1.4670855
191	0x3e916b95	0.2840239
192	0x3f1b6b04	0.6071017
193	0xc05e80f2	-3.4766202
194	0x3fca856e	1.582197
195	0xbe4698dc	-0.19394249
196	0x3e99c603	0.30033883
197	0xbe8c2662	-0.27373034
198	0xbe25bc52	-0.1618512
199	0x3ef46b4c	0.4773811
200	0xbfa60a23	-1.2971843
201	0xbf9cbd5b	-1.2245287
202	0xbf8caeed	-1.0990883
203	0x3f3dbdc7	0.741177
204	0xbe351465	-0.17683561
205	0x3e8d55da	0.27604562
206	0x3f3356c4	0.7005427
207	0xbea84c64	-0.3287078
208	0x3fb965a0	1.4484138
209	0x3e777854	0.24166995
210	0x3f68e9af	0.9098157
211	0x3e46bbb0	0.19407535
212	0x3d1e9734	0.038718417
213	0xbff60a91	-1.9221975
214	0xbf8a0e80	-1.0785675
215	0xbf596a9c	-0.849283
216	0xbf7073d0	-0.93926716
217	0x3fdf3a08	1.7439585
218	0x3f9a28e7	1.2043732
219	0x4015eb39	2.3424819
220	0x3fff1b8a	1.9930279
221	0xbf4d4dec	-0.80197024
222	0x3f598e5d	0.84982854
223	0x3fa783d2	1.3087103
224	0x3ed3fb88	0.4140284
225	0xbf835f4b	-1.0263456
226	0xbe0f499a	-0.1399292
227	0x4034d3f0	2.8254356
228	0xbf4625f7	-0.7740168
229	0x3f129448	0.5725751
230	0xbe356476	-0.17714104
231	0xbe976644	-0.2957021
232	0xc0361311	-2.8449137
233	0x3f24064f	0.64072126
234	0x402863b8	2.6310863
235	0xbe698bdd	-0.2280726
236	0xbfd5becc	-1.6698852
237	0xbc1ba8ed	-0.009500724
238	0x3ba0d1b2	0.00490781
239	0x40041624	2.0638514
240	0x3eb95c99	0.3620346
241	0xbf6162a3	-0.8804113
242	0xbf98c0f5	-1.1933886
243	0xbf69fa7b	-0.9139783
244	0x3fd44679	1.6584007
245	0x3edb128c	0.42787588
246	0xbecbe187	-0.398205
247	0x3eb32af2	0.34993702
248	0x3e251532	0.16121367
249	0xc00ca9a2	-2.1978536
250	0xbb2cc36e	-0.0026361602
251	0xbfcea2c7	-1.6143426
252	0xbf350c9b	-0.7072236
253	0xbe9d85f4	-0.3076626
254	0x3f0b0cfc	0.5431669
255	0x3df4e77c	0.11958215

layers.2.0.output_mask f4 [80]
0	0x3f800000	1.0
1	0x3f800000	1.0
2	0x3f800000	1.0
3	0x3f800000	1.0
4	0x3f800000	1.0
5	0x3f800000	1.0
6	0x3f800000	1.0
7	0x3f800000	1.0
8	0x3f800000	1.0
9	0x3f800000	1.0
10	0x3f800000	1.0
11	0x3f800000	1.0
12	0x3f800000	1.0
13	0x3f800000	1.0
14	0x3f800000	1.0
15	0x3f800000	1.0
16	0x3f800000	1.0
17	0x3f800000	1.0
18	0x3f800000	1.0
19	0x3f800000	1.0
20	0x3f800000	1.0
21	0x3f800000	1.0
22	0x3f800000	1.0
23	0x3f800000	1.0
24	0x3f800000	1.0
25	0x3f800000	1.0
26	0x3f800000	1.0
27	0x3f800000	1.0
28	0x3f800000	1.0
29	0x3f800000	1.0
30	0x3f800000	1.0
31	0x3f800000	1.0
32	0x3f800000	1.0
33	0x3f800000	1.0
34	0x3f800000	1.0
35	0x3f800000	1.0
36	0x3f800000	1.0
37	0x3f800000	1.0
38	0x3f800000	1.0
39	0x3f800000	1.0
40	0x3f800000	1.0
41	0x3f800000	1.0
42	0x3f800000	1.0
43	0x3f800000	1.0
44	0x3f800000	1.0
45	0x3f800000	1.0
46	0x3f800000	1.0
47	0x3f800000	1.0
48	0x3f800000	1.0
49	0x3f800000	1.0
50	0x3f800000	1.0
51	0x3f800000	1.0
52	0x3f800000	1.0
53	0x3f800000	1.0
54	0x3f800000	1.0
55	0x3f800000	1.0
56	0x3f800000	1.0
57	0x3f800000	1.0
58	0x3f800000	1.0
59	0x3f800000	1.0
60	0x3f800000	1.0
61	0x3f800000	1.0
62	0x3f800000	1.0
63	0x3f800000	1.0
64	0x3f800000	1.0
65	0x3f800000	1.0
66	0x3f800000	1.0
67	0x3f800000	1.0
68	0x3f800000	1.0
69	0x3f800000	1.0
70	0x3f800000	1.0
71	0x3f800000	1.0
72	0x3f800000	1.0
73	0x3f800000	1.0
74	0x3f800000	1.0
75	0x3f800000	1.0
76	0x3f800000	1.0
77	0x3f800000	1.0
78	0x3f800000	1.0
79	0x3f800000	1.0

layers.2.1.mul.output_mask f4 [48]
0	0x3f800000	1.0
1	0x3f800000	1.0
2	0x3f800000	1.0
3	0x3f800000	1.0
4	0x3f800000	1.0
5	0x3f800000	1.0
6	0x3f800000	1.0
7	0x3f800000	1.0
8	0x3f800000	1.0
9	0x3f800000	1.0
10	0x3f800000	1.0
11	0x3f800000	1.0
12	0x3f800000	1.0
13	0x3f800000	1.0
14	0x3f800000	1.0
15	0x3f800000	1.0
16	0x3f800000	1.0
17	0x3f800000	1.0
18	0x3f800000	1.0
19	0x3f800000	1.0
20	0x3f800000	1.0
21	0x3f800000	1.0
22	0x3f800000	1.0
23	0x3f800000	1.0
24	0x3f800000	1.0
25	0x3f800000	1.0
26	0x3f800000	1.0
27	0x3f800000	1.0
28	0x3f800000	1.0
29	0x3f800000	1.0
30	0x3f800000	1.0
31	0x3f800000	1.0
32	0x3f800000	1.0
33	0x3f800000	1.0
34	0x3f800000	1.0
35	0x3f800000	1.0
36	0x3f800000	1.0
37	0x3f800000	1.0
38	0x3f800000	1.0
39	0x3f800000	1.0
40	0x3f800000	1.0
41	0x3f800000	1.0
42	0x3f800000	1.0
43	0x3f800000	1.0
44	0x3f800000	1.0
45	0x3f800000	1.0
46	0x3f800000	1.0
47	0x3f800000	1.0

readout.weight f4 [16]
0	0x3f43276d	0.76232034
1	0x3ec99ed9	0.39379004
2	0xbeceea83	-0.40413293
3	0x3ee930e0	0.455451
4	0xbfe64868	-1.7990847
5	0xbf4bc1db	-0.79592675
6	0xbdcd5d7d	-0.10027597
7	0xbf6b37c5	-0.9188197
8	0xbf312820	-0.6920185
9	0x3f3854da	0.72004473
10	0xbf14c352	-0.58110535
11	0x3ec1c5d5	0.37846246
12	0x3e9aacac	0.30209863
13	0x3e2d0482	0.16896251
14	0x40180777	2.3754556
15	0x3ede3870	0.43402433
