egnn_model3.pth (torch, 305442 bytes, 12 tensors)

input_proj.weight f4 [256]
000000 da c2 a8 be 03 f4 3c be cd fd 80 bf da 09 1d 3f
       -0.3296116 -0.18452458 -1.0077454 0.6134316
000010 85 d4 83 3f 56 e3 14 3f 2a 0f c6 bd a4 b3 96 3e
       1.0299231 0.5815939 -0.09670861 0.2943393
000020 0e e2 95 bf 3d 7c 90 bf 3a 49 b8 3f f4 9e 2d 3f
       -1.1709611 -1.1287915 1.4397347 0.6782067
000030 7b 51 04 3f c0 a4 00 c0 72 1d 64 bf 8b 4f 10 be
       0.5168683 -2.0100555 -0.8910743 -0.14092843
000040 7c 38 ad 3d b4 5d d8 bf 7a be 01 bf da 19 5c be
       0.08458039 -1.6903596 -0.5068127 -0.21494237
000050 05 f3 62 bd 1d 0f 00 bf 6d ed 70 bf 5f eb 87 3f
       -0.055407543 -0.5002306 -0.94112283 1.0618705
000060 5e cd 6f 3f 3f 92 08 c0 c0 85 5e 3f c6 ed 6d 3e
       0.9367274 -2.1339262 0.86922836 0.23235235
000070 26 3b 95 bf a4 01 60 3e aa 25 69 bf 93 b5 86 3e
       -1.1658676 0.21875626 -0.91073096 0.26310405
000080 1c 20 a5 3e 1f c3 94 bf d5 56 88 3f 68 d9 11 bf
       0.3225106 -1.1622046 1.0651499 -0.5697236
000090 51 c6 18 3e 83 86 eb 3e 09 4e c6 3f a1 7e 68 3f
       0.14919402 0.46001062 1.5492564 0.9081822
0000a0 37 3d ad 3e 19 cd 24 bf bb b5 93 3e b3 b0 99 3f
       0.33835766 -0.64375454 0.28849587 1.2007049
0000b0 93 b7 81 bf 45 21 24 3e a8 a6 06 3e d1 a3 e0 bd
       -1.0134147 0.16028316 0.13149512 -0.109687455
0000c0 2c 7b c2 bf e3 b6 45 40 a4 66 e2 bf bd ce 25 40
       -1.5193839 3.0892875 -1.7687573 2.5907433
0000d0 c1 0b 20 be 3e 6f 13 bf 29 f0 7c 3f dd 68 b3 bf
       -0.15629484 -0.5759162 0.98803955 -1.4016377
0000e0 05 19 01 40 0c f0 05 c0 79 3b 9a 3e c5 c1 16 3f
       2.017152 -2.0927763 0.301235 0.5888942
0000f0 3b 24 bd 3f a6 b8 88 3f e5 a1 e6 bf 1e b4 aa bf
       1.4776682 1.068135 -1.8018156 -1.3336217
000100 1f b4 cd bf c3 b3 f1 3f 57 bf 44 bf 21 e5 20 be
       -1.6070594 1.8882984 -0.7685446 -0.15712406
000110 a4 bb 86 3d b1 7f d1 bf 25 fe 80 bf 41 aa eb bf
       0.06578758 -1.6367093 -1.0077559 -1.8411332
000120 fa ac 2c bc be b9 ec 3e f6 d9 33 40 f6 a7 c6 3e
       -0.010539288 0.4623546 2.8101783 0.3880002
000130 ad e7 0d 3e 9c 74 d3 3e a7 bc a1 3e 99 84 a5 bf
       0.13857909 0.41299903 0.31589243 -1.293109
000140 ac a0 ef 3e 7e 9f d3 3e fa 8e a6 bf f5 8c 9e 3f
       0.4680227 0.4133262 -1.3012383 1.2386767
000150 b2 89 bb 3e d0 da 1e bf c9 bd df 3f aa 1e 7e bf
       0.3662849 -0.6205263 1.7479793 -0.9926554
000160 15 60 a5 bf 13 c2 04 c0 c7 73 c7 3d 79 fd b7 3e
       -1.2919947 -2.0743454 0.0973888 0.35935572
000170 dd 8f 0f 3f 4e 2d e5 bf 30 3d 50 bf d9 6c b1 3f
       0.5607889 -1.7904451 -0.81343365 1.3861343
000180 86 1f 80 be b5 7c 68 3f ac 9c 8a 3f dc e3 03 3f
       -0.2502405 0.9081529 1.0829062 0.5151956
000190 57 b0 71 bf 71 5f 4b 3d a2 86 9c 3f bc 85 d8 bf
       -0.944097 0.049651567 1.2228587 -1.6915812
0001a0 e0 6e 8e 3f 2b 5e 19 40 35 da 3b bf 82 7e 3b bf
       1.1127586 2.3963726 -0.7337983 -0.7323991
0001b0 d4 f1 3c bf 04 50 65 bf 38 b7 35 3f c3 71 8c bf
       -0.738065 -0.8957522 0.70982695 -1.0972217
0001c0 d3 be e9 3f 8a 27 49 3f 25 f7 cb bf 12 b9 16 c0
       1.826136 0.78575957 -1.5934798 -2.3550458
0001d0 38 38 f0 bf 72 95 36 3f 87 b9 1b 3d 91 ef 85 bf
       -1.8767157 0.71321785 0.03801873 -1.0463735
0001e0 c8 f2 21 3e c6 83 26 3f ae 36 b0 3f 4f 7c 20 c0
       0.1581527 0.6504482 1.3766687 -2.5075872
0001f0 61 3e b6 bf fd 8e 30 bf 9f f3 86 bf 82 c8 6c 3f
       -1.4237787 -0.6896818 -1.0543097 0.9249345
000200 1f c3 6a be f1 70 13 bf fb 61 64 3f 75 c9 23 bf
       -0.22925995 -0.5759421 0.89212006 -0.63979274
000210 3e 2c d1 3d 6a c6 b3 bf ec b9 e4 3e cb ab 93 3e
       0.10213517 -1.4044926 0.44673097 0.28842005
000220 45 98 bc be 99 35 c8 3d c2 ab 31 3f 81 e8 38 3e
       -0.36834922 0.09775848 0.69402707 0.18057443
000230 68 4f a5 bd 13 80 8d 3f 1a 09 0b 3f c0 8d 91 bf
       -0.08071786 1.105471 0.5431076 -1.1371384
000240 a0 55 5c bf 57 24 df 3e 4d d5 6f 3f 90 c4 03 3f
       -0.86068153 0.43582413 0.93684846 0.51471806
000250 7e b6 19 3f db ff d2 bc 4c e7 6f 3e b1 40 0b bf
       0.60044086 -0.025756767 0.23428077 -0.54395586
000260 01 7f e2 bf ac e7 43 bf cd 9f 17 3e 65 fb 47 3f
       -1.7695009 -0.7652538 0.14807053 0.7811797
000270 d8 9c 83 bf 80 94 27 3f 74 d1 7e 3f e8 3b 03 3e
       -1.028224 0.6546097 0.9953835 0.12815821
000280 10 25 02 3f ed ec 80 bf d6 d8 15 3f a9 e4 4a bf
       0.508378 -1.0072304 0.5853399 -0.7925516
000290 5b 94 b7 3f ee ef 95 3d d7 8a 8b bf ad e7 3a 3f
       1.434215 0.073211536 -1.0901746 0.7300976
0002a0 f3 b1 43 bf 67 e0 97 3e ad f2 53 bd cb 40 de 3f
       -0.76443404 0.29663393 -0.051745106 1.7363523
0002b0 eb 5e 25 3f 60 49 4d 3d 07 ed 4e bf 92 5e f1 3f
       0.6459796 0.050118804 -0.80830425 1.8856986
0002c0 52 ac 8d bf e1 25 e7 bf e9 ef 67 be af 7a 3f be
       -1.1068213 -1.8058435 -0.22650112 -0.18699144
0002d0 ad fc a3 be 84 df f8 3e 52 cf 4e 3e 63 3e c4 3f
       -0.32028714 0.4860803 0.20196274 1.5331539
0002e0 61 41 35 3f 96 b2 08 3e 19 8e 6c 3f 03 17 9a bf
       0.70802885 0.13349375 0.92404324 -1.2038273
0002f0 62 94 d0 3d 65 84 55 be 02 ad 5d bd a4 a5 2b c0
       0.10184552 -0.20851286 -0.05412007 -2.681985
000300 68 b3 8e 3f ab 86 16 40 44 db 2c c0 be d5 d6 3e
       1.11485 2.3519695 -2.700883 0.41959947
000310 b7 45 af bf a5 ec 39 be f0 44 f5 bf 4e e2 da 3d
       -1.369315 -0.18156679 -1.9161663 0.106876954
000320 c2 75 a2 3f 57 18 07 3f 99 be 0c bf 6d 2a 40 3f
       1.2692187 0.52771515 -0.5497833 0.75064737
000330 54 5a 27 3e cf 3d 95 bf 1b a7 56 3f ec b0 e3 3e
       0.16343051 -1.1659487 0.8384873 0.44470918
000340 60 d4 04 bf 23 3a 0b 3e c9 4c b3 3f 71 fe 93 3f
       -0.5188656 0.13596396 1.4007808 1.1562024
000350 27 a7 4f 40 c1 8e cc 3e 79 13 04 3f 32 2e a4 bf
       3.2445772 0.39952663 0.5159221 -1.2826598
000360 0c 3a e0 3e 63 16 85 bc c1 c6 5f 3e d4 8a 78 3f
       0.43794286 -0.016246026 0.21853162 0.97086835
000370 50 98 a0 bf 38 b2 b3 3f be fb b1 3d b2 95 be bf
       -1.2546482 1.4038763 0.08690594 -1.4889433
000380 df cc 4a bf 63 72 3c 3e f6 82 6a 3e 1d 6e a4 3e
       -0.7921886 0.1840301 0.2290152 0.3211526
000390 8f 3e 6d 3f 39 ce fa 3f 5e 8c 17 bf d5 27 6d bf
       0.9267358 1.9594184 -0.5919856 -0.92638904
0003a0 d2 34 1e be 55 b8 42 3f 1b 17 92 bf 7d ab f3 3e
       -0.15449837 0.7606252 -1.1413301 0.47591773
0003b0 d2 e3 ba bf 7f b8 31 bf eb 11 af 3d 68 ac 04 3f
       -1.4600775 -0.69422144 0.085483395 0.5182557
0003c0 33 cd 50 3f 06 f9 d2 bd 1b 73 d6 bf b3 5b e5 bf
       0.8156311 -0.10301404 -1.6753877 -1.7918609
0003d0 0f 69 9f bf 2c e2 b5 3e a2 6b a0 3e 1b e2 a4 bf
       -1.2453936 0.35524118 0.31332117 -1.2881502
0003e0 21 1e d3 3e 43 35 40 3e 78 f7 c4 3e 7e a2 30 bf
       0.41233924 0.18770318 0.38470054 -0.68997943
0003f0 27 07 b1 3e 9e 3b 8c 3f 02 ea 37 bf b4 6c a7 be
       0.3457577 1.0955694 -0.7184144 -0.3270012

input_proj.output_mask f4 [64]
000000 00 00 80 3f 00 00 80 3f 00 00 80 3f 00 00 80 3f
       1.0 1.0 1.0 1.0
000010 00 00 80 3f 00 00 80 3f 00 00 80 3f 00 00 80 3f
       1.0 1.0 1.0 1.0
000020 00 00 80 3f 00 00 80 3f 00 00 80 3f 00 00 80 3f
       1.0 1.0 1.0 1.0
000030 00 00 80 3f 00 00 80 3f 00 00 80 3f 00 00 80 3f
       1.0 1.0 1.0 1.0
000040 00 00 00 00 00 00 00 00 00 00 00 00 00 00 00 00
       0.0 0.0 0.0 0.0
000050 00 00 00 00 00 00 00 00 00 00 00 00 00 00 00 00
       0.0 0.0 0.0 0.0
000060 00 00 00 00 00 00 00 00 00 00 00 00 00 00 00 00
       0.0 0.0 0.0 0.0
000070 00 00 00 00 00 00 00 00 00 00 00 00 00 00 00 00
       0.0 0.0 0.0 0.0
000080 00 00 00 00 00 00 00 00 00 00 00 00 00 00 00 00
       0.0 0.0 0.0 0.0
000090 00 00 00 00 00 00 00 00 00 00 00 00 00 00 00 00
       0.0 0.0 0.0 0.0
0000a0 00 00 00 00 00 00 00 00 00 00 00 00 00 00 00 00
       0.0 0.0 0.0 0.0
0000b0 00 00 00 00 00 00 00 00 00 00 00 00 00 00 00 00
       0.0 0.0 0.0 0.0
0000c0 00 00 00 00 00 00 00 00 00 00 00 00 00 00 00 00
       0.0 0.0 0.0 0.0
0000d0 00 00 00 00 00 00 00 00 00 00 00 00 00 00 00 00
       0.0 0.0 0.0 0.0
0000e0 00 00 00 00 00 00 00 00 00 00 00 00 00 00 00 00
       0.0 0.0 0.0 0.0
0000f0 00 00 00 00 00 00 00 00 00 00 00 00 00 00 00 00
       0.0 0.0 0.0 0.0

layers.0.0.weight f4 [24576]
000000 62 2e fc be 9a 8d 8a bf 6d b5 5e bf 47 f1 88 bf
       -0.49254137 -1.0824463 -0.86995584 -1.0698632
000010 2b fc 26 be 48 1f 82 be b0 c3 4e 3f 79 00 97 be
       -0.16307132 -0.2541449 0.80767345 -0.29492548
000020 0b 89 46 3e f6 34 55 bf bd 8a 24 c0 2b 59 99 bf
       0.19388215 -0.83283937 -2.570968 -1.1980337
000030 bc 75 62 c0 c3 72 1f c0 90 50 0b c0 3f 3f fa be
       -3.538436 -2.4913795 -2.1767921 -0.48876378
000040 79 99 ea 3f cf c2 90 3f f0 b5 1b be 7e ac c1 3f
       1.8328086 1.1309451 -0.15206122 1.5130765
000050 6b cc 09 3f aa cb f6 bf d2 ec 37 3a 06 14 72 3f
       0.5382754 -1.9280903 0.0007016185 0.94561803
000060 27 5d 05 3f 4b c8 e8 3f 84 b5 0a 40 dc 57 02 bf
       0.52095264 1.8186125 2.1673288 -0.5091531
000070 c7 87 cb be 06 09 9d bf 6c 84 99 bf a9 f2 d3 3f
       -0.39752027 -1.2268379 -1.1993537 1.6558429
000080 cf 71 bb 3f 6f db f8 3e b6 e6 26 bf 17 55 3f 3f
       1.4644107 0.48604915 -0.65195787 0.7473921
000090 5a 2e 27 3f d4 21 10 bf 27 fe 6f bf 55 39 a3 be
       0.653051 -0.5630162 -0.9374718 -0.31879678
0000a0 be 87 42 be 3b 40 9c 3e f0 ee 13 bf 01 72 1c 3f
       -0.18997094 0.30517754 -0.57786465 0.61111456
0000b0 ce d6 8c bf 41 5a 39 bf 9a 7c 19 bf 65 30 87 3f
       -1.1003053 -0.7240334 -0.5995575 1.0561644
0000c0 8d 68 41 3f 2f f8 b8 3f 2c d4 3d bf a0 10 08 3d
       0.75550157 1.445074 -0.74151874 0.03321898
0000d0 6e d2 8a bf 25 b6 bd bf fe b8 fa 3e 68 7a 2c 3f
       -1.0845468 -1.4821211 0.48969263 0.6737428
0000e0 97 fd a3 be 88 50 2b 3e bd 71 09 3f f3 9e 27 bf
       -0.3202941 0.16729939 0.53689176 -0.6547691
0000f0 a2 3f 5f bf 8e 6e 4d 3f 77 3e 02 bd 44 14 8b bf
       -0.8720647 0.8024682 -0.031797852 -1.086556
000100 64 ef 79 bf a6 6d 1b be e5 a7 31 bf ce ba 9b 3e
       -0.97630906 -0.15178546 -0.6939681 0.30415958
000110 3d b0 8b 3f 38 b5 d5 bf 91 c6 b5 bf b5 3b a3 3f
       1.0913159 -1.6695929 -1.4201223 1.2752596
000120 fc 5e 11 bf 37 57 2f be 8d d8 8a 3e d5 f9 ec bf
       -0.5678556 -0.17123114 0.2711834 -1.8513743
000130 55 64 94 3d 18 c7 85 bf 5b ff 48 be da 2e 8f 3f
       0.07245699 -1.0451384 -0.1962866 1.1186173
000140 69 48 b2 3f 12 98 00 be a0 c3 c4 bd fe 70 58 3f
       1.3928348 -0.1255801 -0.09607625 0.8454741
000150 85 73 a1 bf 02 92 b4 bf a1 43 2d 3f 09 78 01 40
       -1.2613379 -1.4107058 0.6768132 2.0229514
000160 3b 95 06 3f 54 cd 08 3f 8d db 50 3e 79 32 24 bf
       0.5257146 0.53438306 0.20396252 -0.64139515
000170 e0 1e 33 c0 88 10 69 bf 18 a3 ef bd 59 37 e1 3f
       -2.7987595 -0.9104085 -0.117010295 1.7595016
000180 7f 7a f5 be a4 1c 35 bf 93 76 b2 be eb 0b e8 bf
       -0.4794502 -0.7074683 -0.3485609 -1.8128637
000190 37 e6 c7 bf 35 dc 58 c0 ef 77 1d bf d9 70 b6 be
       -1.5617131 -3.3884404 -0.6151113 -0.3563297
0001a0 2c 55 43 bd 46 aa 31 c0 3c b8 97 3f 43 3d 07 40
       -0.047688648 -2.7760177 1.1853099 2.113114
0001b0 9a 71 47 40 e3 b3 0f 40 e6 7c 1f be 4d dd b1 bf
       3.1163087 2.2453544 -0.15574989 -1.3895661
0001c0 40 bd b7 3e 06 3b ca be e9 7c c7 be 8a 1d de bd
       0.35886574 -0.39498156 -0.38962486 -0.10845478
0001d0 fa 64 ba bf e1 77 4d bf 90 4a b1 3c 09 a1 97 3f
       -1.4562066 -0.80261046 0.021642 1.1846019
0001e0 1b 32 17 be 57 ce 0f 3f 6a 45 72 3e 42 07 35 40
       -0.14765207 0.56174225 0.23659292 2.828568
0001f0 63 2d a6 3f ba fb 4c 3f 0e a7 8d 3e 60 77 52 3f
       1.2982601 0.80071604 0.27666515 0.822134
000200 4e b0 b7 bf b5 15 3a 3e 2b 67 8c bd f2 a5 60 be
       -1.4350679 0.18172343 -0.06855615 -0.21938303
000210 84 1f 3d 3f ec ec db bf 76 df 40 3e 5f c0 62 3e
       0.73876214 -1.7181678 0.18835244 0.22143696
000220 57 6f 40 3f a2 2d be bf c1 af e6 3f cf 2b 65 3e
       0.7516989 -1.4857676 1.8022386 0.22379993
000230 87 6c 31 bf c1 2b 93 bf 4e 13 80 be b4 2d 0c 3e
       -0.69306225 -1.1497728 -0.25014728 0.1368931
000240 5e 51 05 40 e5 ab a2 3f 42 ff c9 3e 88 7b aa bd
       2.0830913 1.2708708 0.3945256 -0.08324343
000250 e9 b5 89 3e 3d af 03 3e 7f db c0 3d ac 55 eb 3f
       0.268966 0.12859817 0.094168656 1.838552
000260 72 d7 e5 be 38 a9 5d bf 23 6f f3 bd 02 04 3d bf
       -0.44890934 -0.8658633 -0.11886432 -0.7383424
000270 75 31 72 bf 43 b5 ae bf de 25 56 3e 59 d5 97 3f
       -0.94606715 -1.3649067 0.20912883 1.1861984
000280 2b 61 40 bf f9 0b 5b 3f b3 d3 ec bc 39 aa d4 bf
       -0.75148267 0.85565144 -0.02890954 -1.6614448
000290 4e fc 26 bf da 2c 86 bb e1 3f 1a bf f4 e9 73 3e
       -0.65228736 -0.004094702 -0.6025372 0.23819715
0002a0 3f 41 b7 3f 08 6a d3 bf 5c 7f 31 bf 04 a8 88 3f
       1.4316787 -1.6516733 -0.6933496 1.0676274
0002b0 26 b6 53 3f 54 ee c3 3f 39 9e da 3e d7 1c c7 bf
       0.8269981 1.5307107 0.4269884 -1.5555676
0002c0 d2 42 fb be 9c 9e 48 3f f9 87 a8 3f 01 06 df bf
       -0.49074417 0.7836702 1.3166496 -1.7423707
0002d0 21 20 ee bf 4e 0f c3 bf 7e e7 15 40 f6 99 f8 bd
       -1.8603555 -1.5239046 2.3422542 -0.12138741
0002e0 a2 24 8a bf 53 58 8c 3f 2b 26 57 be 06 bb 96 bf
       -1.079243 1.0964454 -0.21010654 -1.1775825
0002f0 67 f4 a5 bf c0 86 0b 3e 8a 16 b7 bf 00 c6 af bc
       -1.2965211 0.13625622 -1.4303753 -0.021456718
000300 2c 79 02 40 62 7f 2b 3e 51 41 f7 be 16 a8 21 be
       2.0386457 0.16747811 -0.4829202 -0.15786776
000310 19 07 c8 bf 3c 48 d2 3f 95 19 8a 3f e0 62 22 3f
       -1.5627166 1.6428294 1.0789057 0.6343212
000320 c3 81 0b 3f 14 8e f5 3e 54 30 89 bf 3c 38 9a 3e
       0.54494876 0.4795996 -1.0717874 0.30121028
000330 c5 a5 b0 bf a7 d0 94 3f 2b f7 96 be 65 fa 58 be
       -1.3800589 1.1626176 -0.2948545 -0.21189268
000340 13 48 12 3f 8c 55 8e 3e 66 d2 cc 3f b7 46 fc 3f
       0.57141227 0.27799642 1.6001709 1.970908
000350 58 6f c9 3f 29 9a 4e be c7 b4 89 be 08 a9 28 bf
       1.5737104 -0.20175995 -0.26895735 -0.6588292
000360 e8 16 06 c0 9e c7 89 3f d4 d2 04 40 51 97 99 bd
       -2.095148 1.0764043 2.075368 -0.074995644
000370 40 4e 87 bf c9 72 c9 bf 43 9f 1a 3f b7 40 9d bc
       -1.0570755 -1.5738155 0.60399264 -0.019195898
000380 81 8c 49 3e 70 93 e1 3f 22 cd 98 3e f1 f4 8e 3f
       0.19682504 1.7623119 0.29844004 1.11685
000390 7e cb a0 3e 5d 06 0b 3f f2 88 3c 3e d6 37 72 3f
       0.31405252 0.54306585 0.18411615 0.9461645
0003a0 d7 c3 22 be bc c7 98 bf 49 41 d9 3e cf 27 13 c0
       -0.1589502 -1.1935954 0.4243262 -2.2993047
0003b0 04 e1 81 be ed 9c 4c bd 21 bc 76 3f 1a 6c c0 3d
       -0.25366986 -0.049954344 0.9638081 0.09395619
0003c0 5f 43 1c bf 46 3f 7f bf 52 c0 6c be 4f f4 d5 3d
       -0.610403 -0.9970592 -0.2312024 0.10446989
0003d0 72 aa b2 3f 04 32 54 3f f2 7d 1e 3f 38 3d f8 be
       1.3958266 0.8288882 0.6191093 -0.48484206
0003e0 37 85 28 3e 6f 68 86 bf df 83 bc bd ea 9c 40 3e
       0.16457067 -1.0500621 -0.0920484 0.18809858
0003f0 54 19 3f c0 6d 97 bd bd 1b 16 d3 3e 15 36 59 bf
       -2.985921 -0.09257398 0.41227803 -0.8484815

layers.0.0.output_mask f4 [80]
000000 00 00 80 3f 00 00 80 3f 00 00 80 3f 00 00 80 3f
       1.0 1.0 1.0 1.0
000010 00 00 80 3f 00 00 80 3f 00 00 80 3f 00 00 80 3f
       1.0 1.0 1.0 1.0
000020 00 00 80 3f 00 00 80 3f 00 00 80 3f 00 00 80 3f
       1.0 1.0 1.0 1.0
000030 00 00 80 3f 00 00 80 3f 00 00 80 3f 00 00 80 3f
       1.0 1.0 1.0 1.0
000040 00 00 80 3f 00 00 80 3f 00 00 80 3f 00 00 80 3f
       1.0 1.0 1.0 1.0
000050 00 00 80 3f 00 00 80 3f 00 00 80 3f 00 00 80 3f
       1.0 1.0 1.0 1.0
000060 00 00 80 3f 00 00 80 3f 00 00 80 3f 00 00 80 3f
       1.0 1.0 1.0 1.0
000070 00 00 80 3f 00 00 80 3f 00 00 80 3f 00 00 80 3f
       1.0 1.0 1.0 1.0
000080 00 00 80 3f 00 00 80 3f 00 00 80 3f 00 00 80 3f
       1.0 1.0 1.0 1.0
000090 00 00 80 3f 00 00 80 3f 00 00 80 3f 00 00 80 3f
       1.0 1.0 1.0 1.0
0000a0 00 00 80 3f 00 00 80 3f 00 00 80 3f 00 00 80 3f
       1.0 1.0 1.0 1.0
0000b0 00 00 80 3f 00 00 80 3f 00 00 80 3f 00 00 80 3f
       1.0 1.0 1.0 1.0
0000c0 00 00 80 3f 00 00 80 3f 00 00 80 3f 00 00 80 3f
       1.0 1.0 1.0 1.0
0000d0 00 00 80 3f 00 00 80 3f 00 00 80 3f 00 00 80 3f
       1.0 1.0 1.0 1.0
0000e0 00 00 80 3f 00 00 80 3f 00 00 80 3f 00 00 80 3f
       1.0 1.0 1.0 1.0
0000f0 00 00 80 3f 00 00 80 3f 00 00 80 3f 00 00 80 3f
       1.0 1.0 1.0 1.0
000100 00 00 80 3f 00 00 80 3f 00 00 80 3f 00 00 80 3f
       1.0 1.0 1.0 1.0
000110 00 00 80 3f 00 00 80 3f 00 00 80 3f 00 00 80 3f
       1.0 1.0 1.0 1.0
000120 00 00 80 3f 00 00 80 3f 00 00 80 3f 00 00 80 3f
       1.0 1.0 1.0 1.0
000130 00 00 80 3f 00 00 80 3f 00 00 80 3f 00 00 80 3f
       1.0 1.0 1.0 1.0

layers.0.1.mul.output_mask f4 [48]
000000 00 00 80 3f 00 00 80 3f 00 00 80 3f 00 00 80 3f
       1.0 1.0 1.0 1.0
000010 00 00 80 3f 00 00 80 3f 00 00 80 3f 00 00 80 3f
       1.0 1.0 1.0 1.0
000020 00 00 80 3f 00 00 80 3f 00 00 80 3f 00 00 80 3f
       1.0 1.0 1.0 1.0
000030 00 00 80 3f 00 00 80 3f 00 00 80 3f 00 00 80 3f
       1.0 1.0 1.0 1.0
000040 00 00 80 3f 00 00 80 3f 00 00 80 3f 00 00 80 3f
       1.0 1.0 1.0 1.0
000050 00 00 80 3f 00 00 80 3f 00 00 80 3f 00 00 80 3f
       1.0 1.0 1.0 1.0
000060 00 00 80 3f 00 00 80 3f 00 00 80 3f 00 00 80 3f
       1.0 1.0 1.0 1.0
000070 00 00 80 3f 00 00 80 3f 00 00 80 3f 00 00 80 3f
       1.0 1.0 1.0 1.0
000080 00 00 80 3f 00 00 80 3f 00 00 80 3f 00 00 80 3f
       1.0 1.0 1.0 1.0
000090 00 00 80 3f 00 00 80 3f 00 00 80 3f 00 00 80 3f
       1.0 1.0 1.0 1.0
0000a0 00 00 80 3f 00 00 80 3f 00 00 80 3f 00 00 80 3f
       1.0 1.0 1.0 1.0
0000b0 00 00 80 3f 00 00 80 3f 00 00 80 3f 00 00 80 3f
       1.0 1.0 1.0 1.0

layers.1.0.weight f4 [24576]
000000 4c 37 64 bf 6b 1b 31 3e 28 0d 01 40 d1 b6 74 bf
       -0.89146876 0.17295615 2.016428 -0.95591456
000010 ca 62 2f 3d 29 37 12 bf 8a e4 29 3f f4 3d 1c c0
       0.042818822 -0.5711542 0.6636435 -2.4412813
000020 90 5f 15 bf 4e 49 85 3e 19 05 62 be d9 eb ac bf
       -0.5834894 0.2603249 -0.22072257 -1.3509475
000030 bb 49 6c bf 22 aa 59 bf a4 24 52 3f 5e 08 9f 3e
       -0.92300004 -0.8502523 0.8208716 0.3106107
000040 b0 96 b2 bf 27 fb 81 3f cb 67 f6 3f 40 05 34 3f
       -1.3952236 1.0154771 1.9250425 0.7032051
000050 2f d1 1d bf 39 cd 40 3f dc b5 e5 3e 0d 9a 7f bf
       -0.61647314 0.75313145 0.4486531 -0.9984444
000060 cb c7 ab bf 02 db 18 3e 1d ab d2 bf 76 0d 42 bf
       -1.3420347 0.14927295 -1.645847 -0.7580179
000070 c2 60 42 3f c5 2c ca be 23 7f b0 bf 3e 0a 99 bf
       0.7592889 -0.3948728 -1.3788799 -1.1956251
000080 af c3 81 bf 4b 1f 20 3e c3 6c 4a 3e 2b 8b 52 bd
       -1.0137843 0.15636937 0.19768052 -0.051402252
000090 c5 f5 29 3f da 56 96 be 10 ee 65 bf dc 60 96 bf
       0.6639064 -0.29363137 -0.8981638 -1.1748309
0000a0 71 16 f3 be 7b 95 f3 3f 1a 91 ce be 1e 61 7a c0
       -0.4747806 1.9029993 -0.4034508 -3.9121776
0000b0 a7 eb e1 3e 9e b0 25 3f e2 5d 38 3f 00 93 8e 3f
       0.441251 0.6472262 0.72018254 1.1138611
0000c0 62 82 5f 3f c0 ab 37 bf 94 25 19 3f 7f 81 97 3f
       0.87308323 -0.71746445 0.59822965 1.1836394
0000d0 9a 12 a1 bf a7 99 c3 be f6 1f cb bf 84 76 47 3f
       -1.2583802 -0.38203165 -1.5869129 0.77915215
0000e0 3e cb ac 3e 7f 8b 1e be 7a 3b b1 3e 6e 20 be 3f
       0.3374881 -0.15482901 0.3461569 1.4853647
0000f0 62 92 ae bf 3a 6c 2a 3e 8d 26 76 be 85 77 ea bf
       -1.3638422 0.16642848 -0.24038143 -1.8317724
000100 42 eb 73 3f 68 8d 8e bf f1 c7 ea 3f 50 bc 39 3e
       0.9528085 -1.1136904 1.8342267 0.18138242
000110 17 51 6c bf a7 62 88 3f a5 bd 13 3d 70 53 5f 3f
       -0.92311233 1.0655106 0.03606953 0.8723669
000120 22 51 a1 bd e8 dd 48 bf 2b 7f 14 3f 13 5b f7 3f
       -0.07876803 -0.784636 0.5800654 1.9324669
000130 e8 2d 97 bf 5b 2a 8d bf d8 1c c6 3f 64 73 79 3f
       -1.1810884 -1.1028551 1.5477552 0.974417
000140 fa 5a a4 3e ed 51 e9 bf a7 d6 3d 3e ff e0 27 3e
       0.3210066 -1.8228127 0.18538915 0.16394423
000150 91 ee 26 be 8c 6f 9f 3d eb 91 74 3f 3c ae 07 c0
       -0.16301943 0.07784948 0.95535153 -2.1200094
000160 ba d1 83 bb a9 e8 ae 3f 4f f0 13 3f 03 ef df 3f
       -0.004022804 1.3664752 0.57788557 1.7494816
000170 59 e2 21 3f 5d f7 87 be 6f f8 a7 bf e0 33 b7 be
       0.63236004 -0.2655591 -1.3122691 -0.35781765
000180 07 23 03 c0 fa f2 07 c0 ea 53 48 3e eb 24 d4 3e
       -2.049013 -2.124205 0.1956326 0.41434416
000190 08 5f 50 bd 15 5d d9 be c2 06 63 bf c4 13 f9 3e
       -0.05087188 -0.42453828 -0.88682187 0.48647892
0001a0 03 86 eb 3f f4 fd 39 40 dd 29 8f bf 76 c4 f0 bf
       1.8400272 2.906125 -1.1184651 -1.8809955
0001b0 d3 a1 51 3e 5a 78 bf bf 49 40 93 3f 5c 78 cc 3e
       0.20471887 -1.4958603 1.1503993 0.39935577
0001c0 bc 57 a4 3f 1d af a8 3d 2d 12 5d 40 87 53 2f bf
       1.2839274 0.08236525 3.4542344 -0.6848683
0001d0 5f a6 fd bf 40 c6 0b c0 dc 84 d5 bf a5 9c 95 be
       -1.9816397 -2.1839752 -1.668117 -0.29221073
0001e0 24 5d a8 3d 67 b1 12 c0 a8 18 bd bf 3c 66 13 c0
       0.0822089 -2.2920778 -1.477315 -2.303115
0001f0 00 4f e8 bf 15 29 a1 bf 59 1a c6 bf 25 c5 4c c0
       -1.8149109 -1.2590662 -1.5476791 -3.1995327
000200 88 ab 3c 3e 31 48 ce 3f 56 bd b9 3e e2 e6 02 bf
       0.18424809 1.6115781 0.36277264 -0.5113355
000210 48 3f fe bf a7 05 33 be cb bc f7 3f 06 a1 cd be
       -1.9863062 -0.17482625 1.935449 -0.40161914
000220 c5 70 49 bf a5 83 ea 3e f2 80 cb 3e de 0a b6 3f
       -0.786877 0.45803562 0.39746815 1.4222066
000230 a0 4d 54 3f ca 34 2f 3f 0d ba 00 40 b7 90 86 3a
       0.82930946 0.68439925 2.0113556 0.0010266517
000240 10 fc cf bd d9 6c f9 3f fd fc 3d c0 b4 93 99 3f
       -0.10155499 1.9486343 -2.9685662 1.19982
000250 13 e7 b1 bf e3 f4 41 bf a5 35 05 c0 eb 38 a0 3f
       -1.3898643 -0.7576429 -2.0813992 1.251737
000260 0f 60 0f 3f 3e 23 e8 bf 7a 18 54 3f d6 11 f0 bf
       0.5600595 -1.8135755 0.8284985 -1.8755443
000270 c4 23 8e 3f 08 14 04 bf 1e 87 e8 3d ad 15 e5 bf
       1.1104665 -0.51593065 0.113538966 -1.789724
000280 9c e3 76 3f 1b e4 62 3e 62 91 0e 40 83 5a 63 3f
       0.96441054 0.22157328 2.2276235 0.88809985
000290 01 b5 07 40 93 50 b1 3f 1f 94 25 bf d0 71 75 bf
       2.1204226 1.3852714 -0.6467914 -0.9587679
0002a0 f7 ec cc 3e 29 cd 72 3f 0e 56 be 3e 95 81 41 be
       0.4002454 0.948443 0.3717503 -0.18897088
0002b0 80 b5 12 bf b3 37 cc bf 30 53 10 3f 46 3b 21 40
       -0.573082 -1.5954498 0.56376934 2.5192428
0002c0 28 19 ca be 6e 71 62 c0 48 88 20 c0 92 34 25 3f
       -0.39472318 -3.5381732 -2.508318 0.6453334
0002d0 7f e8 1c 3f 8e 2f ee be 67 73 8f c0 55 95 de be
       0.6129226 -0.46520656 -4.482837 -0.43473306
0002e0 ff f5 f5 bd 19 2a f8 3f 20 73 27 40 ac 09 42 3f
       -0.12009811 1.9387847 2.6164017 0.7579601
0002f0 bb 19 32 3f b4 8b d8 3f 12 d3 29 bf f7 7c 1f 3e
       0.6957051 1.6917634 -0.6633769 0.15575014
000300 18 1f b7 3e 74 b9 bb bd 66 f4 22 40 3f e5 d2 be
       0.3576591 -0.09166232 2.546167 -0.41190526
000310 2e 9f 1e c0 e3 65 0e bf 12 77 40 bf e6 26 6c bf
       -2.4784656 -0.55624217 -0.75181687 -0.92246854
000320 15 5d 90 bf c0 cc ce bf 0d 8d 9e 3f ae b1 4d 3f
       -1.1278406 -1.6156235 1.2386795 0.8034924
000330 7c 23 eb be 65 86 e1 3e 62 66 4a 3f d6 f4 04 3f
       -0.4592551 0.44047847 0.79062474 0.5193609
000340 3c b4 75 bf cd f3 00 40 16 c9 51 bf ca 46 e2 bd
       -0.9597814 2.0148804 -0.8194746 -0.11048658
000350 78 14 28 c0 2c 40 a4 3e 2a ff 13 3e f4 67 5a bf
       -2.6262493 0.3208021 0.14452806 -0.8531487
000360 2e ba 48 bf b8 df a1 3e da 68 da 3f 8a 0c ae 3e
       -0.7840909 0.31615996 1.7063248 0.33993942
000370 a2 ae 22 3e bf a7 c5 3d 0c 98 b8 3e d8 1a 52 3f
       0.1588693 0.09651136 0.36053503 0.8207221
000380 2e 09 d4 3f 8c 05 59 bc 69 e3 fe 3f 5b 87 f0 be
       1.6565301 -0.013245951 1.991315 -0.46978268
000390 34 97 78 be 36 b4 2b bf 04 fe 21 c0 b5 35 56 3f
       -0.2427643 -0.67071855 -2.531129 0.836757
0003a0 7c cf 3d 3f c5 6a c4 3f 09 b9 c6 3f c4 77 50 3f
       0.7414472 1.5345083 1.5525218 0.8143275
0003b0 3e 31 e0 3f 9c 34 bf bf 1f 2c 96 bf c9 82 70 bf
       1.7515028 -1.493793 -1.1732215 -0.9394956
0003c0 93 d1 2d 3f 52 f3 68 bf 98 40 09 3f 8d 03 81 3f
       0.6789791 -0.9099628 0.5361419 1.0079209
0003d0 41 92 05 c0 b6 05 e7 3e 1a 93 a5 3e 06 3c 57 bf
       -2.0870516 0.45121545 0.32338792 -0.84075963
0003e0 d3 71 20 be ee 46 7d bf c4 af 82 bf 3c 7d e3 bf
       -0.1566842 -0.98936355 -1.020989 -1.7772593
0003f0 c7 89 b0 3f 7c 8e d0 3e a9 35 10 c0 5f e5 18 c0
       1.3792046 0.40733707 -2.2532752 -2.3889997

layers.1.0.output_mask f4 [80]
000000 00 00 80 3f 00 00 80 3f 00 00 80 3f 00 00 80 3f
       1.0 1.0 1.0 1.0
000010 00 00 80 3f 00 00 80 3f 00 00 80 3f 00 00 80 3f
       1.0 1.0 1.0 1.0
000020 00 00 80 3f 00 00 80 3f 00 00 80 3f 00 00 80 3f
       1.0 1.0 1.0 1.0
000030 00 00 80 3f 00 00 80 3f 00 00 80 3f 00 00 80 3f
       1.0 1.0 1.0 1.0
000040 00 00 80 3f 00 00 80 3f 00 00 80 3f 00 00 80 3f
       1.0 1.0 1.0 1.0
000050 00 00 80 3f 00 00 80 3f 00 00 80 3f 00 00 80 3f
       1.0 1.0 1.0 1.0
000060 00 00 80 3f 00 00 80 3f 00 00 80 3f 00 00 80 3f
       1.0 1.0 1.0 1.0
000070 00 00 80 3f 00 00 80 3f 00 00 80 3f 00 00 80 3f
       1.0 1.0 1.0 1.0
000080 00 00 80 3f 00 00 80 3f 00 00 80 3f 00 00 80 3f
       1.0 1.0 1.0 1.0
000090 00 00 80 3f 00 00 80 3f 00 00 80 3f 00 00 80 3f
       1.0 1.0 1.0 1.0
0000a0 00 00 80 3f 00 00 80 3f 00 00 80 3f 00 00 80 3f
       1.0 1.0 1.0 1.0
0000b0 00 00 80 3f 00 00 80 3f 00 00 80 3f 00 00 80 3f
       1.0 1.0 1.0 1.0
0000c0 00 00 80 3f 00 00 80 3f 00 00 80 3f 00 00 80 3f
       1.0 1.0 1.0 1.0
0000d0 00 00 80 3f 00 00 80 3f 00 00 80 3f 00 00 80 3f
       1.0 1.0 1.0 1.0
0000e0 00 00 80 3f 00 00 80 3f 00 00 80 3f 00 00 80 3f
       1.0 1.0 1.0 1.0
0000f0 00 00 80 3f 00 00 80 3f 00 00 80 3f 00 00 80 3f
       1.0 1.0 1.0 1.0
000100 00 00 80 3f 00 00 80 3f 00 00 80 3f 00 00 80 3f
       1.0 1.0 1.0 1.0
000110 00 00 80 3f 00 00 80 3f 00 00 80 3f 00 00 80 3f
       1.0 1.0 1.0 1.0
000120 00 00 80 3f 00 00 80 3f 00 00 80 3f 00 00 80 3f
       1.0 1.0 1.0 1.0
000130 00 00 80 3f 00 00 80 3f 00 00 80 3f 00 00 80 3f
       1.0 1.0 1.0 1.0

layers.1.1.mul.output_mask f4 [48]
000000 00 00 80 3f 00 00 80 3f 00 00 80 3f 00 00 80 3f
       1.0 1.0 1.0 1.0
000010 00 00 80 3f 00 00 80 3f 00 00 80 3f 00 00 80 3f
       1.0 1.0 1.0 1.0
000020 00 00 80 3f 00 00 80 3f 00 00 80 3f 00 00 80 3f
       1.0 1.0 1.0 1.0
000030 00 00 80 3f 00 00 80 3f 00 00 80 3f 00 00 80 3f
       1.0 1.0 1.0 1.0
000040 00 00 80 3f 00 00 80 3f 00 00 80 3f 00 00 80 3f
       1.0 1.0 1.0 1.0
000050 00 00 80 3f 00 00 80 3f 00 00 80 3f 00 00 80 3f
       1.0 1.0 1.0 1.0
000060 00 00 80 3f 00 00 80 3f 00 00 80 3f 00 00 80 3f
       1.0 1.0 1.0 1.0
000070 00 00 80 3f 00 00 80 3f 00 00 80 3f 00 00 80 3f
       1.0 1.0 1.0 1.0
000080 00 00 80 3f 00 00 80 3f 00 00 80 3f 00 00 80 3f
       1.0 1.0 1.0 1.0
000090 00 00 80 3f 00 00 80 3f 00 00 80 3f 00 00 80 3f
       1.0 1.0 1.0 1.0
0000a0 00 00 80 3f 00 00 80 3f 00 00 80 3f 00 00 80 3f
       1.0 1.0 1.0 1.0
0000b0 00 00 80 3f 00 00 80 3f 00 00 80 3f 00 00 80 3f
       1.0 1.0 1.0 1.0

layers.2.0.weight f4 [24576]
000000 74 c5 06 bf e6 3f d4 be 77 99 5b bf 81 1b 17 b9
       -0.5264504 -0.41455 -0.85781044 -0.00014410728
000010 48 2a 07 3e 3f cb 8f 3e 4e 91 d0 bf ae b3 3b bf
       0.13199723 0.28084752 -1.6294343 -0.73321044
000020 69 24 d6 3c 82 42 3a be b0 4d ea bf 87 64 3f bf
       0.026140409 -0.18189433 -1.8304958 -0.7476277
000030 44 11 0a c0 fe 69 1f bd 44 83 14 c0 9a af 5b be
       -2.1573038 -0.03891944 -2.3205118 -0.21453705
000040 41 1a b0 be cb e3 b0 be 13 d3 94 3f 03 f5 08 c0
       -0.3439503 -0.34548792 1.1626915 -2.1399543
000050 fb 34 f1 3f 41 9b 50 3e a9 ab d0 bf 6a 49 f1 3e
       1.8844293 0.20371725 -1.6302387 0.47126323
000060 8e d4 d0 3e 71 97 c6 bf 8e c8 7d be f5 cd 2a 3f
       0.40787166 -1.5514966 -0.24783537 0.66720515
000070 d4 48 e3 bf c7 61 26 40 a7 b7 bc bf 11 30 ae bd
       -1.77566 2.5997179 -1.4743546 -0.08505262
000080 d7 1f 39 be a6 c1 f1 3e e9 87 25 c0 5e be 90 3f
       -0.18078552 0.47218055 -2.5864203 1.1308095
000090 ab 96 ad bd 9b 27 f3 3f ca 50 d0 3f 4f ef 73 3f
       -0.08476003 1.8996462 1.6274655 0.9528703
0000a0 74 ef a3 bf 66 fe b5 be 68 06 99 bf f6 74 17 40
       -1.280745 -0.35545653 -1.195508 2.3665137
0000b0 db c0 01 c0 20 6a a8 3e 76 ab 81 bf c5 ad 02 bf
       -2.027396 0.32893467 -1.0130451 -0.510464
0000c0 65 d8 2f c0 d1 e8 8e bf 16 8e e4 3e 8b b5 70 c0
       -2.7475827 -1.11648 0.44639653 -3.7610805
0000d0 5a b5 85 3f eb 9e 99 3e e4 f0 fc bf 2e be a9 bf
       1.0445969 0.30004057 -1.9761014 -1.3261163
0000e0 17 d9 82 3e 91 27 c2 bf b7 8b a9 be 4b 31 1b 3f
       0.2555625 -1.5168325 -0.33114406 0.6062209
0000f0 78 7b 32 bf 93 da 2f 3d 80 96 7a bf fa 29 a4 bf
       -0.6971965 0.042933058 -0.97885895 -1.282531
000100 06 98 48 be 0d 76 7e 3f 50 ae b3 be a6 cd d5 bf
       -0.19589242 0.9939888 -0.35093927 -1.6703384
000110 e8 14 85 3f 1f da b2 3e 0f bd bd be 8e 4b d5 be
       1.0397005 0.34932038 -0.37058303 -0.41659206
000120 2d e9 07 40 b3 27 99 be ba 79 73 bf 38 c6 4c 3f
       2.123607 -0.299131 -0.95107615 0.7998996
000130 67 0b 25 be d9 00 07 c0 b6 0a 00 c0 8b 34 89 3f
       -0.16117631 -2.1094267 -2.0006537 1.071916
000140 9a ad fb be 5d 0d 15 3f a2 cd d4 3e 5e df b0 3f
       -0.49155885 0.58223516 0.41563135 1.3818166
000150 f2 e3 59 3e 63 86 06 3e 0d c8 38 3f 41 1a cb 3e
       0.2127836 0.13137202 0.72180253 0.39668468
000160 3a 53 86 3f 4c 0b 3f bd 4f 37 f0 3f 1a ef 9a 3f
       1.0494149 -0.046641633 1.8766879 1.2104218
000170 2a a3 2f 40 bd f5 21 bf df 66 25 bf ba aa a7 3f
       2.7443337 -0.6326559 -0.64610094 1.3098977
000180 ab 66 d4 bf ed 79 29 3f 76 04 0e 3f 8c a0 48 3f
       -1.6593832 0.6620167 0.55475557 0.78369975
000190 72 ee 3c bf 65 6e a0 3e 0b 09 bb 3f 08 e3 f7 bf
       -0.7380134 0.31334224 1.4612135 -1.936616
0001a0 c8 01 93 3d b1 2d 8d 3f fb f7 10 3f 76 91 de 3e
       0.07178074 1.1029569 0.5662839 0.43470353
0001b0 8c 60 95 3f 63 5e 4c 3f e3 58 b0 3f 6b 51 55 3f
       1.1670089 0.7983152 1.3777126 0.8332736
0001c0 b4 0f ba bf 91 46 95 be ba 43 de 3f ba 9b 50 3f
       -1.4536042 -0.291554 1.7364419 0.8148762
0001d0 86 1f 21 40 28 5f b6 be 42 43 a5 bc ce 55 0e 40
       2.517549 -0.35619473 -0.020173673 2.223987
0001e0 06 6f 98 bf 7e 81 e1 bc 2e ab 78 3f 9d 0a 2d 3f
       -1.1908882 -0.027527567 0.971362 0.6759432
0001f0 3c 73 f8 3f e6 c4 16 40 ac 92 de bf a2 81 54 3e
       1.9410167 2.3557677 -1.7388511 0.20752576
000200 16 62 fa be d4 fa 94 bf 7b 19 53 3f 77 36 54 bf
       -0.4890296 -1.1639047 0.82460755 -0.82895607
000210 72 6a 2f 40 65 85 50 3e 40 98 9d be 1b 19 2d 3e
       2.740872 0.20363386 -0.3078022 0.16904108
000220 80 17 a9 bf c7 89 07 be 9a f5 28 3e 71 9d 63 bf
       -1.3210297 -0.13236152 0.1649994 -0.8891211
000230 3f 39 5e 3f 37 66 64 3f 1f 61 fd bf e1 6f cd 3d
       0.868061 0.8921847 -1.9795264 0.10031105
000240 cc f6 69 bf 27 2e 05 bf a0 42 8a 3f 5b 70 0b bf
       -0.9139221 -0.5202355 1.0801582 -0.54468316
000250 89 3f e8 3f ea 2f 7c bf 54 dc 6a 3f 16 84 b8 bd
       1.8144389 -0.9851061 0.91742444 -0.090095684
000260 5b 18 1d 3f 29 d0 71 be c8 67 96 3e 2e 8b 4b be
       0.6136529 -0.23614563 0.29376054 -0.19877312
000270 a0 fa 4e bd c0 cf 8b 3f a6 72 0f c0 d9 57 cb 3d
       -0.050531983 1.0922775 -2.2413726 0.09928865
000280 22 b6 cf bf ef 34 ea bd b6 1f b5 3f 74 ea ec be
       -1.6227458 -0.114358775 1.4150302 -0.46272624
000290 00 0c ae be 04 6f 9f 3f 6b 98 67 3f 63 5f 9e 3f
       -0.3399353 1.2455754 0.90466946 1.237286
0002a0 60 88 0e bf 03 3f a8 bf 15 1e c4 3e 1f 32 8e bf
       -0.5567684 -1.314423 0.383042 -1.1109046
0002b0 45 dd 1d bf 3b bb cd 3f e9 ff ac bf 09 74 08 c0
       -0.61665756 1.6072763 -1.3515598 -2.1320822
0002c0 0b e6 c8 3d c5 a3 7d 3f f9 4b 33 bf 63 3c bc 3e
       0.09809502 0.9907802 -0.700378 0.3676482
0002d0 3f 09 e9 bd 7e 0a 91 3d ec 11 13 3f 53 63 d0 be
       -0.11378717 0.07082079 0.5744922 -0.40700778
0002e0 73 4f 4d bf d9 aa c6 3f c0 fa 54 bf 89 b2 85 3f
       -0.80199355 1.5520889 -0.83195114 1.044511
0002f0 80 8f 0c bf 65 6e 36 bf ae 66 2e 3e 57 fb 91 3f
       -0.54906464 -0.712622 0.17031357 1.1404828
000300 6a ff a1 be e3 03 e6 bf 74 9a 40 40 3f 2b 76 3f
       -0.31640178 -1.7969936 3.009427 0.9615974
000310 38 60 12 3f 0a 93 a3 3e c0 13 4a 3f 27 71 4d 40
       0.5717807 0.3194812 0.78936386 3.2100313
000320 62 d4 ac 3f e7 d8 d4 be a8 a9 40 bf 68 77 32 40
       1.3502314 -0.41571733 -0.75258875 2.788538
000330 d9 37 96 3e 09 50 d7 bc eb fe 4e 3e 2f 9c 8e 3f
       0.29339483 -0.02628328 0.20214431 1.1141413
000340 d1 7a ec bf db b0 9f bf 24 3c 44 3f 5d 32 de bf
       -1.847498 -1.2475847 0.7665427 -1.735912
000350 d5 b0 83 3f a3 6b 01 c0 a8 bb fb bf df 57 d0 bf
       1.028834 -2.0221946 -1.9666643 -1.6276816
000360 cf 67 c8 bf 08 e1 53 bf 58 28 78 3f 25 bc 13 40
       -1.565668 -0.82765245 0.9693656 2.3083584
000370 a2 8c 69 40 b7 67 5b be 3e a4 01 c0 74 5e f9 3f
       3.6492085 -0.21426283 -2.0256495 1.948195
000380 b9 e9 8d bf d4 e6 93 be 40 63 bc 3e f3 44 1f 40
       -1.1086951 -0.28887045 0.36794472 2.4885833
000390 86 9d ab bf 5c ec 9e be 5e 5b ea 3e 7c 57 10 3d
       -1.3407447 -0.31039703 0.45772833 0.03523968
0003a0 03 86 b3 bf 32 6d 9c 3f b3 2c 57 40 4e 76 f6 3d
       -1.4025272 1.2220824 3.3621032 0.120342836
0003b0 b0 9c d4 bf 65 2e 87 3d 1b cd 8e bf e5 f5 0f 40
       -1.6610317 0.06600646 -1.1156343 2.2493832
0003c0 a4 e3 b3 bf 07 d3 d1 bf e0 f5 4c bf 38 69 d1 be
       -1.4053845 -1.6392525 -0.80062675 -0.40900588
0003d0 8b 46 f1 3e 90 39 24 bf ac 78 68 bf b1 ef 88 3f
       0.47124133 -0.64150333 -0.9080913 1.0698148
0003e0 f8 c0 37 3f 86 8e 22 c0 d3 69 8f bd 9a 1a fd bf
       0.7177882 -2.539949 -0.07002606 -1.9773743
0003f0 37 a8 10 3f 27 cc 8a 3f 51 69 ca be c1 f9 66 3f
       0.56506675 1.0843552 -0.39533475 0.90224844

layers.2.0.output_mask f4 [80]
000000 00 00 80 3f 00 00 80 3f 00 00 80 3f 00 00 80 3f
       1.0 1.0 1.0 1.0
000010 00 00 80 3f 00 00 80 3f 00 00 80 3f 00 00 80 3f
       1.0 1.0 1.0 1.0
000020 00 00 80 3f 00 00 80 3f 00 00 80 3f 00 00 80 3f
       1.0 1.0 1.0 1.0
000030 00 00 80 3f 00 00 80 3f 00 00 80 3f 00 00 80 3f
       1.0 1.0 1.0 1.0
000040 00 00 80 3f 00 00 80 3f 00 00 80 3f 00 00 80 3f
       1.0 1.0 1.0 1.0
000050 00 00 80 3f 00 00 80 3f 00 00 80 3f 00 00 80 3f
       1.0 1.0 1.0 1.0
000060 00 00 80 3f 00 00 80 3f 00 00 80 3f 00 00 80 3f
       1.0 1.0 1.0 1.0
000070 00 00 80 3f 00 00 80 3f 00 00 80 3f 00 00 80 3f
       1.0 1.0 1.0 1.0
000080 00 00 80 3f 00 00 80 3f 00 00 80 3f 00 00 80 3f
       1.0 1.0 1.0 1.0
000090 00 00 80 3f 00 00 80 3f 00 00 80 3f 00 00 80 3f
       1.0 1.0 1.0 1.0
0000a0 00 00 80 3f 00 00 80 3f 00 00 80 3f 00 00 80 3f
       1.0 1.0 1.0 1.0
0000b0 00 00 80 3f 00 00 80 3f 00 00 80 3f 00 00 80 3f
       1.0 1.0 1.0 1.0
0000c0 00 00 80 3f 00 00 80 3f 00 00 80 3f 00 00 80 3f
       1.0 1.0 1.0 1.0
0000d0 00 00 80 3f 00 00 80 3f 00 00 80 3f 00 00 80 3f
       1.0 1.0 1.0 1.0
0000e0 00 00 80 3f 00 00 80 3f 00 00 80 3f 00 00 80 3f
       1.0 1.0 1.0 1.0
0000f0 00 00 80 3f 00 00 80 3f 00 00 80 3f 00 00 80 3f
       1.0 1.0 1.0 1.0
000100 00 00 80 3f 00 00 80 3f 00 00 80 3f 00 00 80 3f
       1.0 1.0 1.0 1.0
000110 00 00 80 3f 00 00 80 3f 00 00 80 3f 00 00 80 3f
       1.0 1.0 1.0 1.0
000120 00 00 80 3f 00 00 80 3f 00 00 80 3f 00 00 80 3f
       1.0 1.0 1.0 1.0
000130 00 00 80 3f 00 00 80 3f 00 00 80 3f 00 00 80 3f
       1.0 1.0 1.0 1.0

layers.2.1.mul.output_mask f4 [48]
000000 00 00 80 3f 00 00 80 3f 00 00 80 3f 00 00 80 3f
       1.0 1.0 1.0 1.0
000010 00 00 80 3f 00 00 80 3f 00 00 80 3f 00 00 80 3f
       1.0 1.0 1.0 1.0
000020 00 00 80 3f 00 00 80 3f 00 00 80 3f 00 00 80 3f
       1.0 1.0 1.0 1.0
000030 00 00 80 3f 00 00 80 3f 00 00 80 3f 00 00 80 3f
       1.0 1.0 1.0 1.0
000040 00 00 80 3f 00 00 80 3f 00 00 80 3f 00 00 80 3f
       1.0 1.0 1.0 1.0
000050 00 00 80 3f 00 00 80 3f 00 00 80 3f 00 00 80 3f
       1.0 1.0 1.0 1.0
000060 00 00 80 3f 00 00 80 3f 00 00 80 3f 00 00 80 3f
       1.0 1.0 1.0 1.0
000070 00 00 80 3f 00 00 80 3f 00 00 80 3f 00 00 80 3f
       1.0 1.0 1.0 1.0
000080 00 00 80 3f 00 00 80 3f 00 00 80 3f 00 00 80 3f
       1.0 1.0 1.0 1.0
000090 00 00 80 3f 00 00 80 3f 00 00 80 3f 00 00 80 3f
       1.0 1.0 1.0 1.0
0000a0 00 00 80 3f 00 00 80 3f 00 00 80 3f 00 00 80 3f
       1.0 1.0 1.0 1.0
0000b0 00 00 80 3f 00 00 80 3f 00 00 80 3f 00 00 80 3f
       1.0 1.0 1.0 1.0

readout.weight f4 [16]
000000 57 de 2b 3f 7e 04 fd be 4f f2 a1 be d7 7d bc be
       0.6713614 -0.4941749 -0.3163018 -0.36814758
000010 06 b7 48 bf 45 4b c9 bd fd fa b7 be 38 da c4 bb
       -0.7840427 -0.0982881 -0.35933676 -0.006007459
000020 75 db 6d 3f 5c 63 05 3f 9d fa 53 bd 26 77 31 bf
       0.9291299 0.52104735 -0.051752675 -0.6932243
000030 41 e7 cd be e6 44 53 bf 38 67 26 3f 91 f4 86 bf
       -0.40215495 -0.82527006 0.6500125 -1.0543386
