egnn_model.pth (torch, 304482 bytes, 12 tensors)

input_proj.weight f4 [16]
000000 b2 8d 45 bd e7 1c c7 bf 80 b5 2b be 62 d2 d6 3f
       -0.048230834 -1.5555695 -0.16768456 1.6782954
000010 f7 73 e9 bf 82 3e c0 be 70 d2 9a 3f 10 3c f4 be
       -1.8238515 -0.3754769 1.209547 -0.47702074
000020 36 a0 bb 3e d5 0a 9c bf af a6 22 be ba b9 21 bf
       0.3664567 -1.2190806 -0.15883897 -0.6317402
000030 13 2f 3a be 85 50 db bf 3f 7f 80 3f 31 c2 9e 3e
       -0.1818202 -1.7133948 1.0038832 0.3100753

input_proj.output_mask f4 [64]
000000 00 00 80 3f 00 00 80 3f 00 00 80 3f 00 00 80 3f
       1.0 1.0 1.0 1.0
000010 00 00 80 3f 00 00 80 3f 00 00 80 3f 00 00 80 3f
       1.0 1.0 1.0 1.0
000020 00 00 80 3f 00 00 80 3f 00 00 80 3f 00 00 80 3f
       1.0 1.0 1.0 1.0
000030 00 00 80 3f 00 00 80 3f 00 00 80 3f 00 00 80 3f
       1.0 1.0 1.0 1.0
000040 00 00 00 00 00 00 00 00 00 00 00 00 00 00 00 00
       0.0 0.0 0.0 0.0
000050 00 00 00 00 00 00 00 00 00 00 00 00 00 00 00 00
       0.0 0.0 0.0 0.0
000060 00 00 00 00 00 00 00 00 00 00 00 00 00 00 00 00
       0.0 0.0 0.0 0.0
000070 00 00 00 00 00 00 00 00 00 00 00 00 00 00 00 00
       0.0 0.0 0.0 0.0
000080 00 00 00 00 00 00 00 00 00 00 00 00 00 00 00 00
       0.0 0.0 0.0 0.0
000090 00 00 00 00 00 00 00 00 00 00 00 00 00 00 00 00
       0.0 0.0 0.0 0.0
0000a0 00 00 00 00 00 00 00 00 00 00 00 00 00 00 00 00
       0.0 0.0 0.0 0.0
0000b0 00 00 00 00 00 00 00 00 00 00 00 00 00 00 00 00
       0.0 0.0 0.0 0.0
0000c0 00 00 00 00 00 00 00 00 00 00 00 00 00 00 00 00
       0.0 0.0 0.0 0.0
0000d0 00 00 00 00 00 00 00 00 00 00 00 00 00 00 00 00
       0.0 0.0 0.0 0.0
0000e0 00 00 00 00 00 00 00 00 00 00 00 00 00 00 00 00
       0.0 0.0 0.0 0.0
0000f0 00 00 00 00 00 00 00 00 00 00 00 00 00 00 00 00
       0.0 0.0 0.0 0.0

layers.0.0.weight f4 [24576]
000000 63 5b ca be b7 44 a9 bf b3 3c c5 bf 84 a0 c1 be
       -0.39522848 -1.3224095 -1.5409149 -0.37817776
000010 15 5d 69 3e 4b 7b 3f 3f 0a 43 67 3f 17 97 64 3e
       0.22789414 0.74797505 0.9033667 0.22323261
000020 2b c1 dd bf d5 76 76 be 71 19 c0 bf ca 67 c1 be
       -1.7324575 -0.24068768 -1.5007764 -0.37774497
000030 89 34 0b 3f 7b 89 a2 3f d0 60 2a 3f f6 32 9a be
       0.5437704 1.2698206 0.66553974 -0.30117005
000040 87 e4 f2 3e 5c 91 99 3e bd 74 92 be a6 2d 5e 3f
       0.47439978 0.29993713 -0.2860469 0.86788404
000050 bf 20 2e c0 f5 07 af 3e 49 27 4b 3e 89 01 0b 3f
       -2.7207487 0.34185758 0.19839205 0.5429922
000060 af 21 0e 3f 80 e1 1f c0 b3 17 67 bf 45 f0 90 bf
       0.5552015 -2.4981384 -0.9027054 -1.1323324
000070 03 9b 6b 3f 64 46 28 3f 79 de 3d 3d da e0 94 3f
       0.92033404 0.6573241 0.046354745 1.1631119
000080 af 19 17 40 9e 7b 42 3e 50 b6 fb 3d ae fc 1e 3f
       2.3609426 0.18992469 0.12290633 0.6210431
000090 09 e4 44 3e 5c 0b 90 bf be 74 24 bf 27 f0 4e bf
       0.19227614 -1.1253467 -0.64240634 -0.80835193
0000a0 4c c2 13 bf 89 8e 84 bf fb c7 98 bf fd c0 5d bf
       -0.5771835 -1.0355998 -1.1936029 -0.866226
0000b0 93 6e 2f 3f f5 26 ee bf 9e d5 33 3f 03 c1 c9 bd
       0.685281 -1.8605639 0.7024783 -0.09851267
0000c0 f0 b4 b2 3f 1e e7 3f bf ac a9 c7 3f d8 c7 77 3f
       1.3961468 -0.7496203 1.5598655 0.9678931
0000d0 a7 0b a2 bf 5f f6 93 3f 38 12 4b 3d 55 f8 a9 3e
       -1.2659806 1.1559561 0.04957792 0.33197275
0000e0 8f 4d 4f 3f d9 52 7a be 72 70 2a 40 8a 9a 4b 3f
       0.8097772 -0.24445666 2.663113 0.7953268
0000f0 fa 49 91 bf 29 8d ee 3e 83 14 4c 3e ec f8 1a 3f
       -1.1350701 0.46592072 0.199297 0.60536075
000100 19 08 92 bf d2 72 ae 3f ae 86 82 bf f2 78 0b 3f
       -1.1408721 1.362879 -1.0197351 0.5448142
000110 50 80 a7 bf eb b4 dd 3e 11 84 6d 3f 4f 9c 1a bf
       -1.3086033 0.43302092 0.9277964 -0.6039476
000120 3d f4 95 bf 45 6c fd 3f a8 94 87 3f 13 25 aa 3e
       -1.1715161 1.9798666 1.0592241 0.3323141
000130 57 c1 d0 bf b0 eb 21 c0 1b 3a 21 3d d7 ce f6 3f
       -1.6309003 -2.5300102 0.039362054 1.9281873
000140 8e d8 30 bf 98 24 9d bf 7a 1f 2f bf cb 89 8e bf
       -0.69080436 -1.2276793 -0.68407404 -1.1135801
000150 1c 70 22 be 3d 13 80 3e c4 e6 f5 3e 20 bc 5f bf
       -0.15863079 0.25014678 0.48027623 -0.8739643
000160 5f 1f 79 3f cc ab de 3f dc 24 80 be 02 6e 53 3e
       0.97313493 1.7396178 -0.2502812 0.20647433
000170 49 e5 98 3f 45 48 33 bf bf b5 21 bf 09 fc e4 3e
       1.1944972 -0.7003215 -0.6316795 0.44723538
000180 c2 10 6d bf b9 86 81 3e ac 5f d6 3e e6 19 10 3f
       -0.92603695 0.25298098 0.41869867 0.5628952
000190 f4 4f 5f bf 53 86 a1 bf f6 c4 3b bf 56 2d 67 be
       -0.87231374 -1.2619117 -0.73347414 -0.22575888
0001a0 ec bf ee be 0d 5f 93 3d ee a7 97 be b9 57 8b 3f
       -0.466308 0.07195864 -0.29620308 1.0886146
0001b0 06 e1 6b 3e 79 1b 32 3f 51 e9 b5 3d 99 ea 76 bf
       0.23035058 0.6957317 0.08882392 -0.9645172
0001c0 39 38 10 3f f1 be 23 3f bc eb 67 bd cd 10 49 3f
       0.5633579 0.6396323 -0.0566213 0.7854126
0001d0 c2 85 e5 bd e9 ab 8b 3f 71 1f da be 6e 46 02 3f
       -0.11207153 1.0911838 -0.42602113 0.5088872
0001e0 57 9a 25 3f 9e a2 43 bf 52 9d 23 3d 5f 0d e1 be
       0.6468863 -0.7642001 0.039944954 -0.43955514
0001f0 76 1f 35 3e 7c 46 83 bf dd 04 8e 3e 74 46 08 3f
       0.17687783 -1.0255885 0.27738085 0.532325
000200 4c f6 75 bf 52 54 a9 bd f2 a0 0f bf 58 50 d9 bf
       -0.96078944 -0.08268036 -0.5610496 -1.6977644
000210 de b4 d9 be d2 44 84 bf 39 fd 2b 40 58 cf b6 be
       -0.42520803 -1.0333502 2.6873305 -0.35705066
000220 44 3b 01 40 36 23 f8 be d4 f0 d8 3e fd 45 ad bb
       2.0192423 -0.48464364 0.42371237 -0.0052878843
000230 74 ff 6a 3f af b7 07 3f 44 0f fa bf 2f fe 85 3e
       0.9179604 0.53014654 -1.9535909 0.2617049
000240 52 19 c8 3f b0 b6 da 3f 70 8d 04 40 9d 9d 20 3f
       1.5632727 1.7087002 2.0711327 0.627405
000250 d1 5d 73 bf 5e cf 6e 3f 92 4b 6d 3f 9f aa d4 3c
       -0.9506503 0.9328517 0.92693436 0.025960265
000260 36 52 1d 3e bd 9e 87 bf 9b 1e 80 3e 74 e0 b4 3f
       0.15363392 -1.0595318 0.2502335 1.4130998
000270 80 b8 e2 3f 7d 7e 89 3e 96 0e 4c 3f 48 03 50 3f
       1.7712555 0.26854315 0.79709756 0.81255007
000280 a8 1e 9e 3f 27 3e 1e be 00 99 55 be fb 9d c9 be
       1.2353106 -0.15453397 -0.20859146 -0.39378342
000290 ac 49 bc 3e 39 46 3e bf e1 b6 97 bf 65 99 3f bf
       0.36774957 -0.743259 -1.1852685 -0.74843436
0002a0 88 91 c0 be 83 02 8c 3e fa 47 f1 3e e5 3f 29 bf
       -0.37611032 0.27345666 0.47125226 -0.6611312
0002b0 72 15 17 be 05 a5 93 bf 94 9f a3 3e 62 21 96 bf
       -0.14754274 -1.1534735 0.31957686 -1.1728938
0002c0 ba b2 d9 bd 29 2b 07 bf ac 61 52 bf e3 1f 9d 3d
       -0.106297925 -0.5280023 -0.82180285 0.076720975
0002d0 dd 3d 82 3e 0a 39 9e 3e 2d 14 a1 be 15 28 32 bf
       0.25437823 0.30902892 -0.31460705 -0.6959241
0002e0 47 40 89 3c 1d 15 9e 3e 73 ba db bd 6a 50 c3 be
       0.016754283 0.30875483 -0.10728922 -0.3814729
0002f0 06 3d cb 3e 82 ee c0 be d8 ff b4 bf a7 b4 a4 3f
       0.39694995 -0.37681967 -1.4140577 1.2867631
000300 98 e0 cc 3f 65 0f 9f bf fc dd 76 bd ef cb da bf
       1.600604 -1.2426573 -0.060270295 -1.7093486
000310 4a 17 6d be 71 a0 cf 3f c8 f8 77 bf ca ee 7e 3e
       -0.23153415 1.6220838 -0.96863985 0.24895778
000320 3a 25 90 bf 3d da 95 be 7a 5f 54 bf b7 47 d9 3f
       -1.1261361 -0.29268065 -0.82958186 1.6975011
000330 97 79 b2 bf 75 83 a2 3f 62 2d dc bd 3a 50 89 be
       -1.3943356 1.2696368 -0.107508436 -0.2681902
000340 e0 07 0e 3d 95 3c bc 3f 33 52 33 3f f8 72 c0 3f
       0.03467548 1.4705988 0.700473 1.5035086
000350 db ae c0 be e3 29 33 bf e3 5b 67 bf 62 3a 11 3f
       -0.37633404 -0.6998579 -0.90374583 0.5672971
000360 f1 c4 75 3f 32 30 ce 3f eb 51 b1 bf b4 32 0f 3f
       0.96003634 1.6108458 -1.3853124 0.5593674
000370 03 86 4e 40 34 96 28 bf 83 d7 e5 be 90 4a dd 3f
       3.2269294 -0.6585419 -0.44890985 1.728838
000380 fc d8 4d 3f 6d 79 bc 3e 28 b7 fc 3e 2d 62 d7 bf
       0.80409217 0.3681139 0.49358487 -1.6826836
000390 96 35 46 3f 96 a6 15 bf af 7f 77 3e ec 82 7c 3f
       0.77425516 -0.58457315 0.24169801 0.9863727
0003a0 80 da 04 bf 86 13 f5 3f b5 82 d3 3e ce 60 03 3f
       -0.51895905 1.9146583 0.4131066 0.5131959
0003b0 b9 33 66 bf bd ff 25 3f 60 8f 96 bb 7a b7 d7 bd
       -0.8992267 0.6484335 -0.0045947284 -0.10533042
0003c0 68 a4 fe 3f e7 7d 43 3f c6 2d f9 3e 8c 6a 3e be
       1.9893923 0.76363987 0.48667735 -0.18595332
0003d0 01 bf 13 bf 19 58 0a 3f e2 f1 c5 bf 67 4c 94 3f
       -0.57713324 0.54040676 -1.5464442 1.1585816
0003e0 5b 47 c4 bf ba 5a 72 3e 22 5e 9c 3e 71 20 67 3e
       -1.5334276 0.23667422 0.30540568 0.22570969
0003f0 97 39 4a bf 78 68 9e be 91 97 da 3e a8 9a 0c bf
       -0.78994125 -0.30939078 0.4269376 -0.54923487

layers.0.0.output_mask f4 [80]
000000 00 00 80 3f 00 00 80 3f 00 00 80 3f 00 00 80 3f
       1.0 1.0 1.0 1.0
000010 00 00 80 3f 00 00 80 3f 00 00 80 3f 00 00 80 3f
       1.0 1.0 1.0 1.0
000020 00 00 80 3f 00 00 80 3f 00 00 80 3f 00 00 80 3f
       1.0 1.0 1.0 1.0
000030 00 00 80 3f 00 00 80 3f 00 00 80 3f 00 00 80 3f
       1.0 1.0 1.0 1.0
000040 00 00 80 3f 00 00 80 3f 00 00 80 3f 00 00 80 3f
       1.0 1.0 1.0 1.0
000050 00 00 80 3f 00 00 80 3f 00 00 80 3f 00 00 80 3f
       1.0 1.0 1.0 1.0
000060 00 00 80 3f 00 00 80 3f 00 00 80 3f 00 00 80 3f
       1.0 1.0 1.0 1.0
000070 00 00 80 3f 00 00 80 3f 00 00 80 3f 00 00 80 3f
       1.0 1.0 1.0 1.0
000080 00 00 80 3f 00 00 80 3f 00 00 80 3f 00 00 80 3f
       1.0 1.0 1.0 1.0
000090 00 00 80 3f 00 00 80 3f 00 00 80 3f 00 00 80 3f
       1.0 1.0 1.0 1.0
0000a0 00 00 80 3f 00 00 80 3f 00 00 80 3f 00 00 80 3f
       1.0 1.0 1.0 1.0
0000b0 00 00 80 3f 00 00 80 3f 00 00 80 3f 00 00 80 3f
       1.0 1.0 1.0 1.0
0000c0 00 00 80 3f 00 00 80 3f 00 00 80 3f 00 00 80 3f
       1.0 1.0 1.0 1.0
0000d0 00 00 80 3f 00 00 80 3f 00 00 80 3f 00 00 80 3f
       1.0 1.0 1.0 1.0
0000e0 00 00 80 3f 00 00 80 3f 00 00 80 3f 00 00 80 3f
       1.0 1.0 1.0 1.0
0000f0 00 00 80 3f 00 00 80 3f 00 00 80 3f 00 00 80 3f
       1.0 1.0 1.0 1.0
000100 00 00 80 3f 00 00 80 3f 00 00 80 3f 00 00 80 3f
       1.0 1.0 1.0 1.0
000110 00 00 80 3f 00 00 80 3f 00 00 80 3f 00 00 80 3f
       1.0 1.0 1.0 1.0
000120 00 00 80 3f 00 00 80 3f 00 00 80 3f 00 00 80 3f
       1.0 1.0 1.0 1.0
000130 00 00 80 3f 00 00 80 3f 00 00 80 3f 00 00 80 3f
       1.0 1.0 1.0 1.0

layers.0.1.mul.output_mask f4 [48]
000000 00 00 80 3f 00 00 80 3f 00 00 80 3f 00 00 80 3f
       1.0 1.0 1.0 1.0
000010 00 00 80 3f 00 00 80 3f 00 00 80 3f 00 00 80 3f
       1.0 1.0 1.0 1.0
000020 00 00 80 3f 00 00 80 3f 00 00 80 3f 00 00 80 3f
       1.0 1.0 1.0 1.0
000030 00 00 80 3f 00 00 80 3f 00 00 80 3f 00 00 80 3f
       1.0 1.0 1.0 1.0
000040 00 00 80 3f 00 00 80 3f 00 00 80 3f 00 00 80 3f
       1.0 1.0 1.0 1.0
000050 00 00 80 3f 00 00 80 3f 00 00 80 3f 00 00 80 3f
       1.0 1.0 1.0 1.0
000060 00 00 80 3f 00 00 80 3f 00 00 80 3f 00 00 80 3f
       1.0 1.0 1.0 1.0
000070 00 00 80 3f 00 00 80 3f 00 00 80 3f 00 00 80 3f
       1.0 1.0 1.0 1.0
000080 00 00 80 3f 00 00 80 3f 00 00 80 3f 00 00 80 3f
       1.0 1.0 1.0 1.0
000090 00 00 80 3f 00 00 80 3f 00 00 80 3f 00 00 80 3f
       1.0 1.0 1.0 1.0
0000a0 00 00 80 3f 00 00 80 3f 00 00 80 3f 00 00 80 3f
       1.0 1.0 1.0 1.0
0000b0 00 00 80 3f 00 00 80 3f 00 00 80 3f 00 00 80 3f
       1.0 1.0 1.0 1.0

layers.1.0.weight f4 [24576]
000000 47 9c bf 3d 6e 58 09 3f 4d a9 0b bf 44 64 8c bf
       0.093559794 0.5365056 -0.5455521 -1.0968099
000010 05 49 b1 3f 3a 0b 0b 3e 9d 98 9f bf 7a a7 12 3f
       1.3850409 0.13578501 -1.2468449 0.572868
000020 a0 cb 2f 3e 8c e1 9f 3f 66 0e 55 3e c1 43 69 3f
       0.1716752 1.2490706 0.20806274 0.9111901
000030 a2 90 e8 be c0 9c c0 bf b1 eb be 3e 6e a0 3a bf
       -0.45422846 -1.5047836 0.37289193 -0.72901046
000040 f2 18 91 bf 16 56 ca 3c 36 2d 4f bf 16 d0 8f 3f
       -1.1335738 0.024699252 -0.8092836 1.1235378
000050 b4 ff be be e5 3f fb be 4f c1 38 bf d3 62 9b be
       -0.3730446 -0.49072185 -0.72169966 -0.30348834
000060 68 1d 5b 3d f1 58 7c 3e 63 06 be 3e 06 6b 05 40
       0.05349484 0.24643303 0.37114248 2.0846572
000070 66 5a e6 bf a0 f2 87 bf be 4f 54 be 2c fb 7b bf
       -1.7996337 -1.0620918 -0.20733544 -0.9843013
000080 7e fe 9b 3f 0c 5f a7 3b 4b a0 4a be d3 23 20 be
       1.218704 0.005107766 -0.1978771 -0.15638666
000090 86 f5 a7 bf a8 14 e3 3f 61 dc 04 3f 9b cb 69 3f
       -1.3121803 1.7740679 0.5189877 0.913263
0000a0 2c fe 45 bf 46 31 12 bf 69 a4 88 bf 6a e6 dc be
       -0.7734096 -0.57106435 -1.0675174 -0.43144542
0000b0 91 70 13 bf 58 fe 21 bf b5 0f 59 3f fe ef 61 bf
       -0.5759364 -0.6327872 0.8478959 -0.88256824
0000c0 40 9f 7f bf 0e b6 40 bf aa b6 5f bf aa 04 28 be
       -0.9985237 -0.75277793 -0.873881 -0.16408029
0000d0 f9 71 63 3f 99 2b 4a bf 76 95 85 be be af 0d bf
       0.88845783 -0.78972775 -0.26090592 -0.55346286
0000e0 07 47 8f bd 17 e7 83 be 7a 8c e8 3f 6d d2 57 40
       -0.06995969 -0.25762245 1.816787 3.3722184
0000f0 44 fe 03 40 f2 9a 8f bf cc 2d 94 bf 1b 78 0a bf
       2.0623941 -1.121916 -1.1576476 -0.54089516
000100 56 1a 66 be 61 91 29 3f 33 59 1c be e3 e6 f4 bf
       -0.22470984 0.66237456 -0.15268402 -1.9132961
000110 66 1f 8b 3f 4f ef 8a 3f ef 52 97 3e 3f cf c6 be
       1.0868957 1.0854281 0.2955546 -0.3882999
000120 a8 30 19 40 ca 63 b8 be 5e 44 38 3f 10 d7 eb be
       2.3935947 -0.36013633 0.7197932 -0.46062517
000130 46 ea 64 bf ef eb 0e bf 52 e6 b4 bf f5 b7 ea be
       -0.8941997 -0.55828756 -1.4132788 -0.45843473
000140 14 60 26 be 5f eb 8e bc 0d ed de be 80 57 6b 3f
       -0.16247588 -0.017446218 -0.4354023 0.9193039
000150 e4 94 bb be 75 55 f1 3d 1a 87 06 40 87 91 5c 3f
       -0.36637032 0.11783878 2.101996 0.8615956
000160 2d 6b bb 3e d6 bb 91 3f b0 87 82 3f 16 34 77 bd
       0.36605206 1.1385448 1.0197659 -0.060352407
000170 95 35 f2 3e 69 33 14 3f 3f 0e cc 3e da a7 5e bf
       0.47306505 0.57890946 0.3985462 -0.8697487
000180 40 1d 37 c0 53 20 cc be bf d6 03 40 58 e7 2e bf
       -2.8611603 -0.3986841 2.059982 -0.6832175
000190 40 11 c8 3e ef c2 f0 bc 56 a6 a8 3f 5e 71 1a be
       0.3907566 -0.029389827 1.3175762 -0.15082309
0001a0 ad 11 9a bf 04 c0 e9 bf 25 cc 63 bf cf d2 4a 3f
       -1.2036644 -1.8261724 -0.88983375 0.7922792
0001b0 9e 64 9e 3d 0f 46 5c 3f 92 e1 95 3d 44 d5 2a c0
       0.07734035 0.860444 0.07318415 -2.6692667
0001c0 82 22 62 3e 73 89 77 bf 37 56 f1 3e dd 8f 74 bf
       0.22083476 -0.96694106 0.4713609 -0.9553202
0001d0 32 c7 02 40 1c 31 c6 3e 2e db 38 bf 8c c6 d8 bf
       2.043408 0.38709342 -0.7220944 -1.6935592
0001e0 ff 6b 3e 3f 03 62 0d bf da 27 ec 3e 5a 5d 17 3b
       0.7438354 -0.5522768 0.46124154 0.0023096413
0001f0 d3 2d 16 40 d0 86 b2 bf e3 fc d8 3e 34 50 5a bf
       2.346547 -1.3947392 0.42380437 -0.8527863
000200 a6 94 83 3d ce c2 c5 bf 01 2e 00 40 4f 77 1b 3f
       0.06424837 -1.5450075 2.0028079 0.60728925
000210 70 08 08 3e cf 30 7f 3d 90 dc fe bd 4a 50 b2 3e
       0.13284469 0.062302407 -0.12444413 0.3482688
000220 1d 52 17 bf 78 54 0b c0 4e 21 d7 3f 7a 52 ec bf
       -0.5910967 -2.1770306 1.6807039 -1.846267
000230 c6 ee ca bb e6 06 9c bc 16 46 2e 3f 54 f4 d0 bf
       -0.006193015 -0.019046258 0.6807569 -1.6324563
000240 4f fc 27 3e 8c 3a da bf d8 44 d4 3f 87 90 c6 3f
       0.16404842 -1.7049117 1.658351 1.5512856
000250 57 f3 52 be d1 a9 67 bf 93 01 11 3d e2 0b 43 bf
       -0.2060064 -0.90493494 0.035401892 -0.76190007
000260 ff 9b 20 bf 2e 6e 5b 3f 7b 5f 33 be 13 9f 10 bf
       -0.6273803 0.85714996 -0.17516892 -0.5649273
000270 90 3d aa 3d 05 ae ce be ad c3 d2 bc b3 d2 32 3c
       0.08312523 -0.4036714 -0.025728071 0.010914492
000280 ff 40 5e be 4c 5b a8 bf 78 d0 e5 3e 9b 04 14 3f
       -0.21704482 -1.3152862 0.44885612 0.5781953
000290 75 5f 69 bf 02 7b 0d 40 c9 fc 83 be e1 49 e1 be
       -0.9116128 2.2106328 -0.25778797 -0.44001678
0002a0 14 08 98 3f 49 3d e3 3f 2e 7b 92 3d e8 5c 0d 3f
       1.1877465 1.7753078 0.07152401 0.5521989
0002b0 03 b8 05 bf 36 dc e1 bf 4a dd b6 bd d7 2c b4 be
       -0.52233905 -1.7645328 -0.08928926 -0.3519046
0002c0 9f dc d7 3f cb 44 44 be 66 43 59 bf e9 b2 5f 3e
       1.6864203 -0.19166867 -0.84868467 0.21845593
0002d0 82 a7 3e bf 4c ca aa 3e 89 d4 4a bf 1a 21 f2 be
       -0.74474347 0.33357465 -0.7923055 -0.4729088
0002e0 54 02 7d bf 6a e0 8f bf e0 0c c7 bf 89 b5 a8 3f
       -0.9883168 -1.1240361 -1.5550804 1.31804
0002f0 a8 d5 05 bd e4 ad e4 3f d4 de 87 3f 86 22 7c 3f
       -0.03267446 1.7865567 1.0614877 0.9849018
000300 e2 de 85 3e cf e6 aa bf 81 c7 a3 3f b9 47 f4 3e
       0.2614661 -1.3351687 1.2795259 0.4771097
000310 46 97 8d 3e d8 a3 ee be 0d b9 f7 3e 1f 94 3a 3f
       0.27654475 -0.46609378 0.4838337 0.72882265
000320 82 23 a5 bf 5f 8c 41 be ef 24 49 bf 4a 36 f0 3d
       -1.2901461 -0.18901204 -0.7857198 0.11729105
000330 1b ac 86 bf 27 57 68 3f 59 67 02 40 de 4f 36 3f
       -1.0521272 0.90757984 2.0375578 0.7121562
000340 17 69 89 3f 36 13 4e 3d c4 da da be 4b e0 78 bd
       1.0735196 0.05031129 -0.4274503 -0.060760777
000350 57 e4 8f bf 95 94 57 3f a7 b6 32 3f 35 a8 07 40
       -1.1241559 0.84211093 0.69809955 2.1196415
000360 1f a6 be 3e d1 0d b6 3f 5d 70 40 bf 31 54 6d 3f
       0.37236115 1.4222966 -0.7517145 0.9270659
000370 84 08 47 be 2a 1d 4a be b5 b3 76 3f 49 9b 91 3e
       -0.19436842 -0.19737688 0.9636796 0.28438786
000380 e2 57 a7 bf 3c ce bc bf c0 ac 3b be 59 e6 b6 bf
       -1.3073695 -1.4750438 -0.18327618 -1.4289047
000390 77 55 73 3f 02 b3 0b bf b4 3a e9 be a8 e8 1b c0
       0.95052284 -0.5457002 -0.455526 -2.4360752
0003a0 1d de 46 bf 99 b5 46 40 84 8e a8 3e c3 dd c9 3f
       -0.7768267 3.1048338 0.3292123 1.5770801
0003b0 06 08 b4 3c da 25 04 bf e3 0c d3 bf 1c f0 6d 3f
       0.021976482 -0.51620257 -1.6488308 0.929445
0003c0 e2 3e 91 3f 3b 5c 80 be 26 9f af 3f 04 b3 25 3e
       1.1347315 -0.25070366 1.3720443 0.1618157
0003d0 b2 2c 63 3d 2d 1e 3a be 8d 00 36 3e e5 b4 8c bf
       0.055462547 -0.18175574 0.17773648 -1.0992705
0003e0 b8 bc 33 3f e0 0c ba bf 16 d3 47 3f 59 b8 a8 3f
       0.70209837 -1.4535179 0.78056467 1.3181258
0003f0 9e c6 e9 3f da f9 02 3f 12 6e bb bf 35 50 55 3f
       1.8263738 0.51162493 -1.4642966 0.8332551

layers.1.0.output_mask f4 [80]
000000 00 00 80 3f 00 00 80 3f 00 00 80 3f 00 00 80 3f
       1.0 1.0 1.0 1.0
000010 00 00 80 3f 00 00 80 3f 00 00 80 3f 00 00 80 3f
       1.0 1.0 1.0 1.0
000020 00 00 80 3f 00 00 80 3f 00 00 80 3f 00 00 80 3f
       1.0 1.0 1.0 1.0
000030 00 00 80 3f 00 00 80 3f 00 00 80 3f 00 00 80 3f
       1.0 1.0 1.0 1.0
000040 00 00 80 3f 00 00 80 3f 00 00 80 3f 00 00 80 3f
       1.0 1.0 1.0 1.0
000050 00 00 80 3f 00 00 80 3f 00 00 80 3f 00 00 80 3f
       1.0 1.0 1.0 1.0
000060 00 00 80 3f 00 00 80 3f 00 00 80 3f 00 00 80 3f
       1.0 1.0 1.0 1.0
000070 00 00 80 3f 00 00 80 3f 00 00 80 3f 00 00 80 3f
       1.0 1.0 1.0 1.0
000080 00 00 80 3f 00 00 80 3f 00 00 80 3f 00 00 80 3f
       1.0 1.0 1.0 1.0
000090 00 00 80 3f 00 00 80 3f 00 00 80 3f 00 00 80 3f
       1.0 1.0 1.0 1.0
0000a0 00 00 80 3f 00 00 80 3f 00 00 80 3f 00 00 80 3f
       1.0 1.0 1.0 1.0
0000b0 00 00 80 3f 00 00 80 3f 00 00 80 3f 00 00 80 3f
       1.0 1.0 1.0 1.0
0000c0 00 00 80 3f 00 00 80 3f 00 00 80 3f 00 00 80 3f
       1.0 1.0 1.0 1.0
0000d0 00 00 80 3f 00 00 80 3f 00 00 80 3f 00 00 80 3f
       1.0 1.0 1.0 1.0
0000e0 00 00 80 3f 00 00 80 3f 00 00 80 3f 00 00 80 3f
       1.0 1.0 1.0 1.0
0000f0 00 00 80 3f 00 00 80 3f 00 00 80 3f 00 00 80 3f
       1.0 1.0 1.0 1.0
000100 00 00 80 3f 00 00 80 3f 00 00 80 3f 00 00 80 3f
       1.0 1.0 1.0 1.0
000110 00 00 80 3f 00 00 80 3f 00 00 80 3f 00 00 80 3f
       1.0 1.0 1.0 1.0
000120 00 00 80 3f 00 00 80 3f 00 00 80 3f 00 00 80 3f
       1.0 1.0 1.0 1.0
000130 00 00 80 3f 00 00 80 3f 00 00 80 3f 00 00 80 3f
       1.0 1.0 1.0 1.0

layers.1.1.mul.output_mask f4 [48]
000000 00 00 80 3f 00 00 80 3f 00 00 80 3f 00 00 80 3f
       1.0 1.0 1.0 1.0
000010 00 00 80 3f 00 00 80 3f 00 00 80 3f 00 00 80 3f
       1.0 1.0 1.0 1.0
000020 00 00 80 3f 00 00 80 3f 00 00 80 3f 00 00 80 3f
       1.0 1.0 1.0 1.0
000030 00 00 80 3f 00 00 80 3f 00 00 80 3f 00 00 80 3f
       1.0 1.0 1.0 1.0
000040 00 00 80 3f 00 00 80 3f 00 00 80 3f 00 00 80 3f
       1.0 1.0 1.0 1.0
000050 00 00 80 3f 00 00 80 3f 00 00 80 3f 00 00 80 3f
       1.0 1.0 1.0 1.0
000060 00 00 80 3f 00 00 80 3f 00 00 80 3f 00 00 80 3f
       1.0 1.0 1.0 1.0
000070 00 00 80 3f 00 00 80 3f 00 00 80 3f 00 00 80 3f
       1.0 1.0 1.0 1.0
000080 00 00 80 3f 00 00 80 3f 00 00 80 3f 00 00 80 3f
       1.0 1.0 1.0 1.0
000090 00 00 80 3f 00 00 80 3f 00 00 80 3f 00 00 80 3f
       1.0 1.0 1.0 1.0
0000a0 00 00 80 3f 00 00 80 3f 00 00 80 3f 00 00 80 3f
       1.0 1.0 1.0 1.0
0000b0 00 00 80 3f 00 00 80 3f 00 00 80 3f 00 00 80 3f
       1.0 1.0 1.0 1.0

layers.2.0.weight f4 [24576]
000000 af 12 43 3c 3d 7a 18 3e b5 50 84 3f 38 94 c1 3f
       0.01190631 0.1489038 1.033713 1.5123358
000010 a0 ab f9 bc e9 26 f7 bf b1 f9 03 3f bb 3c a1 3e
       -0.030477345 -1.930875 0.51552874 0.31491646
000020 fc db 82 bf 21 77 63 3f ba a8 2e 3f 3a 83 81 be
       -1.0223384 0.8885365 0.68226206 -0.2529543
000030 51 85 c9 3f c0 08 bb be 4d 69 d9 bf 9c 92 4c 3f
       1.574381 -0.36530113 -1.698526 0.7991121
000040 5d 71 d3 3e f7 af 6f 3f 15 11 99 bf da cf a6 3f
       0.41297427 0.93627876 -1.1958338 1.3032181
000050 ea 63 9b bf 6f 07 a8 3d 7b 5e ae 3f 51 25 12 3f
       -1.2139866 0.08204543 1.3622583 0.5708819
000060 e6 c6 25 3f 0d a8 51 bf 8f 91 18 bf 28 09 ab bf
       0.6475662 -0.8189705 -0.59597105 -1.3362169
000070 04 88 54 bf 7f f7 8f 3f 47 26 fe bd 02 85 28 c0
       -0.83020043 1.1247405 -0.124096446 -2.6331182
000080 18 ae a2 3c 5d d6 e8 bf 56 6d 29 3f 42 cf a1 bf
       0.019858405 -1.8190418 0.6618246 -1.2641375
000090 cf dc 8e 3e 11 c6 ca 3d 67 9d 71 bf 96 f1 e2 bf
       0.2790284 0.099010594 -0.943808 -1.7729976
0000a0 4d f8 e5 3e 2d f2 a9 bf 23 0c 09 c0 5a 2a b1 3f
       0.44916 -1.3277031 -2.1413658 1.384105
0000b0 59 be 93 bf ad 90 c1 bf b9 c9 b4 be f2 cd 8e bd
       -1.1542464 -1.5122277 -0.35310152 -0.06972875
0000c0 ce ac 43 3e d4 3e 4c bf 34 2b 18 3e ab 99 8b 3f
       0.19108889 -0.7978337 0.1486023 1.0906271
0000d0 20 1e d0 3f aa d8 d9 3e 1d 3c cb be fe 92 99 be
       1.6259193 0.42548114 -0.396943 -0.2999496
0000e0 63 17 40 3f 13 a8 69 bf 7d be d1 3d 59 f2 ac bf
       0.75035685 -0.91272086 0.10241411 -1.3511459
0000f0 aa 49 66 be 2e e3 b8 bf 00 68 1e 3f a0 5f 9d bd
       -0.22489038 -1.444433 0.6187744 -0.07684255
000100 96 16 cf 3e 16 f9 5f 3f e6 72 23 bf 27 ce 84 3f
       0.4044692 0.8748945 -0.63847196 1.0375413
000110 ff c2 da 3f 59 71 eb bf c2 1a 1e 3f 49 19 c8 bf
       1.7090758 -1.8393966 0.6175958 -1.5632716
000120 c6 9c 4c bf f3 6b 26 bf ac 89 b6 bf 5c 34 d4 3f
       -0.7992672 -0.6500847 -1.4260764 1.6578479
000130 38 0b 08 bf 90 9d a4 bf aa e3 c9 3f 1f 54 2e 3f
       -0.5314212 -1.2860584 1.5772603 0.6809711
000140 a2 2b 9b 3f fa 54 85 3e c8 e0 30 3e eb 1a 08 3f
       1.2122691 0.26041394 0.17273247 0.53166074
000150 43 ac c5 be a1 5c 35 bf 0c 45 c1 3f 66 27 e0 3f
       -0.38607988 -0.70844465 1.5099196 1.7512023
000160 00 23 f2 be 15 ab 1d 3f c1 8d be be 0b db 84 bf
       -0.47292328 0.61589175 -0.37217525 -1.0379347
000170 c8 56 fd bf a7 15 bb bf b5 ba 81 bf 47 2d bc 3e
       -1.9792109 -1.4615983 -1.0135103 0.36753294
000180 96 2d 4c bf a2 5e 72 bf 62 82 11 3e 69 d2 4d 3e
       -0.7975706 -0.9467565 0.14209893 0.20099796
000190 3b 48 10 3f 4d 80 9b bf 35 a9 6c 3e ec 13 28 3e
       0.56360215 -1.2148529 0.23111422 0.1641385
0001a0 f2 d7 0c 3f 5e d7 27 c0 7b 34 9e 3f 62 58 8b 3f
       0.55017006 -2.62252 1.2359766 1.0886347
0001b0 01 71 4a bd 13 ec 7d bf 53 8b 4e bf e0 47 eb bf
       -0.049424175 -0.99188346 -0.8068134 -1.838131
0001c0 97 68 90 3e 61 96 72 3f 47 b8 7b 3f e9 48 d9 bf
       0.28204796 0.9476071 0.9832806 -1.6975375
0001d0 ef 45 5c bf d5 52 8e bf 40 66 cd 3e 38 fc 5d be
       -0.8604421 -1.1119028 0.40117073 -0.21678245
0001e0 51 70 81 3e 92 fb 2a bf 98 45 c1 3e ab fd 0d bf
       0.25281003 -0.66790116 0.37748408 -0.5546519
0001f0 68 ec 20 be 04 26 f9 3d 39 89 d5 3e d3 b9 8b bf
       -0.15715182 0.12165454 0.41706255 -1.0916084
000200 ad 10 e0 3f 91 55 8b bf f4 60 f0 bf df bd 55 be
       1.7505089 -1.0885488 -1.8779588 -0.20873211
000210 0b 18 12 be ed 7a 91 bd 0a fc cd bf 80 90 c8 be
       -0.14266984 -0.07103524 -1.6092541 -0.39172745
000220 07 0c 92 3f e5 87 41 bf a6 6a 62 bf 7f 2e 5b be
       1.140992 -0.75597984 -0.8844398 -0.21404456
000230 8a 42 6f bf 1e 4f 8c bf f7 d3 c0 3f 5a b8 98 bf
       -0.93460906 -1.0961645 1.5064687 -1.193126
000240 59 bc 45 bf 26 f0 b8 3e c8 1f e2 bf df 05 c8 be
       -0.7724052 0.3612072 -1.7665949 -0.3906698
000250 dd 0d 41 bf d6 3c 3d 3e 33 4a 3d 3f 2a 5d 11 3f
       -0.7541178 0.18480238 0.73941344 0.5678278
000260 2b b3 80 3f bc 9b ce bd dc fa 94 3f 56 69 cf bf
       1.0054678 -0.10088298 1.1639056 -1.6204021
000270 2e b5 e6 bf ce a8 ed 3e 44 3b 84 bf 41 80 11 3f
       -1.8024042 0.4641785 -1.0330586 0.56836325
000280 a2 e2 3d bf 59 db 54 3f 3d d0 3b be b3 75 8b 3f
       -0.7417394 0.831472 -0.18341155 1.0895294
000290 f4 c4 16 40 c2 7e ce 3e 5a 7a 40 bd 43 d1 0c 3e
       2.355771 0.40331084 -0.046991684 0.13751702
0002a0 b9 9c 01 c0 35 9d 01 3f a4 34 f0 bd 62 e9 0c 3f
       -2.0251906 0.50630504 -0.117287904 0.55043614
0002b0 31 e4 35 bf 9a 74 b1 3f a5 f6 65 3f a5 43 a6 bf
       -0.7105132 1.3863709 0.89829475 -1.2989393
0002c0 ac e3 b0 3f 04 d8 56 bf 44 c0 bf bf 06 29 df bf
       1.381948 -0.83923364 -1.498055 -1.7434394
0002d0 79 69 96 bf 74 19 f8 3e 55 3c fe be d3 3f 97 bf
       -1.1750938 0.4845692 -0.49655405 -1.1816353
0002e0 45 46 56 bf bf 19 82 bf 63 5a d2 bf 6b e2 e7 be
       -0.8370097 -1.0164107 -1.6433834 -0.4528993
0002f0 7a 2d b9 be 6a b9 b4 be c8 fa f4 be 1e d5 c1 bf
       -0.36167508 -0.3529771 -0.4784758 -1.5143163
000300 74 fc fa be 24 0d d7 bf 89 90 6b 3f e0 3f 4b 3b
       -0.4902073 -1.6800885 0.9201742 0.0031013414
000310 51 2e 40 3f 63 fd ba bf c9 2d c5 3f 4a a5 15 c0
       0.75070673 -1.4608577 1.5404598 -2.3382134
000320 41 28 b6 3f 16 ed 81 bf 73 7d 34 c0 b4 20 7c bf
       1.4231035 -1.0150478 -2.8201568 -0.984874
000330 c5 e0 81 be 60 dc 13 be 23 cf 59 3f a7 14 30 bf
       -0.25366798 -0.14439535 0.8508169 -0.6878151
000340 f6 3b 79 3e e5 67 b6 3e 4a df 3e bf ee 2e 3f 3f
       0.2433928 0.3562614 -0.7455946 0.74680984
000350 ad 3c cf bd 3d 8a d1 3e d5 85 49 3e 2a 6b 69 3f
       -0.10118995 0.4092578 0.19679959 0.91179144
000360 b9 a7 31 3f 4f f7 6e bf 41 08 9d 3e d7 60 72 bf
       0.6939655 -0.9334611 0.3067036 -0.94679016
000370 97 e6 a1 3f f7 13 51 bf dd 59 52 bf b3 87 9e bf
       1.2648495 -0.8167109 -0.8216837 -1.2385162
000380 52 7e 94 be 67 33 06 bf cd e9 2b bf f0 59 21 3e
       -0.29002625 -0.52422184 -0.67153627 0.15756965
000390 2f 27 94 be b6 f8 04 3d d1 78 12 3f 6a 03 63 3d
       -0.28936145 0.03246375 0.572156 0.055423178
0003a0 65 e3 a1 3d 2b f0 0e bf 89 fe 3a be a1 df b4 3c
       0.079047 -0.5583522 -0.1826116 0.02207929
0003b0 c5 c8 da be 51 a7 05 c0 b9 4a 26 bf 93 e6 2f bf
       -0.427313 -2.0883372 -0.6495777 -0.68711203
0003c0 57 03 b5 bf 36 6f bf 3f 34 90 1b 3d 04 1a a2 3f
       -1.4141644 1.4955814 0.03797932 1.2664189
0003d0 79 e7 a1 3e ad 11 06 bd cc 2b 85 3d c7 e3 6d bf
       0.31621912 -0.0327317 0.06502494 -0.92925686
0003e0 5c b6 4c be 9a 5f 9d bf 60 51 d4 3f ea c5 0f c0
       -0.1999144 -1.22948 1.6587334 -2.2464547
0003f0 1d ce b6 3d 58 4e 03 40 55 8f 06 bf 97 d5 41 bf
       0.08926032 2.0516567 -0.5256246 -0.7571654

layers.2.0.output_mask f4 [80]
000000 00 00 80 3f 00 00 80 3f 00 00 80 3f 00 00 80 3f
       1.0 1.0 1.0 1.0
000010 00 00 80 3f 00 00 80 3f 00 00 80 3f 00 00 80 3f
       1.0 1.0 1.0 1.0
000020 00 00 80 3f 00 00 80 3f 00 00 80 3f 00 00 80 3f
       1.0 1.0 1.0 1.0
000030 00 00 80 3f 00 00 80 3f 00 00 80 3f 00 00 80 3f
       1.0 1.0 1.0 1.0
000040 00 00 80 3f 00 00 80 3f 00 00 80 3f 00 00 80 3f
       1.0 1.0 1.0 1.0
000050 00 00 80 3f 00 00 80 3f 00 00 80 3f 00 00 80 3f
       1.0 1.0 1.0 1.0
000060 00 00 80 3f 00 00 80 3f 00 00 80 3f 00 00 80 3f
       1.0 1.0 1.0 1.0
000070 00 00 80 3f 00 00 80 3f 00 00 80 3f 00 00 80 3f
       1.0 1.0 1.0 1.0
000080 00 00 80 3f 00 00 80 3f 00 00 80 3f 00 00 80 3f
       1.0 1.0 1.0 1.0
000090 00 00 80 3f 00 00 80 3f 00 00 80 3f 00 00 80 3f
       1.0 1.0 1.0 1.0
0000a0 00 00 80 3f 00 00 80 3f 00 00 80 3f 00 00 80 3f
       1.0 1.0 1.0 1.0
0000b0 00 00 80 3f 00 00 80 3f 00 00 80 3f 00 00 80 3f
       1.0 1.0 1.0 1.0
0000c0 00 00 80 3f 00 00 80 3f 00 00 80 3f 00 00 80 3f
       1.0 1.0 1.0 1.0
0000d0 00 00 80 3f 00 00 80 3f 00 00 80 3f 00 00 80 3f
       1.0 1.0 1.0 1.0
0000e0 00 00 80 3f 00 00 80 3f 00 00 80 3f 00 00 80 3f
       1.0 1.0 1.0 1.0
0000f0 00 00 80 3f 00 00 80 3f 00 00 80 3f 00 00 80 3f
       1.0 1.0 1.0 1.0
000100 00 00 80 3f 00 00 80 3f 00 00 80 3f 00 00 80 3f
       1.0 1.0 1.0 1.0
000110 00 00 80 3f 00 00 80 3f 00 00 80 3f 00 00 80 3f
       1.0 1.0 1.0 1.0
000120 00 00 80 3f 00 00 80 3f 00 00 80 3f 00 00 80 3f
       1.0 1.0 1.0 1.0
000130 00 00 80 3f 00 00 80 3f 00 00 80 3f 00 00 80 3f
       1.0 1.0 1.0 1.0

layers.2.1.mul.output_mask f4 [48]
000000 00 00 80 3f 00 00 80 3f 00 00 80 3f 00 00 80 3f
       1.0 1.0 1.0 1.0
000010 00 00 80 3f 00 00 80 3f 00 00 80 3f 00 00 80 3f
       1.0 1.0 1.0 1.0
000020 00 00 80 3f 00 00 80 3f 00 00 80 3f 00 00 80 3f
       1.0 1.0 1.0 1.0
000030 00 00 80 3f 00 00 80 3f 00 00 80 3f 00 00 80 3f
       1.0 1.0 1.0 1.0
000040 00 00 80 3f 00 00 80 3f 00 00 80 3f 00 00 80 3f
       1.0 1.0 1.0 1.0
000050 00 00 80 3f 00 00 80 3f 00 00 80 3f 00 00 80 3f
       1.0 1.0 1.0 1.0
000060 00 00 80 3f 00 00 80 3f 00 00 80 3f 00 00 80 3f
       1.0 1.0 1.0 1.0
000070 00 00 80 3f 00 00 80 3f 00 00 80 3f 00 00 80 3f
       1.0 1.0 1.0 1.0
000080 00 00 80 3f 00 00 80 3f 00 00 80 3f 00 00 80 3f
       1.0 1.0 1.0 1.0
000090 00 00 80 3f 00 00 80 3f 00 00 80 3f 00 00 80 3f
       1.0 1.0 1.0 1.0
0000a0 00 00 80 3f 00 00 80 3f 00 00 80 3f 00 00 80 3f
       1.0 1.0 1.0 1.0
0000b0 00 00 80 3f 00 00 80 3f 00 00 80 3f 00 00 80 3f
       1.0 1.0 1.0 1.0

readout.weight f4 [16]
000000 e3 b3 cf 3f 6b 8b d4 3e 06 b2 82 bf 25 32 34 bf
       1.6226772 0.41512617 -1.0210578 -0.70389014
000010 09 80 98 3f 6e 44 71 3f 73 c8 24 bd 3d 49 c9 bf
       1.1914073 0.9424504 -0.040230226 -1.5725476
000020 01 fc 50 bf 9d ae 8a 3f 83 eb 95 3e b5 b8 8c 3f
       -0.8163453 1.0834538 0.29281244 1.0993868
000030 6f 4c c2 bf 8a d3 97 3d b6 07 87 3f 46 08 9e bf
       -1.5179576 0.07413395 1.0549228 -1.2346275
