egnn_model_20.pth (torch, 305442 bytes, 12 tensors)

input_proj.weight f4 [256]
-1.4780883 0.23483709 -0.75097704 0.64116997 0.61202556 1.3519161 -0.021555463 0.13972953
-0.8427326 -1.4441423 1.6446359 1.4173169 -0.14762408 -1.4979994 -0.9541182 -0.89656246
0.5373099 -2.6855774 -0.85220915 -0.13968387 1.3542712 -0.5293838 -0.9931888 0.9528125
1.0766591 -2.2325137 0.4887025 1.5495529 -1.3401439 0.8315662 -1.3843796 0.2560692
0.17568709 -0.39762133 2.0449378 1.0126538 0.22961614 1.5577778 0.4757787 1.6343485
0.43780556 -0.28590858 -0.71101147 2.3483138 -0.9490133 0.7553885 0.44923332 -0.1804494
-1.1773394 2.4908664 -1.8462069 2.8857958 0.05168818 0.062842764 0.60397214 -1.2514621
1.3097985 -1.3172592 -0.04118687 0.7070996 1.8022583 1.3861274 -0.96286416 -1.3920511
-0.9720398 2.0185719 -0.64909434 -0.46955347 0.51787233 -1.414258 -1.7109412 -1.1157348
-0.028600086 0.8291817 2.434842 0.1295314 0.38624755 0.35987452 0.44060296 -0.6968893
-0.45782477 0.6294521 -0.74333906 0.8852719 1.5249373 -0.72119856 1.601717 -0.44660515
-0.30014342 -1.6681826 -0.4974106 1.1414146 -0.24404824 -1.5787015 -1.6367551 1.4145861
0.3063285 0.37251645 0.98632306 0.4593571 -0.43179363 0.22262822 0.87604785 -1.3705933
0.64518714 2.7708447 -0.9956641 -0.6788411 -0.41381735 -0.79318446 1.2374632 -0.9927983
1.8669245 0.117761165 -1.4310982 -2.0555058 -0.8799487 1.4621451 0.08699869 -1.3518977
-0.07889485 0.36968902 1.3101875 -1.4012835 -1.2721293 0.29905322 -0.98052174 0.3225015
-0.93053466 -0.54694045 0.82435316 -0.66014755 -0.33605084 -1.9377353 1.1436409 -0.2542506
-0.15565251 -0.19865307 1.1668231 0.39730915 -0.6232187 1.17549 0.2852741 -1.3895116
-0.039034445 -0.20995173 0.71886384 0.56842726 1.4289075 -0.20885374 0.06505005 -0.585638
-2.0893118 -0.6802411 -0.018527206 1.0025423 -0.860637 0.70775765 1.2488728 0.2426497
0.75240916 -1.3813363 0.6977008 -1.3326824 1.8165132 0.23967509 -1.3344986 1.2647243
-1.1534814 0.8775978 -0.18485977 1.3835194 1.1863774 0.037137322 -0.13282071 2.3009515
-0.88311917 -1.5321357 -0.19126485 -0.8603695 -0.3048313 0.43769187 0.24466957 1.9766653
0.6197135 0.5303287 0.8046178 -2.0922043 0.11074143 -0.85147905 0.1458201 -2.0622852
1.8852763 1.2934284 -2.9702418 -0.21935068 -0.25217506 -1.4931499 -1.3523927 -0.09834311
1.2693003 0.39208806 -0.07717676 0.9924084 -1.2880579 -1.068308 0.20612326 0.9730563
0.42025036 0.1799889 0.43887475 0.7647863 1.1581675 -0.7464461 1.3272392 -1.9919934
-0.45487776 -0.1534151 0.27854806 -0.9689771 -0.11582445 0.19352911 0.19612172 -1.2547086
0.004738651 -0.8605822 -0.030066501 -0.38031387 1.9528544 0.6858693 0.036400184 -1.2356395
-0.038965523 0.7140472 -0.92082196 0.64672756 -2.6993876 -0.70398307 -0.48866394 1.2674493
-0.062203236 0.27046674 -1.6392165 -2.0290928 -1.6324097 0.0810792 0.64857113 -1.1861227
0.95102066 0.34715214 0.7273483 -1.102264 0.17478386 0.8282981 -1.0513498 0.014320113
00000000: ff31 bdbf 2279 703e 0840 40bf b723 243f
00000010: b5ad 1c3f 960b ad3f 1595 b0bc 4215 0f3e
00000020: 53bd 57bf a8d9 b8bf 6e83 d23f a46a b53f
00000030: c42a 17be 72be bfbf 1741 74bf 1e85 65bf
00000040: 248d 093f 80e0 2bc0 612a 5abf 4a09 0fbe
00000050: c258 ad3f b285 07bf 9f41 7ebf 85eb 733f
00000060: f7cf 893f 81e1 0ec0 3737 fa3e c057 c63f
00000070: d689 abbf 86e1 543f 5a33 b1bf 811b 833e
00000080: 51e7 333e 0695 cbbe 43e0 0240 a49e 813f
00000090: 7e20 6b3e 4365 c73f 4499 f33e 5532 d13f
000000a0: 0d28 e03e 9c62 92be d904 36bf c64a 1640
000000b0: 89f2 72bf 2461 413f e901 e63e bac7 38be
000000c0: 0fb3 96bf 5b6a 1f40 8250 ecbf e1b0 3840
000000d0: fcb6 533d b5b3 803d eb9d 1a3f e92f a0bf
000000e0: 7aa7 a73f f39b a8bf 90b3 28bd 7b04 353f
000000f0: 66b0 e63f 9f6c b13f 447e 76bf bb2e b2bf
00000100: 9ad7 78bf 4830 0140 0c2b 26bf 5069 f0be
00000110: 4893 043f 6806 b5bf 1f00 dbbf 66d0 8ebf
00000120: ba4a eabc 4045 543f 74d4 1b40 e1a3 043e
00000130: 3dc2 c53e 7941 b83e b696 e13e 5667 32bf
00000140: 0268 eabe c623 213f 784b 3ebf 2ea1 623f
00000150: 2531 c33f 78a0 38bf 1005 cd3f 6ea9 e4be
00000160: 66ac 99be 0287 d5bf 9aac febe e019 923f
00000170: c8e7 79be e412 cabf 3181 d1bf 2811 b53f
00000180: 17d7 9c3e 7aba be3e ab7f 7c3f db30 eb3e
00000190: 0e14 ddbe a7f8 633e ac44 603f 9a6f afbf
000001a0: fc2a 253f 8555 3140 d8e3 7ebf 88c8 2dbf
000001b0: dedf d3be 230e 4bbf 3265 9e3f 0828 7ebf
000001c0: 62f7 ee3f c42c f13d 3a2e b7bf 688d 03c0
000001d0: 5144 61bf 9227 bb3f 5f2c b23d fc0a adbf
000001e0: a093 a1bd e147 bd3e 39b4 a73f 425d b3bf
000001f0: 22d5 a2bf 811d 993e 7903 7bbf eb1e a53e
00000200: 8537 6ebf 4a04 0cbf cf08 533f 6eff 28bf
00000210: db0e acbe b607 f8bf d362 923f 222d 82be
00000220: 5f63 1fbe b66b 4bbe 765a 953f 1b6c cb3e
00000230: 438b 1fbf 7576 963f 720f 923e 84db b1bf
00000240: 95e2 1fbd 96fd 56be 7607 383f 7384 113f
00000250: 71e6 b63f c1dd 55be f638 853d 5fec 15bf
00000260: 49b7 05c0 4824 2ebf 5ec6 97bc 4e53 803f
00000270: b552 5cbf 9b2f 353f 10db 9f3f 2a79 783e
00000280: e39d 403f a1cf b0bf 859c 323f 5695 aabf
00000290: 8183 e83f 636d 753e dad0 aabf 7ce2 a13f
000002a0: 47a5 93bf 40aa 603f e14b 3dbe 2a17 b13f
000002b0: 37db 973f 4e1d 183d 2702 08be ca42 1340
000002c0: 1914 62bf 061d c4bf efda 43be 2d41 5cbf
000002d0: d912 9cbe 2619 e03e a98a 7a3e 5e03 fd3f
000002e0: 8ba5 1e3f 9fc3 073f 6ffb 4d3f ade6 05c0
000002f0: 67cc e23d 88fa 59bf dd51 153e 7bfc 03c0
00000300: bc50 f13f 108f a53f 7118 3ec0 779d 60be
00000310: 171d 81be 891f bfbf 341b adbf 1d68 c9bd
00000320: 6f78 a23f c4bf c83e d90e 9ebd 7a0e 7e3f
00000330: 15df a4bf 51be 88bf fa11 533e 381a 793f
00000340: 0e2b d73e 034f 383e 31b4 e03e 09c9 433f
00000350: d53e 943f 1717 3fbf f9e2 a93f a4f9 febf
00000360: bde5 e8be d918 1dbe da9d 8e3e e20e 78bf
00000370: 5f35 edbd 7f2c 463e 22d4 483e 4b9a a0bf
00000380: b046 9b3b 1d4f 5cbf 064e f6bc 80b8 c2be
00000390: 22f7 f93f 2195 2f3f 5c18 153d 6f29 9ebf
000003a0: 509a 1fbd cccb 363f fdba 6bbf f08f 253f
000003b0: c4c2 2cc0 3c38 34bf 2932 fabe c73b a23f
000003c0: d2c8 7ebd 9e7a 8a3e d9d1 d1bf a8dc 01c0
000003d0: cdf2 d0bf da0c a63d c208 263f ded2 97bf
000003e0: 1776 733f edbd b13e 8033 3a3f fd16 8dbf
000003f0: 8afa 323e 580b 543f a192 86bf e89e 6a3c

input_proj.output_mask f4 [64]
1.0 1.0 1.0 1.0 1.0 1.0 1.0 1.0
1.0 1.0 1.0 1.0 1.0 1.0 1.0 1.0
0.0 0.0 0.0 0.0 0.0 0.0 0.0 0.0
0.0 0.0 0.0 0.0 0.0 0.0 0.0 0.0
0.0 0.0 0.0 0.0 0.0 0.0 0.0 0.0
0.0 0.0 0.0 0.0 0.0 0.0 0.0 0.0
0.0 0.0 0.0 0.0 0.0 0.0 0.0 0.0
0.0 0.0 0.0 0.0 0.0 0.0 0.0 0.0
00000000: 0000 803f 0000 803f 0000 803f 0000 803f
00000010: 0000 803f 0000 803f 0000 803f 0000 803f
00000020: 0000 803f 0000 803f 0000 803f 0000 803f
00000030: 0000 803f 0000 803f 0000 803f 0000 803f
00000040: 0000 0000 0000 0000 0000 0000 0000 0000
00000050: 0000 0000 0000 0000 0000 0000 0000 0000
00000060: 0000 0000 0000 0000 0000 0000 0000 0000
00000070: 0000 0000 0000 0000 0000 0000 0000 0000
00000080: 0000 0000 0000 0000 0000 0000 0000 0000
00000090: 0000 0000 0000 0000 0000 0000 0000 0000
000000a0: 0000 0000 0000 0000 0000 0000 0000 0000
000000b0: 0000 0000 0000 0000 0000 0000 0000 0000
000000c0: 0000 0000 0000 0000 0000 0000 0000 0000
000000d0: 0000 0000 0000 0000 0000 0000 0000 0000
000000e0: 0000 0000 0000 0000 0000 0000 0000 0000
000000f0: 0000 0000 0000 0000 0000 0000 0000 0000

layers.0.0.weight f4 [24576]
-0.23658498 -1.0677911 -0.082513526 -0.2366408 0.7852148 1.0778892 1.8607244 0.28278953
0.9239324 0.32901528 -1.0939671 -0.35513544 -1.9098384 -1.047963 -0.9025957 1.4536339
0.32139614 -0.57460093 -1.3863312 1.4890668 -0.8831191 -1.3991444 -0.58389735 -0.082597256
0.19687383 0.38472623 0.942019 -0.41349405 0.48952976 -1.5535705 -0.9302324 0.45213613
0.65138185 -0.6965279 -0.1138842 -0.107364945 -0.082288414 0.1304745 0.17844842 -1.7690797
0.2337024 0.40593427 -1.6445526 -0.17364489 -1.4715837 -0.07654822 -0.6556982 1.8123783
0.36665308 0.7883309 -1.2609754 0.17643736 -0.4913052 -0.30495554 1.231368 0.6278513
0.07348344 -0.38701284 -0.17897448 0.7912476 -0.03607455 0.41738525 -0.62650084 -0.36930636
-0.586742 0.00085838564 -1.2120941 0.9354005 1.835051 -0.95484215 -0.44101128 1.4838591
0.08072384 -0.4930713 -0.09936691 -0.5580844 0.70535403 0.22574815 -0.10620463 1.1105701
-0.8735128 -1.055603 0.7126576 1.245873 -1.2853959 0.20342433 1.4489256 0.8499
0.5744896 0.82676786 -0.48421627 -1.9343828 -1.2113211 -1.3945354 -1.0474695 2.397158
-1.0451478 -0.7484265 0.5668736 -1.2867099 -0.6614932 -1.6757925 0.30044615 -0.43455628
-0.7484167 -1.2035407 1.7869488 -0.16996925 2.8117614 0.7038832 -0.10824162 -1.7831004
-0.72289026 -0.01770435 -0.061073966 0.3808383 -0.7330846 -0.2768166 0.038184766 3.2779982
0.3497378 0.88251024 1.8021896 0.93230706 1.744425 -0.41997892 -0.06915225 0.6897931
-2.2199738 -0.0635615 0.6614078 0.6681179 0.44365832 -0.64815295 0.7179707 -0.40821996
0.7184105 -1.3111279 -0.006675947 0.16104892 0.33960903 0.79295874 -0.6405921 -1.1423208
0.70476127 0.56920266 -0.24981962 -0.60136485 1.2740093 -0.07960194 0.101252146 0.31245074
-0.13237381 -1.6313124 -0.62701464 0.8096923 -0.83915675 -1.6646901 0.49384096 1.5116212
0.048990123 1.8751209 0.5815224 -1.3826195 -0.4709219 0.45690796 -0.30898577 1.4151856
1.4759008 -1.1720616 0.19681714 -0.66005605 -0.16315727 1.6704181 0.34700567 -2.1262915
0.46467993 1.3821434 0.629474 -1.1226721 -0.7161766 -0.7329848 2.3072932 0.6412849
-0.33225045 -0.60077244 0.30736366 -0.010429371 -0.5605814 0.31879708 -1.0280195 -0.2819525
1.1935471 -0.12731974 -0.11384788 -0.83866894 -1.9084498 0.66660166 0.4991927 0.7063396
-0.48641878 0.7388525 -0.28831562 -1.2966697 -1.5500839 0.14693215 0.0985497 -0.49228388
1.0137724 -0.019818207 1.0852572 1.0841154 1.0971371 1.3826766 0.8446345 -1.3926775
-1.0623462 0.2634865 1.3088244 0.2493539 -1.7377654 -0.8512891 0.8935099 0.05870608
0.30712774 1.0196997 0.47037056 0.7737797 -1.3450552 0.19825798 -0.024942255 0.4972484
0.32962397 -1.7396257 -0.8600057 -2.522581 -0.80612767 0.20847139 1.0611346 1.0126213
-0.016925689 -0.67301875 -0.54895 0.2778266 0.93440336 0.074200526 -0.71045226 -0.83746326
-0.33113128 -1.423494 -0.028492615 0.9082415 -2.7734966 0.3615216 -0.35864332 0.4037581
00000000: 5543 72be 61ad 88bf dafc a8bd f751 72be
00000010: d603 493f 46f8 893f 382c ee3f cac9 903e
00000020: d586 6c3f b174 a83e 1d07 8cbf 50d4 b5be
00000030: 9675 f4bf a723 86bf 8310 67bf ad10 ba3f
00000040: 098e a43e 0c19 13bf 4d73 b1bf be99 be3f
00000050: 1814 62bf 2a17 b3bf 4c7a 15bf c028 a9bd
00000060: 4b99 493e d6fa c43e 2828 713f 7eb5 d3be
00000070: a5a3 fa3e 66db c6bf b623 6ebf 637e e73e
00000080: f6c0 263f a74f 32bf 1f3c e9bd 27e2 dbbd
00000090: d486 a8bd 1b9b 053e 2fbb 363e 3471 e2bf
000000a0: af4f 6f3e 9ed6 cf3e b380 d2bf f7cf 31be
000000b0: db5c bcbf 50c5 9cbd d6db 27bf 03fc e73f
000000c0: f4b9 bb3e 0ed0 493f a467 a1bf ffab 343e
000000d0: 5b8c fbbe 2223 9cbe 779d 9d3f ddba 203f
000000e0: 7c7e 963d 8c26 c6be 1645 37be 348f 4a3f
000000f0: e8c2 13bd 85b3 d53e 5c62 20bf b915 bdbe
00000100: b934 16bf 4905 613a e625 9bbf 6876 6f3f
00000110: f3e2 ea3f 8970 74bf 3bcc e1be 18ef bd3f
00000120: 8a52 a53d d773 fcbe e180 cbbd 9fde 0ebf
00000130: 1592 343f 862a 673e d081 d9bd 2927 8e3f
00000140: 899e 5fbf 001e 87bf ba70 363f c478 9f3f
00000150: da87 a4bf 784e 503e 6576 b93f 0c93 593f
00000160: c011 133f 0fa7 533f 32eb f7be db99 f7bf
00000170: 920c 9bbf 2380 b2bf 7b13 86bf 096b 1940
00000180: 67c7 85bf e198 3fbf a11e 113f e9b2 a4bf
00000190: 9e57 29bf 5e80 d6bf 14d4 993e 297e debe
000001a0: 3d98 3fbf 9f0d 9abf bdba e43f 6b0c 2ebe
000001b0: e6f3 3340 b031 343f c8ad ddbd a23c e4bf
000001c0: 560f 39bf b708 91bc b228 7abd 3dfd c23e
000001d0: 6fab 3bbf e8ba 8dbe a167 1c3d b9ca 5140
000001e0: d510 b33e 31ec 613f 26ae e63f adab 6e3f
000001f0: 5249 df3f 7a07 d7be b29f 8dbd 4896 303f
00000200: 0d14 0ec0 882c 82bd 0652 293f c609 2b3f
00000210: 2f27 e33e 5aed 25bf eecc 373f 3502 d1be
00000220: c0e9 373f 0ad3 a7bf e7c1 dabb 02ea 243e
00000230: 3ce1 ad3e 58ff 4a3f d8fd 23bf 9137 92bf
00000240: 3c6b 343f 44b7 113f b7d0 7fbe 0cf3 19bf
00000250: bd12 a33f 5806 a3bd 495d cf3d 8bf9 9f3e
00000260: 008d 07be d8ce d0bf 0884 20bf ff47 4f3f
00000270: fad2 56bf 9114 d5bf b9d8 fc3e ce7c c13f
00000280: dea9 483d f603 f03f a7de 143f adf9 b0bf
00000290: ad1c f1be d7ef e93e 6233 9ebe cd24 b53f
000002a0: 51ea bc3f 1d06 96bf 6f8a 493e 6ff9 28bf
000002b0: b312 27be 43d0 d53f baaa b13e 2915 08c0
000002c0: 87ea ed3e 13ea b03f 3525 213f b8b3 8fbf
000002d0: 5a57 37bf e4a4 3bbf b1aa 1340 3f2b 243f
000002e0: bb1c aabe 39cc 19bf c55e 9d3e f4df 2abc
000002f0: 4382 0fbf 5f39 a33e 2596 83bf 145c 90be
00000300: 27c6 983f 1b60 02be 1429 e9bd 02b3 56bf
00000310: 1548 f4bf 68a6 2a3f 3096 ff3e acd2 343f
00000320: e20b f9be 7025 3d3f 1b9e 93be 46f9 a5bf
00000330: 2669 c6bf 6275 163e 6dd4 c93d a20c fcbe
00000340: 4bc3 813f cb59 a2bc b5e9 8a3f 4bc4 8a3f
00000350: fd6e 8c3f 8cfb b03f f739 583f 4243 b2bf
00000360: f6fa 87bf b4e7 863e 8f87 a73f a156 7f3e
00000370: 196f debf 15ee 59bf 11bd 643f c975 703d
00000380: d93f 9d3e 8585 823f 69d4 f03e 6d16 463f
00000390: c52a acbf 2404 4b3e b353 ccbc 5897 fe3e
000003a0: 79c4 a83e 0eac debf 5529 5cbf f871 21c0
000003b0: 625e 4ebf 8679 553e 42d3 873f 939d 813f
000003c0: bea7 8abc f54a 2cbf fd87 0cbf 4a3f 8e3e
000003d0: 0f35 6f3f 72f6 973d 33e0 35bf fe63 56bf
000003e0: 0a8a a9be 0d35 b6bf 5869 e9bc 8482 683f
000003f0: f880 31c0 5c19 b93e 19a0 b7be 62b9 ce3e

layers.0.0.output_mask f4 [80]
1.0 1.0 1.0 1.0 1.0 1.0 1.0 1.0
1.0 1.0 1.0 1.0 1.0 1.0 1.0 1.0
1.0 1.0 1.0 1.0 1.0 1.0 1.0 1.0
1.0 1.0 1.0 1.0 1.0 1.0 1.0 1.0
1.0 1.0 1.0 1.0 1.0 1.0 1.0 1.0
1.0 1.0 1.0 1.0 1.0 1.0 1.0 1.0
1.0 1.0 1.0 1.0 1.0 1.0 1.0 1.0
1.0 1.0 1.0 1.0 1.0 1.0 1.0 1.0
1.0 1.0 1.0 1.0 1.0 1.0 1.0 1.0
1.0 1.0 1.0 1.0 1.0 1.0 1.0 1.0
00000000: 0000 803f 0000 803f 0000 803f 0000 803f
00000010: 0000 803f 0000 803f 0000 803f 0000 803f
00000020: 0000 803f 0000 803f 0000 803f 0000 803f
00000030: 0000 803f 0000 803f 0000 803f 0000 803f
00000040: 0000 803f 0000 803f 0000 803f 0000 803f
00000050: 0000 803f 0000 803f 0000 803f 0000 803f
00000060: 0000 803f 0000 803f 0000 803f 0000 803f
00000070: 0000 803f 0000 803f 0000 803f 0000 803f
00000080: 0000 803f 0000 803f 0000 803f 0000 803f
00000090: 0000 803f 0000 803f 0000 803f 0000 803f
000000a0: 0000 803f 0000 803f 0000 803f 0000 803f
000000b0: 0000 803f 0000 803f 0000 803f 0000 803f
000000c0: 0000 803f 0000 803f 0000 803f 0000 803f
000000d0: 0000 803f 0000 803f 0000 803f 0000 803f
000000e0: 0000 803f 0000 803f 0000 803f 0000 803f
000000f0: 0000 803f 0000 803f 0000 803f 0000 803f
00000100: 0000 803f 0000 803f 0000 803f 0000 803f
00000110: 0000 803f 0000 803f 0000 803f 0000 803f
00000120: 0000 803f 0000 803f 0000 803f 0000 803f
00000130: 0000 803f 0000 803f 0000 803f 0000 803f

layers.0.1.mul.output_mask f4 [48]
1.0 1.0 1.0 1.0 1.0 1.0 1.0 1.0
1.0 1.0 1.0 1.0 1.0 1.0 1.0 1.0
1.0 1.0 1.0 1.0 1.0 1.0 1.0 1.0
1.0 1.0 1.0 1.0 1.0 1.0 1.0 1.0
1.0 1.0 1.0 1.0 1.0 1.0 1.0 1.0
1.0 1.0 1.0 1.0 1.0 1.0 1.0 1.0
00000000: 0000 803f 0000 803f 0000 803f 0000 803f
00000010: 0000 803f 0000 803f 0000 803f 0000 803f
00000020: 0000 803f 0000 803f 0000 803f 0000 803f
00000030: 0000 803f 0000 803f 0000 803f 0000 803f
00000040: 0000 803f 0000 803f 0000 803f 0000 803f
00000050: 0000 803f 0000 803f 0000 803f 0000 803f
00000060: 0000 803f 0000 803f 0000 803f 0000 803f
00000070: 0000 803f 0000 803f 0000 803f 0000 803f
00000080: 0000 803f 0000 803f 0000 803f 0000 803f
00000090: 0000 803f 0000 803f 0000 803f 0000 803f
000000a0: 0000 803f 0000 803f 0000 803f 0000 803f
000000b0: 0000 803f 0000 803f 0000 803f 0000 803f

layers.1.0.weight f4 [24576]
-0.7740412 -0.2957195 1.2408218 -0.0448614 2.1859996 -0.3279284 -0.3646281 -1.24631
0.60909265 0.7721577 -0.29222205 -1.9963341 -2.4900153 -0.034846317 0.5926322 1.5814809
-1.2863969 0.27472362 0.6724835 1.0637316 0.31925213 1.7251114 0.34236002 -0.9436693
-1.2244782 0.38956523 -2.0964081 -0.27014735 0.78484184 0.54084283 -1.2346728 0.1649782
-0.7811953 0.7723003 0.76582015 -0.81186116 0.8229121 0.25355762 -0.15285559 -0.51441973
0.035618413 2.1649117 -0.01726973 -2.305188 0.007820794 1.6166252 1.0057437 1.7008673
0.70046526 0.09976224 -0.80202997 1.3635963 -0.85405374 1.3493161 -1.1652926 0.4775187
0.72096384 0.33799753 0.48424318 -0.17794351 -0.9215373 -0.55773443 1.200394 -0.5984413
0.84145725 -1.1808823 -0.5345719 -0.5899226 -0.013577982 1.7791988 0.002381651 0.45693973
-0.29920122 -0.85359037 -0.32983202 2.804633 -1.4218405 0.19188413 1.6961942 2.4788454
-0.21734051 -0.653423 -0.35614306 -0.17611372 0.24616145 1.0786273 1.3182951 0.20218286
0.47729155 0.93212825 -0.26933557 1.0295228 0.27494606 0.42882743 -1.1756918 0.96818614
-1.7274923 -1.2814084 0.081762664 -1.9598504 -0.7658454 0.21520606 0.06263846 -0.2271498
1.1781743 0.9588555 -0.90378714 0.9504483 -0.7872342 -1.4464632 0.3374941 0.0472216
-0.40001222 -0.31670928 -0.13735795 -0.814129 -1.2043313 0.12377577 -0.6253788 -2.0485442
-0.0033827682 -1.5348161 -0.4660732 -1.7484747 -0.11221629 -0.43133166 -0.7777965 -1.2156122
0.23556632 1.8586929 0.55462223 -0.61341584 -0.97650325 0.7216739 1.6520562 0.30313042
0.14579429 1.5645994 -0.3362461 1.5507504 -0.59898865 0.6438375 0.67281204 -0.05575591
0.116329245 2.0729876 -2.5494082 -0.24262145 -0.32448986 0.6876413 -1.3585088 0.7795387
1.6381383 -0.8262491 0.21259956 -1.8176523 1.095867 1.630186 0.8358677 -1.0655261
0.2854669 -0.8531669 0.4722377 0.5215654 1.8809663 1.107522 -1.1901398 -1.2351917
-0.62920904 1.4433706 -0.24850026 -0.39268893 -1.2954855 0.4641378 -1.4056209 2.3344445
-1.6843822 -1.4655529 -0.9018943 0.57677525 -0.06134551 0.1004857 0.1645208 -1.3534365
0.24042489 2.679934 2.719811 -0.031962268 -1.7248275 1.5834147 -0.599284 0.5833263
0.44313845 -0.96284646 0.713674 -0.030338824 -1.8939619 -1.4216783 -0.3199315 -0.42608672
-0.07597311 0.45036724 -0.119578384 0.43424797 -0.48362818 0.84950346 1.01054 0.5131869
-0.08769218 1.8475035 -0.22946753 0.5601655 -1.6205119 0.817525 -1.4270536 0.7224185
0.33923483 0.13877097 0.9105787 -0.13216877 1.3518622 0.43069726 0.6519951 2.2296393
1.0888463 0.87170494 0.25044134 -0.32486182 0.11761535 -0.13284756 -1.4608821 1.3748618
0.8675088 1.349856 0.93822443 0.06749992 -0.17831835 -0.03351145 -1.2032869 -0.41341773
0.2030445 -1.0959914 0.86928356 0.4009673 -1.4690115 1.1937335 1.0261844 -1.0575317
-0.23978537 -0.83208454 -0.026547147 -1.3000538 0.57233024 1.581717 -1.9026382 -2.203695
00000000: 9027 46bf 8c68 97be 40d3 9e3f 96c0 37bd
00000010: 6be7 0b40 3be6 a7be 89b0 babe 1687 9fbf
00000020: 7fed 1b3f 21ac 453f 219e 95be e087 ffbf
00000030: 695c 1fc0 03bb 0ebd beb6 173f f76d ca3f
00000040: a7a8 a4bf 93a8 8c3e e127 2c3f 5b28 883f
00000050: 0475 a33e 73d0 dc3f d049 af3e 5094 71bf
00000060: b4bb 9cbf 1875 c73e 8d2b 06c0 c150 8abe
00000070: 65eb 483f ad74 0a3f c209 9ebf 0cf0 283e
00000080: 6afc 47bf 79b5 453f ca0c 443f 22d6 4fbf
00000090: 5eaa 523f 4ed2 813e 2d86 1cbe 03b1 03bf
000000a0: 9de4 113d ea8d 0a40 4079 8dbc 3388 13c0
000000b0: ca22 003c 93ed ce3f 36bc 803f 05b6 d93f
000000c0: b151 333f 2550 cc3d d651 4dbf 538a ae3f
000000d0: 44a3 5abf 64b6 ac3f 4f28 95bf 557d f43e
000000e0: 1691 383f 030e ad3e b9ee f73e d336 36be
000000f0: dee9 6bbf afc7 0ebf 83a6 993f 7333 19bf
00000100: be69 573f 2727 97bf b4d9 08bf 2b05 17bf
00000110: 2f76 5ebc c9bc e33f 7915 1c3b 01f4 e93e
00000120: e730 99be e684 5abf bedf a8be 1b7f 3340
00000130: dffe b5bf 467d 443e e41c d93f 67a5 1e40
00000140: 838e 5ebe bb46 27bf 6258 b6be 2857 34be
00000150: bf11 7c3e 7610 8a3f e5bd a83f 0609 4f3e
00000160: 8f5f f43e f59f 6e3f 5ae6 89be 67c7 833f
00000170: bbc5 8c3e 458f db3e 127d 96bf 0cdb 773f
00000180: 781e ddbf 3105 a4bf 2f73 a73d 61dc fabf
00000190: 720e 44bf fa5e 5c3e 9848 803d f599 68be
000001a0: 6ace 963f 8e77 753f 985e 67bf 9450 733f
000001b0: 2e88 49bf b525 b9bf 07cc ac3e 706b 413d
000001c0: 67ce ccbe b827 a2be 90a7 0cbe c26a 50bf
000001d0: 8727 9abf 277e fd3d d318 20bf 591b 03c0
000001e0: 6fb1 5dbb db74 c4bf 25a1 eebe 05ce dfbf
000001f0: a7d1 e5bd 81d7 dcbe ac1d 47bf 2e99 9bbf
00000200: 4c38 713e a6e9 ed3f b9fb 0d3f d208 1dbf
00000210: 1efc 79bf 9fbf 383f 9476 d33f e933 9b3e
00000220: 194b 153e cb44 c83f 7328 acbe fd7e c63f
00000230: 5257 19bf 89d2 243f 693d 2c3f 4f60 64bd
00000240: 073e ee3d d4ab 0440 8129 23c0 c271 78be
00000250: 8923 a6be 4309 303f 9ee3 adbf d98f 473f
00000260: 84ae d13f 1085 53bf b3b3 593e d5a8 e8bf
00000270: 5f45 8c3f efa9 d03f 6dfb 553f 2963 88bf
00000280: b828 923e 2569 5abf 24c9 f13e 4f85 053f
00000290: 81c3 f03f 48c3 8d3f 8056 98bf c31a 9ebf
000002a0: d813 21bf 5ec0 b83f da76 7ebe 860e c9be
000002b0: 78d2 a5bf 78a3 ed3e 63eb b3bf 8a67 1540
000002c0: d699 d7bf 3d97 bbbf 8be2 66bf 8ba7 133f
000002d0: 6e45 7bbd 72cb cd3d 2478 283e 683d adbf
000002e0: f131 763e 0a84 2b40 6211 2e40 deea 02bd
000002f0: 26c7 dcbf 55ad ca3f ad6a 19bf df54 153f
00000300: 0be3 e23e 1b7d 76bf 57b3 363f 2089 f8bc
00000310: 586d f2bf 8ef9 b5bf 10ce a3be 0a28 dabe
00000320: ca97 9bbd 8996 e63e 83e5 f4bd c055 de3e
00000330: 1d9e f7be 0f79 593f 6059 813f 3760 033f
00000340: f597 b3bd ff7a ec3f 89f9 6abe 0267 0f3f
00000350: ef6c cfbf 5249 513f b1a9 b6bf 6bf0 383f
00000360: 30b0 ad3e fa19 0e3e b01b 693f 4057 07be
00000370: d209 ad3f 5a84 dc3e 27e9 263f 69b2 0e40
00000380: 515f 8b3f 0e28 5f3f d939 803e 4a54 a6be
00000390: 51e0 f03d 3109 08be 2ffe babf 79fb af3f
000003a0: 0f15 5e3f 15c8 ac3f 7a2f 703f 663d 8a3d
000003b0: 1699 36be 4d43 09bd 4e05 9abf 7dab d3be
000003c0: e6ea 4f3e 7249 8cbf 5e89 5e3f 964b cd3e
000003d0: 9208 bcbf 42cc 983f 035a 833f 335d 87bf
000003e0: 4c8a 75be 7e03 55bf 6779 d9bc 2a68 a6bf
000003f0: 3c84 123f b475 ca3f a689 f3bf 5709 0dc0

layers.1.0.output_mask f4 [80]
1.0 1.0 1.0 1.0 1.0 1.0 1.0 1.0
1.0 1.0 1.0 1.0 1.0 1.0 1.0 1.0
1.0 1.0 1.0 1.0 1.0 1.0 1.0 1.0
1.0 1.0 1.0 1.0 1.0 1.0 1.0 1.0
1.0 1.0 1.0 1.0 1.0 1.0 1.0 1.0
1.0 1.0 1.0 1.0 1.0 1.0 1.0 1.0
1.0 1.0 1.0 1.0 1.0 1.0 1.0 1.0
1.0 1.0 1.0 1.0 1.0 1.0 1.0 1.0
1.0 1.0 1.0 1.0 1.0 1.0 1.0 1.0
1.0 1.0 1.0 1.0 1.0 1.0 1.0 1.0
00000000: 0000 803f 0000 803f 0000 803f 0000 803f
00000010: 0000 803f 0000 803f 0000 803f 0000 803f
00000020: 0000 803f 0000 803f 0000 803f 0000 803f
00000030: 0000 803f 0000 803f 0000 803f 0000 803f
00000040: 0000 803f 0000 803f 0000 803f 0000 803f
00000050: 0000 803f 0000 803f 0000 803f 0000 803f
00000060: 0000 803f 0000 803f 0000 803f 0000 803f
00000070: 0000 803f 0000 803f 0000 803f 0000 803f
00000080: 0000 803f 0000 803f 0000 803f 0000 803f
00000090: 0000 803f 0000 803f 0000 803f 0000 803f
000000a0: 0000 803f 0000 803f 0000 803f 0000 803f
000000b0: 0000 803f 0000 803f 0000 803f 0000 803f
000000c0: 0000 803f 0000 803f 0000 803f 0000 803f
000000d0: 0000 803f 0000 803f 0000 803f 0000 803f
000000e0: 0000 803f 0000 803f 0000 803f 0000 803f
000000f0: 0000 803f 0000 803f 0000 803f 0000 803f
00000100: 0000 803f 0000 803f 0000 803f 0000 803f
00000110: 0000 803f 0000 803f 0000 803f 0000 803f
00000120: 0000 803f 0000 803f 0000 803f 0000 803f
00000130: 0000 803f 0000 803f 0000 803f 0000 803f

layers.1.1.mul.output_mask f4 [48]
1.0 1.0 1.0 1.0 1.0 1.0 1.0 1.0
1.0 1.0 1.0 1.0 1.0 1.0 1.0 1.0
1.0 1.0 1.0 1.0 1.0 1.0 1.0 1.0
1.0 1.0 1.0 1.0 1.0 1.0 1.0 1.0
1.0 1.0 1.0 1.0 1.0 1.0 1.0 1.0
1.0 1.0 1.0 1.0 1.0 1.0 1.0 1.0
00000000: 0000 803f 0000 803f 0000 803f 0000 803f
00000010: 0000 803f 0000 803f 0000 803f 0000 803f
00000020: 0000 803f 0000 803f 0000 803f 0000 803f
00000030: 0000 803f 0000 803f 0000 803f 0000 803f
00000040: 0000 803f 0000 803f 0000 803f 0000 803f
00000050: 0000 803f 0000 803f 0000 803f 0000 803f
00000060: 0000 803f 0000 803f 0000 803f 0000 803f
00000070: 0000 803f 0000 803f 0000 803f 0000 803f
00000080: 0000 803f 0000 803f 0000 803f 0000 803f
00000090: 0000 803f 0000 803f 0000 803f 0000 803f
000000a0: 0000 803f 0000 803f 0000 803f 0000 803f
000000b0: 0000 803f 0000 803f 0000 803f 0000 803f

layers.2.0.weight f4 [24576]
1.4817567 -0.3555681 -0.6118382 -0.2298239 0.7952791 0.65388477 -1.1176683 -0.83667064
-0.38979736 0.35788217 -1.108435 0.5435846 -1.3013476 -0.97650385 -0.6273534 -0.62262267
1.5129945 -0.89087087 0.6146088 -0.21760532 0.94388324 -0.32580873 -1.6856968 0.0035341764
0.5905438 -0.18401125 -1.7947167 0.78468096 -1.0742729 1.668918 0.9578377 0.8498361
1.1522745 0.031360425 -2.0356185 1.3379853 -0.58819056 2.1615844 0.8025597 0.5543718
-1.4330673 -0.009261159 -1.509227 0.6628676 -0.11108491 0.80110127 -0.03979133 -0.6971617
-0.10517628 -1.2125356 -1.3757195 -1.4039941 0.39483425 -0.3414942 -0.46641073 -0.33520564
0.019797906 0.8038792 -0.9858704 0.6922374 0.44956478 -0.22388783 1.6892912 -0.35091746
0.29887262 0.18115473 0.4917612 -1.338617 1.4694351 1.8720462 -1.3503122 1.2453389
2.525204 0.29342696 0.28268385 0.36773038 -1.766563 -1.8984152 -0.64398575 0.77533346
0.6202865 0.31687805 -0.21590039 1.0793601 0.43055132 0.42438897 -0.13204281 0.08905164
0.8681876 0.7127422 0.83290005 0.08607863 2.3188748 -0.5124239 0.7365071 0.6078938
-0.24169599 0.76538527 0.79269713 1.3803979 -0.48646662 1.022068 1.305294 -2.5358124
0.7585857 1.3661578 -0.16926047 -1.411085 -0.5088296 0.7850258 2.7108912 0.38118863
0.76913685 -2.2301319 -1.4149268 -2.8653455 2.1743526 -0.2446752 -0.25546628 2.2892585
-1.4947797 0.4947094 0.9282829 -2.045294 -0.09390903 1.4489788 1.0294816 -1.5799787
2.598369 -0.3890003 0.27614602 0.1605399 1.7916892 0.037696507 0.39079538 -0.08963079
-0.9071435 1.2754717 0.15187511 0.74097806 1.7317811 0.17805605 0.74728644 0.6103946
2.0702863 -0.15089566 0.5866602 -0.24438608 1.0921645 -1.1854917 0.20124993 0.047643565
0.8929332 1.850283 0.6666657 0.9104821 0.42495215 0.5513174 0.58338195 -0.0046256017
0.6951687 -0.026834441 0.53695583 -1.4469415 -0.8329691 1.390697 0.98396343 0.3664093
-0.94737536 0.27220872 -1.604027 0.005143996 0.13790984 0.2861007 0.25409168 -1.7592405
1.4741646 0.8629703 -0.38801715 -0.74767137 -0.0007825198 0.53983223 -0.09753052 -0.48929012
-0.661537 1.9976269 -1.1936222 0.35279205 -0.077034116 -0.7998665 1.4674004 0.28406537
0.60674846 -3.4771583 1.5826684 -0.194479 0.30018243 -0.27370375 -0.16203289 0.47764775
-1.2969248 -1.2245342 -1.0993242 0.741011 -0.1768127 0.27566394 0.7007585 -0.32884207
1.4486561 0.2413323 0.91030073 0.19400932 0.03973147 -1.921309 -1.0785269 -0.8493052
-0.93890035 1.7439891 1.2050874 2.3425455 1.9927623 -0.8024165 0.8501867 1.3089294
0.4139054 -1.0271138 -0.1403013 2.8254533 -0.77420914 0.5724762 -0.17738399 -0.2947689
-2.8449402 0.64089406 2.6308784 -0.22841792 -1.669791 -0.010308102 0.0051029962 2.063707
0.36226785 -0.88077 -1.1929214 -0.9140527 1.659365 0.4287267 -0.3983356 0.34991416
0.16167021 -2.197793 -0.0020221935 -1.6142868 -0.7074013 -0.3081266 0.5434991 0.11979723
00000000: 34aa bd3f 060d b6be 6ea1 1cbf f556 6bbe
00000010: 6997 4b3f fe64 273f c10f 8fbf 0c30 56bf
00000020: 8593 c7be 553c b73e 33e1 8dbf 5c28 0b3f
00000030: 8f92 a6bf 28fc 79bf 3c9a 20bf 3364 1fbf
00000040: cea9 c13f 1d10 64bf 0157 1d3f eed3 5ebe
00000050: 55a2 713f 67d0 a6be eac4 d7bf a49d 673b
00000060: e12d 173f 726d 3cbe 47b9 e5bf dae0 483f
00000070: c681 89bf 1b9f d53f da34 753f dc8e 593f
00000080: bb7d 933f ca73 003d 9347 02c0 1a43 ab3f
00000090: a893 16bf 6657 0a40 8d74 4d3f 4feb 0d3f
000000a0: c06e b7bf 1ebc 17bc 5a2e c1bf b1b1 293f
000000b0: 7c80 e3bd f914 4d3f 3cfc 22bd 3079 32bf
000000c0: a966 d7bd 5e34 9bbf 9417 b0bf 14b6 b3bf
000000d0: b727 ca3e 54d8 aebe 63cd eebe 13a0 abbe
000000e0: 382f a23c 07cb 4d3f 0162 7cbf 7836 313f
000000f0: 5b2d e63e da42 65be b23a d83f 74ab b3be
00000100: d505 993e a080 393e 20c8 fb3e cd57 abbf
00000110: 7316 bc3f 369f ef3f 08d7 acbf 4467 9f3f
00000120: f19c 2140 0f3c 963e f0bb 903e 2847 bc3e
00000130: bd1e e2bf 45ff f2bf 40dc 24bf 417c 463f
00000140: 19cb 1e3f d73d a23e fe14 5dbe 7928 8a3f
00000150: 3971 dc3e 8349 d93e 3b36 07be b560 b63d
00000160: 8b41 5e3f 4676 363f f038 553f fe49 b03d
00000170: 7268 1440 362e 03bf bb8b 3c3f ee9e 1b3f
00000180: 277f 77be 4af0 433f 33ee 4a3f e1b0 b03f
00000190: 2712 f9be 20d3 823f e013 a73f c04a 22c0
000001a0: ac32 423f 42de ae3f 9e52 2dbe 6f9e b4bf
000001b0: a842 02bf 73f7 483f 3e7f 2d40 282b c33e
000001c0: 27e6 443f 7bba 0ec0 521c b5bf d261 37c0
000001d0: 9828 0b40 238c 7abe 7acc 82be 3683 1240
000001e0: f154 bfbf 8d4a fd3e f3a3 6d3f 19e6 02c0
000001f0: 6153 c0bd 2378 b93f 0ec6 833f be3c cabf
00000200: ad4b 2640 0c2b c7be 0363 8d3e 9264 243e
00000210: 1256 e53f a767 1a3d 5516 c83e 5990 b7bd
00000220: 8e3a 68bf a842 a33f 2685 1b3e bdb0 3d3f
00000230: 01ab dd3f 5354 363e 2a4e 3f3f d242 1c3f
00000240: 927f 0440 6484 1abe 5d2f 163f 5840 7abe
00000250: 0ccc 8b3f 31be 97bf 7614 4e3e e625 433d
00000260: 4597 643f 13d6 ec3f 9aaa 2a3f 5b15 693f
00000270: 5493 d93e 2323 0d3f 8558 153f 5c92 97bb
00000280: 93f6 313f e7d3 dbbc f075 093f 6135 b9bf
00000290: 773d 55bf 5c02 b23f 07e5 7b3f 009a bb3e
000002a0: 3187 72bf f15e 8b3e c250 cdbf f78e a83b
000002b0: 3d38 0d3e ca7b 923e 4e18 823e cb2e e1bf
000002c0: 6db1 bc3f 9feb 5c3f 2faa c6be 6467 3fbf
000002d0: 0422 4dba 7232 0a3f 15be c7bd 3c84 fabe
000002e0: 7d5a 29bf 3db2 ff3f 9dc8 98bf 29a1 b43e
000002f0: 10c4 9dbd 0dc4 4cbf c7d3 bb3f 0471 913e
00000300: de53 1b3f c389 5ec0 e194 ca3f 8125 47be
00000310: 83b1 993e e622 8cbe f3eb 25be 3f8e f43e
00000320: a201 a6bf 89bd 9cbf a8b6 8cbf e6b2 3d3f
00000330: 630e 35be d323 8d3e e964 333f fd5d a8be
00000340: 906d b93f d01f 773e 7809 693f 61aa 463e
00000350: 77bd 223d 74ed f5bf 2b0d 8abf 116c 59bf
00000360: c65b 70bf 093b df3f 4e40 9a3f 44ec 1540
00000370: d612 ff3f 2b6b 4dbf d6a5 593f 008b a73f
00000380: 69eb d33e 7778 83bf 25ab 0fbe 3ad4 3440
00000390: 9232 46bf cd8d 123f 26a4 35be f3eb 96be
000003a0: 8013 36c0 a211 243f 5060 2840 63e6 69be
000003b0: b6bb d5bf 50e3 28bc 0937 a73b c713 0440
000003c0: 2c7b b93e 257a 61bf a6b1 98bf 5cff 69bf
000003d0: 1366 d43f 1182 db3e a5f2 cbbe f327 b33e
000003e0: e08c 253e a4a8 0cc0 c786 04bb f3a0 cebf
000003f0: 4018 35bf c5c2 9dbe c222 0b3f 4058 f53d

layers.2.0.output_mask f4 [80]
1.0 1.0 1.0 1.0 1.0 1.0 1.0 1.0
1.0 1.0 1.0 1.0 1.0 1.0 1.0 1.0
1.0 1.0 1.0 1.0 1.0 1.0 1.0 1.0
1.0 1.0 1.0 1.0 1.0 1.0 1.0 1.0
1.0 1.0 1.0 1.0 1.0 1.0 1.0 1.0
1.0 1.0 1.0 1.0 1.0 1.0 1.0 1.0
1.0 1.0 1.0 1.0 1.0 1.0 1.0 1.0
1.0 1.0 1.0 1.0 1.0 1.0 1.0 1.0
1.0 1.0 1.0 1.0 1.0 1.0 1.0 1.0
1.0 1.0 1.0 1.0 1.0 1.0 1.0 1.0
00000000: 0000 803f 0000 803f 0000 803f 0000 803f
00000010: 0000 803f 0000 803f 0000 803f 0000 803f
00000020: 0000 803f 0000 803f 0000 803f 0000 803f
00000030: 0000 803f 0000 803f 0000 803f 0000 803f
00000040: 0000 803f 0000 803f 0000 803f 0000 803f
00000050: 0000 803f 0000 803f 0000 803f 0000 803f
00000060: 0000 803f 0000 803f 0000 803f 0000 803f
00000070: 0000 803f 0000 803f 0000 803f 0000 803f
00000080: 0000 803f 0000 803f 0000 803f 0000 803f
00000090: 0000 803f 0000 803f 0000 803f 0000 803f
000000a0: 0000 803f 0000 803f 0000 803f 0000 803f
000000b0: 0000 803f 0000 803f 0000 803f 0000 803f
000000c0: 0000 803f 0000 803f 0000 803f 0000 803f
000000d0: 0000 803f 0000 803f 0000 803f 0000 803f
000000e0: 0000 803f 0000 803f 0000 803f 0000 803f
000000f0: 0000 803f 0000 803f 0000 803f 0000 803f
00000100: 0000 803f 0000 803f 0000 803f 0000 803f
00000110: 0000 803f 0000 803f 0000 803f 0000 803f
00000120: 0000 803f 0000 803f 0000 803f 0000 803f
00000130: 0000 803f 0000 803f 0000 803f 0000 803f

layers.2.1.mul.output_mask f4 [48]
1.0 1.0 1.0 1.0 1.0 1.0 1.0 1.0
1.0 1.0 1.0 1.0 1.0 1.0 1.0 1.0
1.0 1.0 1.0 1.0 1.0 1.0 1.0 1.0
1.0 1.0 1.0 1.0 1.0 1.0 1.0 1.0
1.0 1.0 1.0 1.0 1.0 1.0 1.0 1.0
1.0 1.0 1.0 1.0 1.0 1.0 1.0 1.0
00000000: 0000 803f 0000 803f 0000 803f 0000 803f
00000010: 0000 803f 0000 803f 0000 803f 0000 803f
00000020: 0000 803f 0000 803f 0000 803f 0000 803f
00000030: 0000 803f 0000 803f 0000 803f 0000 803f
00000040: 0000 803f 0000 803f 0000 803f 0000 803f
00000050: 0000 803f 0000 803f 0000 803f 0000 803f
00000060: 0000 803f 0000 803f 0000 803f 0000 803f
00000070: 0000 803f 0000 803f 0000 803f 0000 803f
00000080: 0000 803f 0000 803f 0000 803f 0000 803f
00000090: 0000 803f 0000 803f 0000 803f 0000 803f
000000a0: 0000 803f 0000 803f 0000 803f 0000 803f
000000b0: 0000 803f 0000 803f 0000 803f 0000 803f

readout.weight f4 [16]
0.76242477 0.3937838 -0.40416136 0.45507026 -1.7991127 -0.795958 -0.101197176 -0.91892284
-0.69204456 0.72010005 -0.5811364 0.3783649 0.30157635 0.16863966 2.375499 0.43326494
00000000: 452e 433f 089e c93e 3dee cebe f8fe e83e
00000010: 5349 e6bf e7c3 4bbf 7740 cfbd 873e 6bbf
00000020: d529 31bf 7a58 383f 5bc5 14bf 0bb9 c13e
00000030: 3768 9a3e e0af 2c3e 2d08 1840 e7d4 dd3e
