egnn_model_37.pth (torch, 305442 bytes, 12 tensors)

input_proj.weight f4 [256]
000000 8c 14 bd bf f9 d9 70 3e b2 50 40 bf 6c 42 24 3f
       -1.4771895 0.2352065 -0.7512313 0.6416385
000010 95 4b 1c 3f e0 10 ad 3f 0c d4 b3 bc 86 33 0d 3e
       0.6105283 1.3520775 -0.021951698 0.13789186
000020 32 81 57 bf 1a ec b8 bf 9c 7f d2 3f 36 69 b5 3f
       -0.8418151 -1.4447052 1.6445193 1.4172733
000030 73 09 19 be 72 c2 bf bf 7c 84 74 bf 83 86 65 bf
       -0.14945011 -1.4981215 -0.95514655 -0.89658374
000040 d3 90 09 3f 86 c4 2b c0 53 fb 59 bf f9 e5 0f be
       0.5373661 -2.6838698 -0.85149115 -0.14052571
000050 67 40 ad 3f 1e 87 07 bf c7 1e 7e bf f0 c3 73 3f
       1.3535279 -0.5294055 -0.9926571 0.9522085
000060 c9 ad 89 3f da c7 0e c0 f3 79 fa 3e 1c 34 c6 3f
       1.075616 -2.230948 0.48921165 1.5484653
000070 04 98 ab bf ca f6 54 3f 95 4c b1 bf 31 01 83 3e
       -1.3405766 0.8318907 -1.3851496 0.25586846
000080 ac 0b 34 3e c7 aa ca be 79 f3 02 40 9f 8c 81 3f
       0.17582577 -0.39583418 2.0461104 1.0121039
000090 c7 37 6a 3e f2 7b c7 3f 91 09 f4 3e ae 13 d1 3f
       0.2287284 1.55847 0.4766355 1.6334131
0000a0 f8 cd e0 3e 7b 96 92 be f4 ff 35 bf 49 36 16 40
       0.43907142 -0.28630432 -0.7109368 2.3470633
0000b0 bc f1 72 bf 21 7b 41 3f 30 4c e6 3e 75 ab 39 be
       -0.9490011 0.75578505 0.4498 -0.18131812
0000c0 ca 9d 96 bf a5 5f 1f 40 1d 67 ec bf 7e ac 38 40
       -1.1766903 2.4902127 -1.8468968 2.885528
0000d0 d7 88 5b 3d 09 f5 7f 3d e1 77 1a 3f c3 21 a0 bf
       0.053597298 0.062489543 0.6033917 -1.2510303
0000e0 b2 9a a7 3f 37 92 a8 bf cd 4f 2a bd 90 59 35 3f
       1.3094084 -1.3169621 -0.04158001 0.70839787
0000f0 0c 9e e6 3f e2 76 b1 3f 32 4c 76 bf 45 10 b2 bf
       1.8016982 1.3864405 -0.96210015 -1.3911215
000100 2b 1a 79 bf aa 41 01 40 5c 1e 26 bf 2b a7 f0 be
       -0.97305554 2.0196328 -0.64890075 -0.4700254
000110 9f bf 04 3f 1a 16 b5 bf ba d8 da bf f7 b4 8e bf
       0.5185489 -1.414737 -1.709739 -1.1148976
000120 a2 13 e5 bc bf 4a 54 3f 7e e2 1b 40 41 fd 04 3e
       -0.027963463 0.82926553 2.435699 0.12987234
000130 54 86 c6 3e 29 85 b8 3e a8 eb e1 3e 3d 76 32 bf
       0.3877436 0.36039093 0.44125104 -0.6971167
000140 d2 01 eb be f5 7e 21 3f 69 23 3e bf b3 b6 62 3f
       -0.45899826 0.63084346 -0.7427278 0.88560027
000150 eb dc c2 3f 43 ae 38 bf bc 31 cd 3f b2 95 e5 be
       1.5223669 -0.721409 1.6030803 -0.4484077
000160 8b 57 99 be 4f 60 d5 bf ca 3b fe be 6c 23 92 3f
       -0.29949602 -1.6670016 -0.4965499 1.141706
000170 67 e3 79 be b6 23 ca bf 3f ab d1 bf eb f7 b4 3f
       -0.24403153 -1.5792148 -1.6380385 1.4138159
000180 01 ca 9c 3e dd 8d be 3e a2 64 7c 3f f3 05 eb 3e
       0.30622867 0.37217608 0.98591053 0.45902976
000190 7d 22 dc be 49 87 63 3e c7 46 60 3f 34 60 af bf
       -0.42995062 0.22219576 0.87608 -1.3701234
0001a0 6e 10 25 3f e2 61 31 40 9a ed 7e bf ee 9a 2d bf
       0.64478195 2.7715993 -0.995813 -0.6781453
0001b0 a6 b0 d3 be 75 01 4b bf c1 86 9e 3f 01 f6 7d bf
       -0.4134571 -0.792991 1.2384874 -0.992035
0001c0 2e 2b ef 3f c0 ce f3 3d 22 47 b7 bf 32 97 03 c0
       1.8685052 0.11904669 -1.4318583 -2.0561032
0001d0 ef 28 61 bf 23 2a bb 3f 5f fc b1 3d 9b 19 ad bf
       -0.87953085 1.4622234 0.08690714 -1.3523439
0001e0 f2 94 a1 bd 59 6c bd 3e de b1 a7 3f 43 74 b3 bf
       -0.07889737 0.36996725 1.3101156 -1.4019855
0001f0 7b f5 a2 bf 88 48 99 3e cc 3c 7b bf 5b 29 a5 3e
       -1.2731165 0.2993815 -0.98139644 0.32258114
000200 26 12 6e bf e7 1c 0c bf 37 f9 52 3f 04 c0 28 bf
       -0.9299644 -0.547316 0.8241152 -0.6591799
000210 4e bc ac be e4 0b f8 bf f8 51 92 3f 2f 88 82 be
       -0.33737415 -1.9378629 1.1431265 -0.25494525
000220 24 bf 1f be a5 16 4b be 9a 5a 95 3f bd 96 cb 3e
       -0.15600258 -0.19832857 1.1668274 0.39763442
000230 c3 db 1f bf 21 5f 96 3f 9c 72 91 3e 42 ce b1 bf
       -0.62444705 1.1747781 0.28407753 -1.389107
000240 a2 9d 20 bd 49 01 57 be 02 0a 38 3f a5 57 11 3f
       -0.03921283 -0.20996584 0.7189027 0.5677436
000250 53 13 b7 3f 0e 2f 56 be c7 68 85 3d ad e1 15 bf
       1.4302772 -0.20916387 0.06514125 -0.5854748
000260 9c c5 05 c0 9e e0 2d bf 46 d3 97 bc 46 5d 80 3f
       -2.090186 -0.67920864 -0.01853336 1.0028465
000270 1d 39 5c bf 7b 3b 35 3f 60 fc 9f 3f 8e d0 78 3e
       -0.8602465 0.70793885 1.2498894 0.24298307
000280 5f 88 40 3f c1 e1 b0 bf 74 5f 32 3f be 89 aa bf
       0.75208086 -1.3818895 0.696769 -1.3323286
000290 a7 c0 e8 3f 8c 98 74 3e e3 c2 aa bf 2b 04 a2 3f
       1.8183793 0.23886317 -1.3340725 1.2657522
0002a0 46 ac 93 bf ae d1 60 3f 52 2b 3d be 13 4a b1 3f
       -1.1536949 0.87819946 -0.18473557 1.3850731
0002b0 e5 ee 97 3f a8 22 19 3d 7f b2 07 be ae 50 13 40
       1.186978 0.037386566 -0.13251685 2.3017993
0002c0 6f 50 62 bf e7 36 c4 bf ef b0 44 be 6f 21 5c bf
       -0.8840398 -1.5329255 -0.1920812 -0.85988516
0002d0 e9 72 9b be aa c3 df 3e fb 64 7a 3e 98 1e fd 3f
       -0.30361107 0.43703967 0.24452583 1.9774961
0002e0 81 fa 1e 3f df d0 07 3f fc 0e 4e 3f ae c1 05 c0
       0.6210099 0.53053087 0.80491614 -2.0899463
0002f0 a7 50 e5 3d da 05 5a bf 71 31 16 3e d2 f4 03 c0
       0.11197024 -0.8516518 0.14667298 -2.0618176
000300 ec 26 f1 3f f1 9f a5 3f 33 10 3e c0 68 cb 60 be
       1.8840003 1.2939435 -2.9697387 -0.21952593
000310 86 88 81 be 25 43 bf bf ed ff ac bf 46 60 c9 bd
       -0.25299472 -1.4942366 -1.3515602 -0.09832816
000320 67 49 a2 3f 4b 57 c9 3e 44 eb 9c bd fb 14 7e 3f
       1.2678651 0.39324412 -0.07662061 0.99250764
000330 84 d8 a4 bf 6b d0 88 bf e0 81 52 3e da 54 79 3f
       -1.2878575 -1.0688604 0.20557356 0.973951
000340 c5 67 d7 3e c9 f7 35 3e 94 37 e0 3e 44 cf 43 3f
       0.42071357 0.17770304 0.43792403 0.7648814
000350 5f 81 94 3f 32 0d 3f bf d2 b1 a9 3f 25 c7 fe bf
       1.1601981 -0.7462951 1.3257391 -1.9904524
000360 89 2a e9 be 7b 26 1e be 54 3b 8e 3e 47 d4 77 bf
       -0.45540264 -0.15444367 0.2777964 -0.96808285
000370 3e 96 ea bd 22 ce 45 3e 52 8e 4a 3e 6c 96 a0 bf
       -0.11454438 0.19316915 0.19780853 -1.2545905
000380 39 a2 56 3b 9e 33 5c bf 7f 92 f2 bc 65 d4 c2 be
       0.00327505 -0.8601626 -0.02961087 -0.3805267
000390 fc fb f9 3f a8 53 2f 3f 1e 12 19 3d 57 12 9e bf
       1.9530025 0.68487024 0.037370794 -1.2349347
0003a0 55 35 24 bd 81 12 37 3f ef 80 6b bf bc 9e 25 3f
       -0.040089924 0.7151261 -0.9199361 0.64695334
0003b0 bf b0 2c c0 3b 51 34 bf 4a 0f fa be ad 4d a2 3f
       -2.6982877 -0.7043645 -0.4883979 1.2679955
0003c0 6b b7 80 bd d1 7d 8a 3e 01 d3 d1 bf e6 c8 01 c0
       -0.06284984 0.27049115 -1.6392518 -2.0278869
0003d0 e1 19 d1 bf 6f 87 a5 3d aa 1d 26 3f 71 d2 97 bf
       -1.6336023 0.080824725 0.64889014 -1.1861097
0003e0 31 9e 73 3f 82 90 b1 3e 44 4b 3a 3f d2 ef 8c bf
       0.95163256 0.34680563 0.72771096 -1.1010687
0003f0 f6 09 33 3e 00 f3 53 3f d8 c7 86 bf 43 f9 6f 3c
       0.17484269 0.82792664 -1.0529737 0.014646831

input_proj.output_mask f4 [64]
000000 00 00 80 3f 00 00 80 3f 00 00 80 3f 00 00 80 3f
       1.0 1.0 1.0 1.0
000010 00 00 80 3f 00 00 80 3f 00 00 80 3f 00 00 80 3f
       1.0 1.0 1.0 1.0
000020 00 00 80 3f 00 00 80 3f 00 00 80 3f 00 00 80 3f
       1.0 1.0 1.0 1.0
000030 00 00 80 3f 00 00 80 3f 00 00 80 3f 00 00 80 3f
       1.0 1.0 1.0 1.0
000040 00 00 00 00 00 00 00 00 00 00 00 00 00 00 00 00
       0.0 0.0 0.0 0.0
000050 00 00 00 00 00 00 00 00 00 00 00 00 00 00 00 00
       0.0 0.0 0.0 0.0
000060 00 00 00 00 00 00 00 00 00 00 00 00 00 00 00 00
       0.0 0.0 0.0 0.0
000070 00 00 00 00 00 00 00 00 00 00 00 00 00 00 00 00
       0.0 0.0 0.0 0.0
000080 00 00 00 00 00 00 00 00 00 00 00 00 00 00 00 00
       0.0 0.0 0.0 0.0
000090 00 00 00 00 00 00 00 00 00 00 00 00 00 00 00 00
       0.0 0.0 0.0 0.0
0000a0 00 00 00 00 00 00 00 00 00 00 00 00 00 00 00 00
       0.0 0.0 0.0 0.0
0000b0 00 00 00 00 00 00 00 00 00 00 00 00 00 00 00 00
       0.0 0.0 0.0 0.0
0000c0 00 00 00 00 00 00 00 00 00 00 00 00 00 00 00 00
       0.0 0.0 0.0 0.0
0000d0 00 00 00 00 00 00 00 00 00 00 00 00 00 00 00 00
       0.0 0.0 0.0 0.0
0000e0 00 00 00 00 00 00 00 00 00 00 00 00 00 00 00 00
       0.0 0.0 0.0 0.0
0000f0 00 00 00 00 00 00 00 00 00 00 00 00 00 00 00 00
       0.0 0.0 0.0 0.0

layers.0.0.weight f4 [24576]
000000 fb 20 72 be a8 cf 88 bf 59 0b ac bd 33 ca 72 be
       -0.23645394 -1.0688372 -0.08400602 -0.23709945
000010 d8 49 49 3f 7c f9 89 3f 79 7f ee 3f 07 6c 90 3e
       0.786283 1.0779262 1.8632652 0.28207418
000020 5a 64 6c 3f 23 37 a7 3e f8 11 8c bf f3 1d b6 be
       0.92340624 0.32659253 -1.0942984 -0.35569724
000030 af 57 f4 bf 7b 0e 86 bf 0a bb 66 bf 70 0e ba 3f
       -1.9089259 -1.0473169 -0.9012915 1.4535656
000040 c6 19 a4 3e f0 58 13 bf ad 8d b1 bf c6 2b be 3f
       0.32050914 -0.5755758 -1.3871361 1.4857109
000050 b3 f0 61 bf 51 1e b3 bf 1c 08 16 bf c6 1e a6 bd
       -0.882579 -1.3993627 -0.58606124 -0.08111338
000060 a2 df 48 3e 8b 66 c5 3e 8a 33 71 3f d8 1f d4 be
       0.19616559 0.38554797 0.9421927 -0.41430545
000070 9a 47 fa 3e 22 08 c7 bf 80 7a 6e bf 3f a8 e7 3e
       0.48882753 -1.5549357 -0.9315567 0.4524555
000080 f0 8f 26 3f 33 b2 32 bf 85 79 ee bd 60 2c e1 bd
       0.6506338 -0.6980316 -0.11644272 -0.10994792
000090 25 2a a4 bd 5b d5 04 3e 20 b2 38 3e 8b 55 e2 bf
       -0.08015851 0.12972014 0.180367 -1.7682356
0000a0 0a 8b 6e 3e 6a 4f ce 3e 76 81 d2 bf 39 03 33 be
       0.23295227 0.40294963 -1.6445758 -0.17481698
0000b0 0a 36 bc bf 8a c8 9b bd 4c 8e 27 bf 1b 01 e8 3f
       -1.4703991 -0.07606609 -0.654515 1.8125337
0000c0 c4 21 bc 3e 65 9d 49 3f 46 97 a1 bf a6 b2 32 3e
       0.3674451 0.7875579 -1.262429 0.17450961
0000d0 a9 95 fa be e5 32 9c be d9 df 9d 3f 7a a7 20 3f
       -0.48942307 -0.3050758 1.2333938 0.6275555
0000e0 08 36 95 3d 40 2e c7 be 33 cd 36 be 33 4a 4a 3f
       0.07285696 -0.38902473 -0.17851715 0.7901947
0000f0 cc e1 10 bd 7f 2a d6 3e 70 f6 1f bf c4 a2 bc be
       -0.035371587 0.41829297 -0.6248541 -0.3684293
000100 cf 13 16 bf 18 2c 62 39 83 34 9b bf 32 ac 6f 3f
       -0.58623976 0.00021569466 -1.21254 0.93622124
000110 2c da ea 3f c9 76 74 bf 6d b1 e0 be b1 bb bd 3f
       1.8347831 -0.9549375 -0.43885365 1.4822904
000120 a9 f9 a4 3d 1f 7a fd be f5 df cb bd bd f2 0e bf
       0.080554314 -0.49507234 -0.09954826 -0.5583914
000130 c4 b2 34 3f fd 11 68 3e f1 49 d7 bd 95 18 8e 3f
       0.70585275 0.22663112 -0.1051215 1.1101252
000140 c4 48 5f bf 7a 4a 87 bf 27 20 36 3f e9 00 9f 3f
       -0.87220407 -1.0569603 0.7114281 1.2422153
000150 f8 62 a4 bf e1 69 4e 3e 93 79 b9 3f 38 31 59 3f
       -1.2842703 0.20157577 1.4490227 0.84840727
000160 74 bd 12 3f 63 0a 53 3f db a9 f6 be b7 df f7 bf
       0.5732033 0.82437724 -0.48176464 -1.9365147
000170 a6 50 9b bf 31 5f b2 bf e5 2e 86 bf 27 6e 19 40
       -1.2133987 -1.39353 -1.0483061 2.3973482
000180 f0 d5 85 bf 0c 55 3f bf 34 6e 11 3f c8 90 a4 bf
       -1.0455914 -0.74739146 0.5680878 -1.2856684
000190 ac 80 29 bf 0f 75 d6 bf 2d ae 98 3e 48 d4 dd be
       -0.6621196 -1.6754473 0.29820386 -0.4332602
0001a0 14 65 3f bf a1 bb 99 bf 5e ba e4 3f b8 2c 2d be
       -0.7476361 -1.2010385 1.7869375 -0.1691159
0001b0 da ed 33 40 ef fc 33 3f 59 c0 df bd 6e 36 e4 bf
       2.8113923 0.7030782 -0.10925359 -1.7829111
0001c0 47 e2 38 bf 6a 05 88 bc 55 f7 75 bd c9 2a c3 3e
       -0.7222027 -0.016604144 -0.060050327 0.3811858
0001d0 32 66 3c bf 91 cd 8d be 50 fc 10 3d c7 a8 51 40
       -0.7359344 -0.27695897 0.035396874 3.2759264
0001e0 84 42 b3 3e 9b b7 62 3f e7 c5 e6 3f af 66 6e 3f
       0.35011685 0.8856141 1.8029145 0.9312543
0001f0 fc e4 de 3f 85 2f d7 be 14 39 93 bd 1b b8 30 3f
       1.741363 -0.42028442 -0.07188621 0.6903092
000200 05 1c 0e c0 47 ca 7f bd 13 a2 29 3f 53 90 2b 3f
       -2.2204602 -0.062448766 0.6626293 0.67017096
000210 83 18 e2 3e a4 82 25 bf 3b 2d 37 3f 00 c6 d0 be
       0.44159326 -0.64652467 0.7155339 -0.40776062
000220 35 40 38 3f ce 63 a7 bf 22 21 fe bb c4 9d 25 3e
       0.7197297 -1.3077333 -0.0077554146 0.16173464
000230 85 a9 ad 3e ab c8 4a 3f e1 5e 24 bf 93 27 92 bf
       0.33918396 0.79212445 -0.64207274 -1.1418327
000240 8d 55 34 3f b2 5a 11 3f be 8c 80 be dd 68 1a bf
       0.7044304 0.56779015 -0.25107378 -0.6031626
000250 85 41 a3 3f 05 1e a5 bd 29 64 d2 3d 46 df 9f 3e
       1.275437 -0.080623664 0.1027301 0.31225032
000260 9e a8 08 be 1a 30 d1 bf a7 89 20 bf 47 15 4f 3f
       -0.13345572 -1.6342804 -0.6271004 0.8089184
000270 35 c6 56 bf e7 0a d5 bf eb 25 fd 3e 86 64 c1 3f
       -0.8389619 -1.6643952 0.49442992 1.5108802
000280 b2 90 49 3d a0 2e f0 3f fc 66 15 3f a6 cd b0 bf
       0.049210258 1.8764229 0.58360267 -1.3812759
000290 93 b3 f1 be 58 e0 e9 3e d6 83 9f be ef 30 b5 3f
       -0.47207317 0.45678973 -0.3115527 1.4155558
0002a0 08 ff bc 3f 5b b6 95 bf 39 18 4a 3e 56 bf 28 bf
       1.4765329 -1.1696275 0.19735803 -0.65916955
0002b0 82 f0 27 be a2 c2 d5 3f a8 36 b1 3e 76 14 08 c0
       -0.1640034 1.6700022 0.34612012 -2.1262488
0002c0 78 6d ef 3e a4 27 b1 3f 1e 7b 21 3f a2 63 8f bf
       0.46763206 1.3840222 0.63078487 -1.120228
0002d0 d7 b8 37 bf 5b 53 3b bf 74 c5 13 40 93 c4 23 3f
       -0.7176642 -0.73174065 2.3089266 0.63971823
0002e0 30 00 aa be de 0d 19 bf 8d 99 9d 3e b2 07 1e bc
       -0.33203268 -0.59786785 0.30781212 -0.009645389
0002f0 c4 77 0f bf 2a 6c a4 3e c2 89 83 bf 84 4d 90 be
       -0.5604212 0.32113773 -1.0276415 -0.2818414
000300 86 a6 98 3f e1 45 04 be 25 ac e9 bd 86 88 57 bf
       1.1925819 -0.12917282 -0.11409787 -0.84192693
000310 de 1d f4 bf f3 9b 29 3f 60 51 fe 3e fa da 34 3f
       -1.9071615 0.66253585 0.4967146 0.7064663
000320 4f 8e f9 be f2 4d 3c 3f 64 e2 92 be 93 47 a6 bf
       -0.48741385 0.73556435 -0.28688347 -1.2990593
000330 ba a5 c6 bf 39 34 16 3e 1e bf c7 3d 51 82 fc be
       -1.5519326 0.14668359 0.097532496 -0.49318174
000340 d0 d1 81 3f 1e 70 a7 bc eb cf 8a 3f 56 ae 8a 3f
       1.0142155 -0.020439204 1.0844702 1.0834453
000350 b0 c2 8c 3f 40 ec b0 3f 85 f3 58 3f e7 36 b2 bf
       1.0996914 1.3822098 0.8474658 -1.3923005
000360 9b 19 88 bf d7 45 85 3e 48 95 a7 3f 87 46 7f 3e
       -1.0632814 0.26029846 1.3092432 0.24929248
000370 9a 41 de bf 3b b7 59 bf df 59 65 3f 7f 36 6f 3d
       -1.736377 -0.8504521 0.8959026 0.05840158
000380 16 18 9d 3e 41 58 82 3f 32 d5 ef 3e 70 9d 45 3f
       0.3068244 1.0183183 0.46842343 0.77193356
000390 50 ec ab bf 39 67 4a 3e ac 67 b7 bc f2 a2 fe 3e
       -1.3431492 0.19765939 -0.022388302 0.49733692
0003a0 1c 4b a8 3e 69 0d df bf 37 34 5c bf 14 7e 21 c0
       0.32869804 -1.7425967 -0.86017174 -2.5233202
0003b0 9f 15 4e bf da f3 55 3e 0f fb 87 3f 1e 95 81 3f
       -0.8050174 0.20893803 1.0623492 1.0123632
0003c0 d6 f8 88 bc 79 4d 2c bf 3c b4 0c bf fa 6e 8f 3e
       -0.016720217 -0.67305714 -0.54962516 0.28014356
0003d0 72 de 6e 3f be 10 9a 3d 00 71 35 bf bc c8 56 bf
       0.93308175 0.075227246 -0.7087555 -0.83900046
0003e0 02 1b a9 be 23 45 b6 bf 1c 7e f0 bc b7 64 68 3f
       -0.33028418 -1.4239849 -0.029357009 0.9077868
0003f0 76 7d 31 c0 ec 3d b9 3e 67 89 b7 be b8 c6 ce 3e
       -2.7732825 0.36180055 -0.35847017 0.40385985

layers.0.0.output_mask f4 [80]
000000 00 00 80 3f 00 00 80 3f 00 00 80 3f 00 00 80 3f
       1.0 1.0 1.0 1.0
000010 00 00 80 3f 00 00 80 3f 00 00 80 3f 00 00 80 3f
       1.0 1.0 1.0 1.0
000020 00 00 80 3f 00 00 80 3f 00 00 80 3f 00 00 80 3f
       1.0 1.0 1.0 1.0
000030 00 00 80 3f 00 00 80 3f 00 00 80 3f 00 00 80 3f
       1.0 1.0 1.0 1.0
000040 00 00 80 3f 00 00 80 3f 00 00 80 3f 00 00 80 3f
       1.0 1.0 1.0 1.0
000050 00 00 80 3f 00 00 80 3f 00 00 80 3f 00 00 80 3f
       1.0 1.0 1.0 1.0
000060 00 00 80 3f 00 00 80 3f 00 00 80 3f 00 00 80 3f
       1.0 1.0 1.0 1.0
000070 00 00 80 3f 00 00 80 3f 00 00 80 3f 00 00 80 3f
       1.0 1.0 1.0 1.0
000080 00 00 80 3f 00 00 80 3f 00 00 80 3f 00 00 80 3f
       1.0 1.0 1.0 1.0
000090 00 00 80 3f 00 00 80 3f 00 00 80 3f 00 00 80 3f
       1.0 1.0 1.0 1.0
0000a0 00 00 80 3f 00 00 80 3f 00 00 80 3f 00 00 80 3f
       1.0 1.0 1.0 1.0
0000b0 00 00 80 3f 00 00 80 3f 00 00 80 3f 00 00 80 3f
       1.0 1.0 1.0 1.0
0000c0 00 00 80 3f 00 00 80 3f 00 00 80 3f 00 00 80 3f
       1.0 1.0 1.0 1.0
0000d0 00 00 80 3f 00 00 80 3f 00 00 80 3f 00 00 80 3f
       1.0 1.0 1.0 1.0
0000e0 00 00 80 3f 00 00 80 3f 00 00 80 3f 00 00 80 3f
       1.0 1.0 1.0 1.0
0000f0 00 00 80 3f 00 00 80 3f 00 00 80 3f 00 00 80 3f
       1.0 1.0 1.0 1.0
000100 00 00 80 3f 00 00 80 3f 00 00 80 3f 00 00 80 3f
       1.0 1.0 1.0 1.0
000110 00 00 80 3f 00 00 80 3f 00 00 80 3f 00 00 80 3f
       1.0 1.0 1.0 1.0
000120 00 00 80 3f 00 00 80 3f 00 00 80 3f 00 00 80 3f
       1.0 1.0 1.0 1.0
000130 00 00 80 3f 00 00 80 3f 00 00 80 3f 00 00 80 3f
       1.0 1.0 1.0 1.0

layers.0.1.mul.output_mask f4 [48]
000000 00 00 80 3f 00 00 80 3f 00 00 80 3f 00 00 80 3f
       1.0 1.0 1.0 1.0
000010 00 00 80 3f 00 00 80 3f 00 00 80 3f 00 00 80 3f
       1.0 1.0 1.0 1.0
000020 00 00 80 3f 00 00 80 3f 00 00 80 3f 00 00 80 3f
       1.0 1.0 1.0 1.0
000030 00 00 80 3f 00 00 80 3f 00 00 80 3f 00 00 80 3f
       1.0 1.0 1.0 1.0
000040 00 00 80 3f 00 00 80 3f 00 00 80 3f 00 00 80 3f
       1.0 1.0 1.0 1.0
000050 00 00 80 3f 00 00 80 3f 00 00 80 3f 00 00 80 3f
       1.0 1.0 1.0 1.0
000060 00 00 80 3f 00 00 80 3f 00 00 80 3f 00 00 80 3f
       1.0 1.0 1.0 1.0
000070 00 00 80 3f 00 00 80 3f 00 00 80 3f 00 00 80 3f
       1.0 1.0 1.0 1.0
000080 00 00 80 3f 00 00 80 3f 00 00 80 3f 00 00 80 3f
       1.0 1.0 1.0 1.0
000090 00 00 80 3f 00 00 80 3f 00 00 80 3f 00 00 80 3f
       1.0 1.0 1.0 1.0
0000a0 00 00 80 3f 00 00 80 3f 00 00 80 3f 00 00 80 3f
       1.0 1.0 1.0 1.0
0000b0 00 00 80 3f 00 00 80 3f 00 00 80 3f 00 00 80 3f
       1.0 1.0 1.0 1.0

layers.1.0.weight f4 [24576]
000000 e7 c9 45 bf 09 c4 97 be 8b e4 9e 3f 0a 37 37 bd
       -0.77261204 -0.2964175 1.2413496 -0.044730224
000010 03 b5 0b 40 69 b7 a7 be ee 4c ba be 9b ea 9f bf
       2.182923 -0.32757118 -0.36386818 -1.2493471
000020 56 fc 1b 3f ec b2 45 3f 93 80 95 be c1 b1 ff bf
       0.6093191 0.7722614 -0.29199657 -1.9976121
000030 54 60 1f c0 59 79 04 bd c4 71 17 3f 91 84 ca 3f
       -2.4902544 -0.03234229 0.5915797 1.5821706
000040 96 7f a4 bf bc 42 8c 3e 9e 22 2c 3f 32 1d 88 3f
       -1.2851436 0.27394664 0.6724032 1.063391
000050 51 ad a1 3e 4a df dc 3f 2b 12 b0 3e f5 f9 71 bf
       0.31577542 1.7255642 0.3438886 -0.9452203
000060 9c b6 9c bf 60 9a c7 3e 40 28 06 c0 6f 5e 8b be
       -1.2243228 0.38984966 -2.0962067 -0.27220485
000070 ae e8 48 3f c7 ab 0a 3f f2 2b 9e bf d7 67 2a 3e
       0.7848004 0.5416836 -1.2357161 0.16641174
000080 d1 86 47 bf b0 64 45 3f c5 23 44 3f 9a 92 4f bf
       -0.7794009 0.7710676 0.7661708 -0.8108307
000090 73 eb 51 3f 77 0b 82 3e 33 05 1c be cd 74 04 bf
       0.8199989 0.25399372 -0.15236358 -0.51740724
0000a0 ad fe 0e 3d 8f a6 0a 40 82 ee 9f bc 41 41 13 c0
       0.034910847 2.166416 -0.01952291 -2.3008578
0000b0 cb b0 f4 3b e9 1f cf 3f 61 83 80 3f d8 bb d9 3f
       0.0074673644 1.6181613 1.0040094 1.701045
0000c0 1f 90 33 3f 78 b0 ca 3d db 2a 4d bf 2b 90 ae 3f
       0.70141786 0.0989694 -0.8014352 1.3637747
0000d0 a7 6c 5b bf 24 d8 ac 3f 6c 5c 95 bf 0b fd f2 3e
       -0.85712665 1.3503461 -1.166883 0.4745868
0000e0 5b a8 38 3f 21 f8 ad 3e 20 1e f8 3e c2 6d 37 be
       0.7213189 0.3397837 0.48460484 -0.17912963
0000f0 d7 ee 6b bf 76 1d 0e bf 64 72 99 3f 09 db 18 bf
       -0.92161316 -0.55513704 1.1988034 -0.5970922
000100 1c 98 57 3f 80 45 97 bf 33 de 08 bf e9 ff 16 bf
       0.84216475 -1.1818085 -0.5346405 -0.5898424
000110 83 74 8a bc 87 d0 e3 3f 94 bd 4f 3b 3b ae e8 3e
       -0.01690126 1.7798012 0.003169869 0.45445427
000120 f6 12 99 be 09 6d 5a bf 46 b2 a8 be 49 5e 33 40
       -0.2989728 -0.85322624 -0.32948512 2.8026297
000130 53 05 b6 bf 78 4c 46 3e c1 ff d8 3f 6e ba 1e 40
       -1.4220375 0.19365108 1.695305 2.4801288
000140 1e e6 5c be 3d b6 27 bf c9 72 b6 be ae 3e 33 be
       -0.21572158 -0.6551245 -0.3563445 -0.17504379
000150 f5 73 78 3e d4 2e 8a 3f 7a cf a8 3f 22 30 4c 3e
       0.24262984 1.0795541 1.3188317 0.19940236
000160 76 61 f4 3e 9f 1b 6f 3f 85 e2 89 be 49 d9 83 3f
       0.47730607 0.9340152 -0.26930633 1.0300685
000170 0a c9 8c 3e ba 79 dc 3e e4 ac 96 bf 2c fb 77 3f
       0.2749713 0.4306162 -1.1771512 0.9686763
000180 de e8 dc bf c2 22 a4 bf 2c c3 a8 3d 8a cd fa bf
       -1.7258565 -1.2823107 0.08240351 -1.9593976
000190 4f d5 44 bf 33 1a 5d 3e c5 92 80 3d ee c4 6b be
       -0.76887983 0.21592025 0.06277994 -0.23024341
0001a0 94 cb 96 3f cc e5 75 3f 64 77 67 bf 5d 75 73 3f
       1.1780877 0.9605377 -0.9041655 0.9510096
0001b0 9d 90 49 bf 66 db b8 bf a7 0a ac 3e 45 06 44 3d
       -0.7873629 -1.4441955 0.33601877 0.04785754
0001c0 78 02 cc be fc f2 a2 be 4f 2c 0c be c5 34 50 bf
       -0.39845634 -0.31826007 -0.13688777 -0.8133052
0001d0 91 84 9a bf 42 66 fe 3d db 20 20 bf 14 49 03 c0
       -1.2071706 0.12421848 -0.62550133 -2.0513353
0001e0 20 86 81 bb 79 24 c4 bf 70 fe ee be 80 3a df bf
       -0.0039527565 -1.532363 -0.46678495 -1.7439728
0001f0 a9 69 e6 bd 10 e2 db be 6c 82 47 bf b2 89 9b bf
       -0.11250622 -0.4294591 -0.77933383 -1.2151396
000200 f8 25 72 3e 5e bf ed 3f 82 d3 0d 3f cf 00 1d bf
       0.23647296 1.8574026 0.5540086 -0.6132936
000210 96 99 7a bf 07 b1 38 3f 17 a1 d3 3f d1 f4 99 3e
       -0.97890604 0.7214512 1.6533536 0.30069593
000220 90 1f 15 3e 71 2a c8 3f 98 75 ac be c4 3b c6 3f
       0.14562821 1.5637952 -0.33683467 1.5486989
000230 51 70 19 bf 6c 11 25 3f ff 10 2c 3f 63 aa 5f bd
       -0.59937006 0.6447971 0.67213434 -0.054605853
000240 87 ed ed 3d 6a 7a 04 40 73 3d 23 c0 59 38 78 be
       0.1161757 2.0699716 -2.5506256 -0.24240245
000250 1d 92 a7 be 53 01 30 3f 5d 40 ae bf 40 e4 46 3f
       -0.32728663 0.6875202 -1.3613392 0.7769203
000260 db 8e d1 3f de 07 53 bf 2d 7c 59 3e 3a 49 e8 bf
       1.6371721 -0.8243388 0.21238776 -1.8147347
000270 4b 3e 8c 3f fa 0d d1 3f 90 ae 55 3f 50 3e 88 bf
       1.095651 1.633239 0.83469486 -1.0644016
000280 2f 0e 93 3e b6 a0 5a bf 0a 81 f2 3e 96 72 05 3f
       0.2872176 -0.85401475 0.47364074 0.5212797
000290 52 52 f0 3f 36 b3 8d 3f 87 44 98 bf d8 6e 9e bf
       1.8775122 1.1070316 -1.1895913 -1.2377577
0002a0 21 33 21 bf 24 c4 b8 3f be 98 7e be c4 98 c8 be
       -0.6296864 1.4434857 -0.24862954 -0.3917905
0002b0 38 d4 a5 bf a8 42 ee 3e d0 19 b4 bf c5 6c 15 40
       -1.2955389 0.4653523 -1.4070377 2.3347638
0002c0 f3 76 d7 bf 75 c1 bb bf a6 07 67 bf ee 98 13 3f
       -1.6833175 -1.4668413 -0.90246046 0.5765523
0002d0 f4 2d 84 bd 81 52 cd 3d ad f6 29 3e 88 7f ad bf
       -0.06454077 0.10025502 0.16598006 -1.3554544
0002e0 8c bc 75 3e ad 73 2b 40 b1 08 2e 40 92 7b 0a bd
       0.23997706 2.6789353 2.7192805 -0.033809252
0002f0 51 d5 dc bf e2 cb ca 3f 62 8f 19 bf 35 93 15 3f
       -1.7252599 1.584347 -0.5998441 0.58427745
000300 93 bc e3 3e f2 85 76 bf e0 ed 36 3f 6d 22 e8 bc
       0.44479808 -0.96298134 0.7145672 -0.028336728
000310 e5 ca f2 bf 1f d2 b5 bf 9b f3 a3 be 58 87 db be
       -1.8968168 -1.4204749 -0.32021794 -0.42876697
000320 28 1c 9c bd 67 9e e7 3e 17 a0 f5 bd 5d cd de 3e
       -0.07622558 0.4523804 -0.11993425 0.43516055
000330 db d7 f7 be 91 db 59 3f 8a 23 81 3f fd 63 03 3f
       -0.48406872 0.85100657 1.0088971 0.51324445
000340 2d 4a b2 bd 40 62 ec 3f e0 7c 6a be 5b 60 0f 3f
       -0.08705554 1.8467484 -0.22899199 0.560064
000350 fa bc cf bf 54 8b 51 3f 84 d4 b6 bf f0 62 38 3f
       -1.6229546 0.8185322 -1.4283605 0.72025967
000360 b5 43 ae 3e 95 e6 0f 3e 33 39 69 3f e6 0e 09 be
       0.3403603 0.14052804 0.91102904 -0.1338459
000370 2f 11 ad 3f e1 7b dd 3e a4 7c 26 3f 6b d0 0e 40
       1.3520869 0.43258575 0.65033937 2.2314708
000380 b5 8e 8b 3f 38 ed 5e 3f fb ef 7f 3e 5e 34 a6 be
       1.0902926 0.8708072 0.24993889 -0.32461828
000390 ac 16 eb 3d 73 a6 07 be ee d9 ba bf d3 aa af 3f
       0.11478934 -0.13247089 -1.4597757 1.3724006
0003a0 6c f7 5d 3f cb ba ac 3f 27 17 70 3f db cc 84 3d
       0.8670566 1.3494505 0.9378533 0.064843856
0003b0 d1 fd 36 be 2f bb 04 bd 37 20 9a bf 3b 5b d3 be
       -0.17870261 -0.032405075 -1.2041081 -0.4128054
0003c0 d6 bd 50 3e 58 6b 8c bf 2b 7d 5e 3f ff 3e cd 3e
       0.20384917 -1.0970259 0.8690974 0.40087125
0003d0 41 74 bc bf a3 db 98 3f 40 71 83 3f 91 b2 87 bf
       -1.4722978 1.1942028 1.0268936 -1.0601369
0003e0 18 7f 75 be 73 eb 54 bf 12 bd d7 bc d6 8b a6 bf
       -0.23974264 -0.83171767 -0.026335273 -1.3011425
0003f0 c5 76 12 3f 06 bb ca 3f bd a9 f3 bf bc f4 0c c0
       0.5721248 1.5838325 -1.9036175 -2.2024374

layers.1.0.output_mask f4 [80]
000000 00 00 80 3f 00 00 80 3f 00 00 80 3f 00 00 80 3f
       1.0 1.0 1.0 1.0
000010 00 00 80 3f 00 00 80 3f 00 00 80 3f 00 00 80 3f
       1.0 1.0 1.0 1.0
000020 00 00 80 3f 00 00 80 3f 00 00 80 3f 00 00 80 3f
       1.0 1.0 1.0 1.0
000030 00 00 80 3f 00 00 80 3f 00 00 80 3f 00 00 80 3f
       1.0 1.0 1.0 1.0
000040 00 00 80 3f 00 00 80 3f 00 00 80 3f 00 00 80 3f
       1.0 1.0 1.0 1.0
000050 00 00 80 3f 00 00 80 3f 00 00 80 3f 00 00 80 3f
       1.0 1.0 1.0 1.0
000060 00 00 80 3f 00 00 80 3f 00 00 80 3f 00 00 80 3f
       1.0 1.0 1.0 1.0
000070 00 00 80 3f 00 00 80 3f 00 00 80 3f 00 00 80 3f
       1.0 1.0 1.0 1.0
000080 00 00 80 3f 00 00 80 3f 00 00 80 3f 00 00 80 3f
       1.0 1.0 1.0 1.0
000090 00 00 80 3f 00 00 80 3f 00 00 80 3f 00 00 80 3f
       1.0 1.0 1.0 1.0
0000a0 00 00 80 3f 00 00 80 3f 00 00 80 3f 00 00 80 3f
       1.0 1.0 1.0 1.0
0000b0 00 00 80 3f 00 00 80 3f 00 00 80 3f 00 00 80 3f
       1.0 1.0 1.0 1.0
0000c0 00 00 80 3f 00 00 80 3f 00 00 80 3f 00 00 80 3f
       1.0 1.0 1.0 1.0
0000d0 00 00 80 3f 00 00 80 3f 00 00 80 3f 00 00 80 3f
       1.0 1.0 1.0 1.0
0000e0 00 00 80 3f 00 00 80 3f 00 00 80 3f 00 00 80 3f
       1.0 1.0 1.0 1.0
0000f0 00 00 80 3f 00 00 80 3f 00 00 80 3f 00 00 80 3f
       1.0 1.0 1.0 1.0
000100 00 00 80 3f 00 00 80 3f 00 00 80 3f 00 00 80 3f
       1.0 1.0 1.0 1.0
000110 00 00 80 3f 00 00 80 3f 00 00 80 3f 00 00 80 3f
       1.0 1.0 1.0 1.0
000120 00 00 80 3f 00 00 80 3f 00 00 80 3f 00 00 80 3f
       1.0 1.0 1.0 1.0
000130 00 00 80 3f 00 00 80 3f 00 00 80 3f 00 00 80 3f
       1.0 1.0 1.0 1.0

layers.1.1.mul.output_mask f4 [48]
000000 00 00 80 3f 00 00 80 3f 00 00 80 3f 00 00 80 3f
       1.0 1.0 1.0 1.0
000010 00 00 80 3f 00 00 80 3f 00 00 80 3f 00 00 80 3f
       1.0 1.0 1.0 1.0
000020 00 00 80 3f 00 00 80 3f 00 00 80 3f 00 00 80 3f
       1.0 1.0 1.0 1.0
000030 00 00 80 3f 00 00 80 3f 00 00 80 3f 00 00 80 3f
       1.0 1.0 1.0 1.0
000040 00 00 80 3f 00 00 80 3f 00 00 80 3f 00 00 80 3f
       1.0 1.0 1.0 1.0
000050 00 00 80 3f 00 00 80 3f 00 00 80 3f 00 00 80 3f
       1.0 1.0 1.0 1.0
000060 00 00 80 3f 00 00 80 3f 00 00 80 3f 00 00 80 3f
       1.0 1.0 1.0 1.0
000070 00 00 80 3f 00 00 80 3f 00 00 80 3f 00 00 80 3f
       1.0 1.0 1.0 1.0
000080 00 00 80 3f 00 00 80 3f 00 00 80 3f 00 00 80 3f
       1.0 1.0 1.0 1.0
000090 00 00 80 3f 00 00 80 3f 00 00 80 3f 00 00 80 3f
       1.0 1.0 1.0 1.0
0000a0 00 00 80 3f 00 00 80 3f 00 00 80 3f 00 00 80 3f
       1.0 1.0 1.0 1.0
0000b0 00 00 80 3f 00 00 80 3f 00 00 80 3f 00 00 80 3f
       1.0 1.0 1.0 1.0

layers.2.0.weight f4 [24576]
000000 e4 9a bd 3f 7b ec b5 be 1e 84 1c bf 65 36 6b be
       1.4812894 -0.35531983 -0.61139095 -0.22969969
000010 0a 49 4b 3f 4c 0f 27 3f c0 0c 8f bf d7 4d 56 bf
       0.79408324 0.65257716 -1.1175766 -0.83712524
000020 c2 39 c7 be 5c bb b6 3e 0f 06 8e bf 0f 20 0b 3f
       -0.38911253 0.3568982 -1.1095599 0.5434579
000030 39 75 a6 bf 04 f4 79 bf e7 dd 20 bf b7 6a 1f bf
       -1.3004524 -0.97637963 -0.62838596 -0.6227221
000040 04 b4 c1 3f e3 0f 64 bf 91 a1 1d 3f 47 45 5f be
       1.5133061 -0.8908674 0.61574656 -0.21803771
000050 f1 8d 71 3f 21 9f a7 be 69 0a d8 bf 60 97 5f 3b
       0.9435721 -0.32738593 -1.6878177 0.0034117326
000060 e2 23 17 3f 28 bc 3d be 86 d0 e5 bf cd d2 48 3f
       0.5903913 -0.18528807 -1.7954261 0.78446656
000070 9a 9a 89 bf 6d a5 d5 3f 72 0b 75 3f 3b a6 59 3f
       -1.0750306 1.6691109 0.9572059 0.8501927
000080 43 83 93 3f 06 72 02 3d f6 43 02 c0 db 39 ab 3f
       1.1524433 0.031847022 -2.035398 1.3377031
000090 e0 57 16 bf 0f 52 0a 40 88 f3 4c 3f 12 06 0e 3f
       -0.58727837 2.1612585 0.800591 0.5547801
0000a0 e7 5b b7 bf b1 a4 2c bc 45 0a c1 bf 6e bf 29 3f
       -1.4324921 -0.010537312 -1.5081259 0.66307724
0000b0 6e 76 e6 bd 49 4d 4d 3f 4f 2f 24 bd 81 88 32 bf
       -0.112530574 0.8019605 -0.04008418 -0.6973954
0000c0 39 57 d6 bd ec 22 9b bf f5 f5 af bf 06 da b3 bf
       -0.10465855 -1.2120032 -1.3746935 -1.405091
0000d0 ed 95 ca 3e 6d ae ae be 5e 99 f0 be e0 2f ab be
       0.3956751 -0.3411745 -0.4699201 -0.33434963
0000e0 a8 57 96 3c 0e 90 4d 3f 40 45 7c bf 80 25 31 3f
       0.018352345 0.80297935 -0.9854317 0.69197845
0000f0 57 61 e5 3e 2f 88 64 be 72 36 d8 3f 98 2f b3 be
       0.44800827 -0.22317575 1.6891615 -0.3499725
000100 8f 36 99 3e 5c 2f 3c 3e 32 68 fb 3e 32 47 ab bf
       0.29924437 0.18377441 0.49102932 -1.3381102
000110 63 0f bc 3f b6 93 ef 3f 14 dd ac bf 09 37 9f 3f
       1.4692196 1.8716953 -1.3504968 1.243867
000120 90 8f 21 40 7d 3a 96 3e 38 bb 90 3e 0c 1b bd 3e
       2.5243874 0.29341498 0.28267837 0.36934698
000130 2b 14 e2 bf 87 ab f2 bf b5 58 24 bf 2f a6 46 3f
       -1.7662405 -1.8958596 -0.64197856 0.77597326
000140 0c b4 1e 3f bb af a2 3e f0 0e 5d be 20 38 8a 3f
       0.6199348 0.31774697 -0.2158773 1.0798378
000150 96 b7 db 3e 02 8a d8 3e 36 22 09 be 34 3b b7 3d
       0.42913502 0.42292792 -0.13391957 0.08946839
000160 12 0b 5e 3f 1b 66 36 3f 6a 11 55 3f dd 4c b0 3d
       0.8673564 0.7124955 0.83229697 0.086084105
000170 85 5c 14 40 55 e5 02 bf f7 7a 3c 3f c8 9c 1b 3f
       2.318147 -0.5113118 0.7362513 0.60786104
000180 b1 84 77 be d6 07 44 3f e8 12 4b 3f bd b7 b0 3f
       -0.24171712 0.76574457 0.79325724 1.3806072
000190 6c ac f9 be cc a1 82 3f 26 e1 a6 3f 0f 4c 22 c0
       -0.4876436 1.0205626 1.303746 -2.5358922
0001a0 85 27 42 3f 93 c3 ae 3f 25 4b 2e be b5 a2 b4 bf
       0.7584155 1.3653435 -0.17020853 -1.4112154
0001b0 cb 4e 02 bf 9a 1a 49 3f b1 74 2d 40 78 27 c3 3e
       -0.5090148 0.78556216 2.7102473 0.3811605
0001c0 54 39 45 3f c8 b6 0e c0 8c 33 b5 bf 0b 39 37 c0
       0.770406 -2.229906 -1.4156356 -2.8628566
0001d0 5d 27 0b 40 64 c1 7a be bd 4e 83 be 1d 8d 12 40
       2.1742775 -0.24487835 -0.2564601 2.2898629
0001e0 ff 71 bf bf c7 4a fd 3e 7c b1 6d 3f 1a 00 03 c0
       -1.4956664 0.49471113 0.92848945 -2.0468812
0001f0 48 d1 be bd b2 94 b9 3f 74 aa 83 3f d0 48 ca bf
       -0.09317261 1.4498503 1.0286393 -1.5803471
000200 d9 47 26 40 01 f2 c6 be 62 db 8d 3e e2 83 24 3e
       2.5981352 -0.3885651 0.27706438 0.16065934
000210 2b 36 e5 3f 3a c7 14 3d e1 60 c7 3e 7d 3f b8 bd
       1.7907156 0.03632281 0.389411 -0.089964844
000220 4f 14 68 bf f1 1f a3 3f 7f ac 1a 3e 13 b5 3d 3f
       -0.9065599 1.2744123 0.15104865 0.7410442
000230 26 a1 dd 3f 44 ca 36 3e fd 26 3f 3f 8b 46 1c 3f
       1.7314804 0.17850596 0.74668866 0.6104514
000240 1f 7f 04 40 eb 23 1a be 7d 50 16 3f 7b 1b 7a be
       2.0702589 -0.15052764 0.58716565 -0.24424545
000250 fe ab 8b 3f 3d ec 97 bf d7 ce 4c 3e 26 b3 42 3d
       1.0911863 -1.1868969 0.20000778 0.04753413
000260 bc 8f 64 3f 3e b5 ec 3f b2 73 2a 3f 67 0d 69 3f
       0.8928182 1.8492811 0.6658279 0.91036075
000270 c7 6c d9 3e b1 45 0d 3f 22 2c 15 3f 25 39 97 bb
       0.42465803 0.55184466 0.58270466 -0.0046149665
000280 86 f4 31 3f a6 d3 d8 bc de 97 09 3f 83 31 b9 bf
       0.6951374 -0.02646811 0.53747356 -1.4468235
000290 18 79 55 bf bd d5 b1 3f a4 98 7b 3f 3e 8b bb 3e
       -0.833879 1.3893353 0.98279786 0.3662967
0002a0 bf 88 72 bf ef da 8a 3e 0b 6a cd bf a6 94 a4 3b
       -0.9473991 0.27120158 -1.6047987 0.005022603
0002b0 fd e7 0c 3e e1 c0 92 3e f1 bf 81 3e a5 2e e1 bf
       0.13760372 0.2866278 0.25341752 -1.759236
0002c0 fb af bc 3f 9f 03 5d 3f 9a 67 c6 be 7f 5e 3f bf
       1.4741205 0.8633365 -0.38750917 -0.74753565
0002d0 71 38 e2 ba e0 d6 09 3f 02 29 ca bd 11 93 fa be
       -0.0017259252 0.538435 -0.09871103 -0.48940328
0002e0 f5 5b 29 bf a2 91 ff 3f 22 e3 98 bf 52 91 b4 3e
       -0.6615594 1.9966319 -1.1944315 0.3526712
0002f0 b9 59 9e bd 65 a1 4c bf 38 be bb 3f f5 71 91 3e
       -0.07731957 -0.7993377 1.4667425 0.28407255
000300 96 7f 1b 3f 48 71 5e c0 b6 86 ca 3f 50 44 46 be
       0.60741556 -3.4756641 1.582236 -0.19361997
000310 78 e6 99 3e 41 1f 8c be a2 75 25 be a3 29 f4 3e
       0.30058646 -0.27367595 -0.16158155 0.47688016
000320 3b 0f a6 bf 51 bb 9c bf 65 a2 8c bf 96 d1 3d 3f
       -1.2973398 -1.2244664 -1.0987059 0.7414793
000330 97 21 35 be 7d aa 8d 3e a3 57 33 3f f2 01 a8 be
       -0.17688595 0.27669135 0.700556 -0.32813984
000340 42 5c b9 3f c3 e0 77 3e 70 de 68 3f 57 36 47 3e
       1.448128 0.24206834 0.9096441 0.19454323
000350 26 46 1c 3d 26 1a f6 bf 53 1c 8a bf b0 59 59 bf
       0.038152836 -1.922673 -1.0789894 -0.8490248
000360 c5 84 70 bf e9 38 df 3f 5e 20 9a 3f 24 e7 15 40
       -0.9395259 1.7439243 1.2041128 2.3422327
000370 51 21 ff 3f 2e 21 4d bf 4c 79 59 3f b5 7d a7 3f
       1.9932042 -0.80128753 0.8495071 1.3085238
000380 45 08 d4 3e b4 47 83 bf 5f b7 0e be b3 d1 34 40
       0.4141256 -1.0256257 -0.13937138 2.825299
000390 d6 12 46 bf f5 9e 12 3f 77 f3 34 be dc d3 97 be
       -0.7737249 0.572738 -0.17671 -0.29653823
0003a0 b1 10 36 c0 d8 ff 23 3f 72 68 28 40 b3 01 69 be
       -2.8447688 0.6406226 2.6313748 -0.22754554
0003b0 d1 c2 d5 bf d0 c1 12 bc fd bf 99 3b 8b 18 04 40
       -1.6700078 -0.008957341 0.0046920762 2.063998
0003c0 79 39 b9 3e f8 46 61 bf ce c5 98 bf 6f db 69 bf
       0.3617666 -0.87998915 -1.1935365 -0.91350454
0003d0 88 34 d4 3f 07 d7 da 3e da 00 cc be 64 4c b3 3e
       1.6578531 0.42742178 -0.398444 0.3501922
0003e0 74 c3 24 3e ff aa 0c c0 42 53 39 bb 10 ab ce bf
       0.16090184 -2.1979368 -0.0028278385 -1.6145954
0003f0 54 07 35 bf 2b 2a 9d be 10 f9 0a 3f 5c 89 f4 3d
       -0.70714307 -0.30696234 0.5428629 0.11940262

layers.2.0.output_mask f4 [80]
000000 00 00 80 3f 00 00 80 3f 00 00 80 3f 00 00 80 3f
       1.0 1.0 1.0 1.0
000010 00 00 80 3f 00 00 80 3f 00 00 80 3f 00 00 80 3f
       1.0 1.0 1.0 1.0
000020 00 00 80 3f 00 00 80 3f 00 00 80 3f 00 00 80 3f
       1.0 1.0 1.0 1.0
000030 00 00 80 3f 00 00 80 3f 00 00 80 3f 00 00 80 3f
       1.0 1.0 1.0 1.0
000040 00 00 80 3f 00 00 80 3f 00 00 80 3f 00 00 80 3f
       1.0 1.0 1.0 1.0
000050 00 00 80 3f 00 00 80 3f 00 00 80 3f 00 00 80 3f
       1.0 1.0 1.0 1.0
000060 00 00 80 3f 00 00 80 3f 00 00 80 3f 00 00 80 3f
       1.0 1.0 1.0 1.0
000070 00 00 80 3f 00 00 80 3f 00 00 80 3f 00 00 80 3f
       1.0 1.0 1.0 1.0
000080 00 00 80 3f 00 00 80 3f 00 00 80 3f 00 00 80 3f
       1.0 1.0 1.0 1.0
000090 00 00 80 3f 00 00 80 3f 00 00 80 3f 00 00 80 3f
       1.0 1.0 1.0 1.0
0000a0 00 00 80 3f 00 00 80 3f 00 00 80 3f 00 00 80 3f
       1.0 1.0 1.0 1.0
0000b0 00 00 80 3f 00 00 80 3f 00 00 80 3f 00 00 80 3f
       1.0 1.0 1.0 1.0
0000c0 00 00 80 3f 00 00 80 3f 00 00 80 3f 00 00 80 3f
       1.0 1.0 1.0 1.0
0000d0 00 00 80 3f 00 00 80 3f 00 00 80 3f 00 00 80 3f
       1.0 1.0 1.0 1.0
0000e0 00 00 80 3f 00 00 80 3f 00 00 80 3f 00 00 80 3f
       1.0 1.0 1.0 1.0
0000f0 00 00 80 3f 00 00 80 3f 00 00 80 3f 00 00 80 3f
       1.0 1.0 1.0 1.0
000100 00 00 80 3f 00 00 80 3f 00 00 80 3f 00 00 80 3f
       1.0 1.0 1.0 1.0
000110 00 00 80 3f 00 00 80 3f 00 00 80 3f 00 00 80 3f
       1.0 1.0 1.0 1.0
000120 00 00 80 3f 00 00 80 3f 00 00 80 3f 00 00 80 3f
       1.0 1.0 1.0 1.0
000130 00 00 80 3f 00 00 80 3f 00 00 80 3f 00 00 80 3f
       1.0 1.0 1.0 1.0

layers.2.1.mul.output_mask f4 [48]
000000 00 00 80 3f 00 00 80 3f 00 00 80 3f 00 00 80 3f
       1.0 1.0 1.0 1.0
000010 00 00 80 3f 00 00 80 3f 00 00 80 3f 00 00 80 3f
       1.0 1.0 1.0 1.0
000020 00 00 80 3f 00 00 80 3f 00 00 80 3f 00 00 80 3f
       1.0 1.0 1.0 1.0
000030 00 00 80 3f 00 00 80 3f 00 00 80 3f 00 00 80 3f
       1.0 1.0 1.0 1.0
000040 00 00 80 3f 00 00 80 3f 00 00 80 3f 00 00 80 3f
       1.0 1.0 1.0 1.0
000050 00 00 80 3f 00 00 80 3f 00 00 80 3f 00 00 80 3f
       1.0 1.0 1.0 1.0
000060 00 00 80 3f 00 00 80 3f 00 00 80 3f 00 00 80 3f
       1.0 1.0 1.0 1.0
000070 00 00 80 3f 00 00 80 3f 00 00 80 3f 00 00 80 3f
       1.0 1.0 1.0 1.0
000080 00 00 80 3f 00 00 80 3f 00 00 80 3f 00 00 80 3f
       1.0 1.0 1.0 1.0
000090 00 00 80 3f 00 00 80 3f 00 00 80 3f 00 00 80 3f
       1.0 1.0 1.0 1.0
0000a0 00 00 80 3f 00 00 80 3f 00 00 80 3f 00 00 80 3f
       1.0 1.0 1.0 1.0
0000b0 00 00 80 3f 00 00 80 3f 00 00 80 3f 00 00 80 3f
       1.0 1.0 1.0 1.0

readout.weight f4 [16]
000000 73 22 43 3f 68 88 c9 3e b3 e8 ce be 36 65 e9 3e
       0.7622444 0.39361882 -0.4041191 0.4558503
000010 2c 48 e6 bf de c0 4b bf ec 87 cb bd 57 3d 6b bf
       -1.7990775 -0.79591167 -0.099380344 -0.9189047
000020 34 23 31 bf 86 53 38 3f 53 c2 14 bf a8 d9 c1 3e
       -0.6919434 0.72002447 -0.58109015 0.3786137
000030 7b f3 9a 3e 97 c2 2d 3e 5b 09 18 40 34 8c de 3e
       0.30263886 0.16968761 2.375571 0.43466341
