egnn_model1.pth (torch, 305762 bytes, 12 tensors)

input_proj.weight f4 [256]
0	0xbf8a5dc5	-1.0809866
1	0x3c34218d	0.010994327
2	0xbf9b7ca1	-1.2147409
3	0x3f247391	0.6423884
4	0x3f8bd02b	1.0922903
5	0x3f81aecf	1.0131472
6	0xbedbddd3	-0.42942676
7	0x3cc774b8	0.024347648
8	0xbf42c355	-0.76079303
9	0xbf884cac	-1.0648398
10	0x3fb2930c	1.3951125
11	0x3faea4c8	1.3644037
12	0xbee420e4	-0.44556344
13	0xbfcdac3b	-1.6068186
14	0xbf86df54	-1.0536904
15	0xbed52937	-0.41633007
16	0x3f218b78	0.6310344
17	0xc01eb3b4	-2.4797182
18	0xbf1d8451	-0.61530024
19	0xbd191b1b	-0.037379365
20	0x3f85dea5	1.0458571
21	0xbf17005d	-0.5898493
22	0xbf489bf9	-0.78362995
23	0x3f6c1178	0.92214155
24	0x3f92bdd1	1.1464177
25	0xc0174f19	-2.3642027
26	0x3f1fdc32	0.62445366
27	0x3fa7f91c	1.3122897
28	0xbfbc86c0	-1.4728622
29	0x3f3378cf	0.70106214
30	0xbfb72bc5	-1.4310232
31	0x3d5dbe32	0.054136463
32	0x3ebb2e99	0.3655899
33	0xbea3d862	-0.32001024
34	0x3ff73348	1.9312525
35	0x3f75497f	0.9581527
36	0x3ed3b45c	0.4134854
37	0x3fccc66c	1.5998054
38	0x3f18f4ec	0.5974872
39	0x3fd8fe42	1.6952593
40	0x3e5803d6	0.21095213
41	0xbe559d81	-0.20860864
42	0xbee644be	-0.4497432
43	0x40069cb8	2.1033154
44	0xbf8e16df	-1.110073
45	0x3edce8ce	0.43146366
46	0x3e80c76f	0.25152156
47	0x3e854a10	0.26033068
48	0xbfa15b84	-1.2606053
49	0x40290caf	2.6413991
50	0xc00dcc22	-2.2155843
51	0x402aa89f	2.6665418
52	0xbe89b8e1	-0.26898864
53	0xbe36ca10	-0.17850518
54	0x3f2f20ac	0.6840923
55	0xbf887b93	-1.0662712
56	0x3fd59531	1.6686155
57	0xbfbf6fba	-1.4955971
58	0x3db5ff76	0.08886616
59	0x3f05e2e6	0.52299345
60	0x3fcb52f8	1.5884695
61	0x3f97507b	1.1821436
62	0xbfaf83be	-1.371208
63	0xbfc1bf8a	-1.5136578
64	0xbf95cbf8	-1.1702871
65	0x400b6bca	2.178454
66	0xbefca2fc	-0.49343097
67	0xbed2df6d	-0.41186085
68	0x3ebebee0	0.37255
69	0xbfa7bd41	-1.3104631
70	0xbfa7b271	-1.3101331
71	0xbf9c91a4	-1.2231946
72	0xbe0809c1	-0.13284971
73	0x3f222a5c	0.63345885
74	0x402282a0	2.5392227
75	0x3e1476b5	0.14498408
76	0x3f557681	0.8338395
77	0x3e889e89	0.26683453
78	0x3eb31ef6	0.3498456
79	0xbf65d564	-0.89778733
80	0xbdb18ff3	-0.08670034
81	0x3f2bcc4d	0.67108613
82	0xbf21022f	-0.62893957
83	0x3f82f007	1.02295
84	0x3fe450cd	1.7837158
85	0xbf507e88	-0.8144307
86	0x3fc179f5	1.5115343
87	0xbf782e82	-0.96945965
88	0xbf147324	-0.5798819
89	0xbfd08d1a	-1.6293061
90	0xbf3c33fe	-0.73516834
91	0x3fa0beeb	1.2558264
92	0x3d31f50e	0.043446593
93	0xbfb3a0f0	-1.4033489
94	0xbfb303c9	-1.398553
95	0x3fc632d3	1.548426
96	0x3e42ff8c	0.19042796
97	0x3f108819	0.5645767
98	0x3f74c62f	0.95614904
99	0x3ec7fcd0	0.39060068
100	0xbf4e53ca	-0.805966
101	0x3e1f6e12	0.15569332
102	0x3f8db8b4	1.1071992
103	0xbfa3e0b2	-1.2802947
104	0x3f54f942	0.8319284
105	0x40238081	2.5547183
106	0xbf54ff96	-0.83202493
107	0xbf456d61	-0.77120024
108	0xbf00d508	-0.5032506
109	0xbf6b7237	-0.91971153
110	0x3f775c08	0.96624804
111	0xbf9bf3e2	-1.2183802
112	0x3ffddb63	1.9832577
113	0x3e40f3da	0.18843022
114	0xbfed6f48	-1.8549585
115	0xc002bc1e	-2.0427318
116	0xbf80978c	-1.0046248
117	0x3f98c717	1.1935757
118	0x3d9a1e32	0.075252905
119	0xbfaacdad	-1.3344017
120	0x3e7a5ee2	0.24450257
121	0x3ec5dde9	0.38645867
122	0x3fb571ff	1.4175414
123	0xbfd40944	-1.6565328
124	0xbfd89f0a	-1.6923535
125	0x3d3fb22f	0.04680079
126	0xbfa818c8	-1.3132563
127	0x3ed45604	0.41471875
128	0xbf2d4564	-0.67684007
129	0xbf41c098	-0.756845
130	0x3f20ac7b	0.62763184
131	0xbf3170aa	-0.69312537
132	0xbc4b69b6	-0.01241534
133	0xc00334ed	-2.0501053
134	0x3f37da69	0.7181764
135	0xbea60207	-0.32423422
136	0xbdb77304	-0.08957484
137	0xbcd7ebd1	-0.026357563
138	0x3f77abf3	0.9674675
139	0x3f01924d	0.5061386
140	0xbf454d41	-0.77071005
141	0x3fa4681e	1.2844274
142	0x3ed69985	0.41914
143	0xbfa649c0	-1.2991257
144	0xbe41a4d9	-0.1891054
145	0x3c184127	0.009292877
146	0x3f70883b	0.9395787
147	0x3f0da3b4	0.55327916
148	0x3f7b84da	0.9824959
149	0xbe28f896	-0.16501078
150	0x3eb9f468	0.3631928
151	0xbeea81e0	-0.45802212
152	0xbffc6fb9	-1.9721595
153	0xbf67293b	-0.9029729
154	0x3e7ea5b2	0.24867895
155	0x3f60d396	0.87822855
156	0xbf68be1c	-0.90915084
157	0x3f23ff3b	0.64061326
158	0x3f90b0fd	1.1304013
159	0xbdbd69c5	-0.092486896
160	0x3f2e6d2d	0.6813534
161	0xbf9f5d2a	-1.2450306
162	0x3ee93c9a	0.45554048
163	0xbfb2de0f	-1.3974017
164	0x3fc7d94f	1.5613192
165	0x3e0b0ac3	0.13578324
166	0xbf9b357a	-1.2125695
167	0x3f9d4373	1.2286209
168	0xbf6692c3	-0.9006769
169	0x3f1a0356	0.6016134
170	0xbe52e653	-0.20595674
171	0x3fb823b1	1.4385892
172	0x3f9b5dd3	1.2138008
173	0xbdb2f7d0	-0.08738673
174	0xbeedac9c	-0.46420753
175	0x3ffaedf4	1.9603868
176	0xbf904801	-1.1271974
177	0xbfc06642	-1.5031207
178	0xbed35602	-0.41276556
179	0xbf478051	-0.7793017
180	0xbeae931e	-0.34096617
181	0x3ee246ce	0.44194645
182	0x3e9245ae	0.28568786
183	0x3ff327ca	1.8996518
184	0x3f30c44c	0.69049525
185	0x3ea04aee	0.31307167
186	0x3f3026ae	0.6880902
187	0xbfed61fc	-1.8545527
188	0x3f0ab31e	0.5417956
189	0xbf5db35b	-0.866018
190	0x3d012f32	0.03153915
191	0xc00ff7bb	-2.2494953
192	0x3fe6119f	1.7974128
193	0x3fb9e9a9	1.4524432
194	0xc01f4aa2	-2.4889302
195	0xbdeb08e4	-0.11476305
196	0xbf21eafb	-0.63249177
197	0xbfa8c9d1	-1.318659
198	0xbf9205a3	-1.140797
199	0xbe6a38db	-0.22873251
200	0x3fa4a1eb	1.2861913
201	0x39a517ca	0.00031488977
202	0xbdafa9b9	-0.08577294
203	0x3f8438c6	1.0329826
204	0xbf6af8f0	-0.917861
205	0xbf67664c	-0.9039047
206	0x3ee9bfd8	0.45654178
207	0x3e91ba8b	0.28462633
208	0xbd3d9977	-0.046288934
209	0xbda1f7cd	-0.079085924
210	0x3f50a0cd	0.8149536
211	0x3f1f4804	0.6221926
212	0x3faf1a0d	1.3679825
213	0xbea27327	-0.3172848
214	0x3fa7c13e	1.3105848
215	0xbfc004e4	-1.5001493
216	0xbf07765c	-0.5291498
217	0xbec44da5	-0.38340488
218	0x3ee9a2de	0.4563207
219	0xbf294c30	-0.6613188
220	0xbd841435	-0.06449167
221	0x3f045c3d	0.51703244
222	0x3ef0576d	0.469417
223	0xbfbe8b76	-1.488631
224	0xbe386a32	-0.1800926
225	0xbf2c49af	-0.6729993
226	0x3ee573f1	0.4481502
227	0xbe9e5e08	-0.30931115
228	0x3fc517be	1.539787
229	0x3f71d645	0.94467574
230	0x3ea87c9d	0.32907572
231	0xbfa49237	-1.2857121
232	0xbd92969f	-0.07157635
233	0x3e9c1e53	0.30491886
234	0xbf4ee7d3	-0.80822486
235	0x3f31743a	0.6931797
236	0xc011955e	-2.2747416
237	0xbf120e13	-0.57052726
238	0xbe96f8eb	-0.29486784
239	0x3f265bc2	0.6498376
240	0x3e2224ec	0.15834397
241	0x3df27009	0.11837775
242	0xbfeed05b	-1.8657335
243	0xc00a82ea	-2.1642404
244	0xbfaa6da0	-1.3314705
245	0xbb9b2937	-0.004735138
246	0x3ecc437c	0.39895236
247	0xbfb57452	-1.4176123
248	0x3f58cbaa	0.84685767
249	0x3ee36e80	0.44420242
250	0x3eeba52f	0.46024463
251	0xbf4a807b	-0.79102296
252	0x3eabc6c6	0.3355009
253	0x3f753f8c	0.9580009
254	0xbf7a938c	-0.9788139
255	0x3e454ead	0.19268294

input_proj.output_mask f4 [64]
0	0x3f800000	1.0
1	0x3f800000	1.0
2	0x3f800000	1.0
3	0x3f800000	1.0
4	0x3f800000	1.0
5	0x3f800000	1.0
6	0x3f800000	1.0
7	0x3f800000	1.0
8	0x3f800000	1.0
9	0x3f800000	1.0
10	0x3f800000	1.0
11	0x3f800000	1.0
12	0x3f800000	1.0
13	0x3f800000	1.0
14	0x3f800000	1.0
15	0x3f800000	1.0
16	0x00000000	0.0
17	0x00000000	0.0
18	0x00000000	0.0
19	0x00000000	0.0
20	0x00000000	0.0
21	0x00000000	0.0
22	0x00000000	0.0
23	0x00000000	0.0
24	0x00000000	0.0
25	0x00000000	0.0
26	0x00000000	0.0
27	0x00000000	0.0
28	0x00000000	0.0
29	0x00000000	0.0
30	0x00000000	0.0
31	0x00000000	0.0
32	0x00000000	0.0
33	0x00000000	0.0
34	0x00000000	0.0
35	0x00000000	0.0
36	0x00000000	0.0
37	0x00000000	0.0
38	0x00000000	0.0
39	0x00000000	0.0
40	0x00000000	0.0
41	0x00000000	0.0
42	0x00000000	0.0
43	0x00000000	0.0
44	0x00000000	0.0
45	0x00000000	0.0
46	0x00000000	0.0
47	0x00000000	0.0
48	0x00000000	0.0
49	0x00000000	0.0
50	0x00000000	0.0
51	0x00000000	0.0
52	0x00000000	0.0
53	0x00000000	0.0
54	0x00000000	0.0
55	0x00000000	0.0
56	0x00000000	0.0
57	0x00000000	0.0
58	0x00000000	0.0
59	0x00000000	0.0
60	0x00000000	0.0
61	0x00000000	0.0
62	0x00000000	0.0
63	0x00000000	0.0

layers.0.0.weight f4 [24576]
0	0xbe91ec79	-0.28500727
1	0xbf9e7b36	-1.2381351
2	0x3ebfa799	0.37432554
3	0xbe6b0f32	-0.22955015
4	0x3e9f8a82	0.3116036
5	0x3f894052	1.0722754
6	0x3ffc1e35	1.9696718
7	0x3ec91ba6	0.39278907
8	0x3f76f38b	0.9646537
9	0x3ef0dea0	0.4704485
10	0xbf95e33f	-1.1709975
11	0xbf1503c2	-0.5820886
12	0xbfc6f5e5	-1.5543791
13	0xbf96e138	-1.1787481
14	0xbf461e19	-0.77389675
15	0x3f49cb48	0.7882581
16	0x3f04e5b7	0.5191302
17	0xbe936c7a	-0.287937
18	0xbfc21b6c	-1.5164618
19	0x3f9d3466	1.2281616
20	0xbf052315	-0.52006656
21	0xbfa1211a	-1.2588227
22	0xbf6545b7	-0.895595
23	0xbe5bb501	-0.21455766
24	0x3ec875cd	0.39152375
25	0x3d8b4efb	0.06802174
26	0x3f716404	0.94293237
27	0xbe618332	-0.22022703
28	0x3e7ca6ac	0.24672955
29	0xbf64816b	-0.89259976
30	0xbf988365	-1.1915098
31	0x3f20503d	0.62622434
32	0x3f3e3953	0.7430622
33	0xbf28c21c	-0.6592119
34	0x3edfc258	0.4370296
35	0xbdf0f8b7	-0.117661886
36	0xbe66df40	-0.225461
37	0x3d93dfc2	0.07220413
38	0x3cd78d3d	0.026312465
39	0xbfde8a01	-1.7385865
40	0x3f0f3548	0.55940676
41	0x3f0c6797	0.54845566
42	0xbfe4d646	-1.7877891
43	0xbee45c5f	-0.44601724
44	0xbf3c8d85	-0.7365344
45	0x3e492093	0.19641332
46	0xbf0bf1fa	-0.546661
47	0x3f8e4b89	1.1116802
48	0x3ed87381	0.42275622
49	0x3f81547c	1.0103908
50	0xbf5e4349	-0.8682142
51	0x3edc0672	0.42973667
52	0xbf59f52a	-0.85139716
53	0xbf078210	-0.52932835
54	0x3f72671e	0.94688594
55	0x3f5687d5	0.83801013
56	0x3e6eb3ba	0.23310748
57	0xbe99ff91	-0.30077794
58	0xbebc52c9	-0.3678191
59	0x3f536ab3	0.82584685
60	0xbeba0ca2	-0.36337763
61	0x3ef2d048	0.4742453
62	0xbf1106d3	-0.5665104
63	0xbf5a9847	-0.85388607
64	0xbf20a136	-0.6274599
65	0xbdb955e2	-0.09049584
66	0xbf6db53a	-0.92854655
67	0x3f764380	0.96196747
68	0x3faa1bab	1.3289694
69	0xbf84c624	-1.0372968
70	0xbe72e493	-0.23720007
71	0x3fc22fb0	1.5170803
72	0x3dbeec63	0.09322431
73	0xbeb62150	-0.3557229
74	0xbe0d9ba0	-0.13828897
75	0xbf4aaf7a	-0.79174006
76	0x3f441cd7	0.76606506
77	0xbd8e8a65	-0.069599904
78	0xbbc442e9	-0.0059894216
79	0x3f1163f9	0.5679317
80	0xbdede235	-0.11615411
81	0xbeb8355f	-0.3597822
82	0x3f537afc	0.82609534
83	0x3fb42629	1.4074146
84	0xbfb220d7	-1.3916272
85	0xbf007397	-0.50176376
86	0x3f4d9ec1	0.80320364
87	0x3f472aba	0.7779957
88	0x3f259ddc	0.64694
89	0x3ebc545c	0.3678311
90	0xbf2600a7	-0.64844745
91	0xbfecebea	-1.8509495
92	0xc0134ddf	-2.3016279
93	0xbf8edbe3	-1.1160854
94	0xbf7f802a	-0.9980494
95	0x4006c943	2.106034
96	0xbf8826ed	-1.0636879
97	0xbf493c5e	-0.7860774
98	0x3ddf0aaf	0.108907096
99	0xbfa0eb37	-1.2571782
100	0xbe38781b	-0.18014567
101	0xbfba266b	-1.4542974
102	0x3e8264d7	0.2546756
103	0xbf0abed0	-0.54197407
104	0xbf37125f	-0.7151241
105	0xbfa2d544	-1.2721334
106	0x3ff7d458	1.9361677
107	0xbd739c9f	-0.059475537
108	0x403d8c3e	2.9616847
109	0x3f56741a	0.83770907
110	0xbe56a0da	-0.20959798
111	0xbf939ef5	-1.1532885
112	0xbf1c8824	-0.61145234
113	0x3ed541e8	0.41651845
114	0xbf178807	-0.59191936
115	0x3f16b596	0.5887083
116	0xbeed3505	-0.46329513
117	0xbf1cd8f5	-0.6126855
118	0xbeca906d	-0.39563313
119	0x40373f7f	2.8632505
120	0x3d20a8c0	0.039223433
121	0x3ed4497d	0.41462317
122	0x3fa165a3	1.2609142
123	0x3f9c906d	1.2231575
124	0x3ef55245	0.4791433
125	0xbeafc569	-0.343303
126	0xbe05f615	-0.13082154
127	0x3f4ef1f9	0.8083797
128	0xc049d882	-3.1538396
129	0xbe832602	-0.25614935
130	0x3e937d2d	0.2880644
131	0x3f1bc1a7	0.60842365
132	0x3efb6f24	0.4910823
133	0xbf40ecd3	-0.75361365
134	0x3f9c072a	1.2189686
135	0xbf0d36a0	-0.55161476
136	0x3efac74c	0.48980176
137	0xbfa9ed4e	-1.3275545
138	0xbe6610af	-0.22467302
139	0x3e266c06	0.16252145
140	0x3efb5c19	0.49093702
141	0x3e38dc42	0.18052772
142	0xbf6c71b3	-0.9236099
143	0xbf20574d	-0.6263321
144	0x3f5d65ca	0.8648344
145	0x3e8916af	0.2677512
146	0x3e1feb49	0.15617098
147	0xbf5f8247	-0.8730816
148	0x3f75ed85	0.9606555
149	0xbdde5578	-0.108561456
150	0x3be56905	0.0070010447
151	0x3d031a61	0.03200758
152	0x3e922a7c	0.28548038
153	0xbfba442a	-1.4552052
154	0xbf1007ed	-0.56262094
155	0x3ec7fa77	0.39058277
156	0x3d46f15d	0.048570026
157	0xbfb89af6	-1.442229
158	0x3f304356	0.68852746
159	0x3f5224d6	0.8208746
160	0x3d819d7f	0.06328868
161	0x4004aaca	2.0729241
162	0x3e6db4bb	0.23213474
163	0xbf989a29	-1.1922046
164	0xbe68b11a	-0.22723809
165	0x3eadf970	0.33979368
166	0xbec5dd1c	-0.38645256
167	0x3fc4b137	1.5366582
168	0x3fa8a3a9	1.3174945
169	0xbf9affba	-1.2109292
170	0x3e76dfd7	0.24108826
171	0xbea6ca2e	-0.32576126
172	0xbf25afaa	-0.6472117
173	0x3fd0599c	1.6277347
174	0x3e91b1f1	0.2845607
175	0xbfadf93c	-1.3591685
176	0x3eb86070	0.36011076
177	0x3fc43e65	1.5331541
178	0x3ef2ece2	0.47446352
179	0xbf39474f	-0.72374433
180	0xbf8410f5	-1.0317675
181	0xbf816475	-1.0108782
182	0x40136bde	2.3034587
183	0x3f5826b4	0.84434056
184	0xbf5cef46	-0.863026
185	0xbf1d3991	-0.61415964
186	0x3d94eb55	0.072714485
187	0x3e56e818	0.20986974
188	0xbfc06faa	-1.5034077
189	0xbe107d22	-0.14110234
190	0xbf74d9dd	-0.95644933
191	0xbe28732b	-0.16450183
192	0x3fc8378c	1.5641952
193	0x3e00bf4a	0.12572971
194	0xbde9cc6d	-0.11415944
195	0xbf8f5f3c	-1.1200938
196	0xbfcec540	-1.6153946
197	0x3ea6c201	0.32569888
198	0x3e9ab374	0.30215037
199	0x3eeec3db	0.466338
200	0xbdd6247d	-0.10456178
201	0x3f118cc7	0.56855434
202	0xbe246502	-0.16054156
203	0xbfb5ae68	-1.419385
204	0xbfd199e1	-1.6375085
205	0x3f2154c9	0.63019997
206	0x3d8562e5	0.06513003
207	0xbea31b06	-0.31856555
208	0x3f8c7028	1.0971727
209	0xbd3c4724	-0.045966282
210	0x3fe7886c	1.8088508
211	0x3fa9ddb5	1.3270785
212	0x3f185786	0.5950855
213	0x3f94fdf0	1.1639996
214	0x3f349299	0.7053619
215	0xbf84af04	-1.036591
216	0xbf5cc834	-0.86242986
217	0x3f3abcc3	0.7294428
218	0x3fc21d5c	1.516521
219	0x3d5cf0a5	0.053940434
220	0xbf88268b	-1.0636762
221	0xbf4484c7	-0.767651
222	0x3f952268	1.1651125
223	0xbec11208	-0.3770907
224	0x3ee3635c	0.44411743
225	0x3f765253	0.96219367
226	0x3f83d8a6	1.0300491
227	0x3f326cc8	0.69697237
228	0xbfc57950	-1.5427647
229	0x3e461a09	0.19345869
230	0xbda0c2b9	-0.078496404
231	0x3ed9b8f2	0.42523915
232	0x3f29f539	0.66389805
233	0xbfc14b8e	-1.5101182
234	0xbf4e2824	-0.8053
235	0xc03b534b	-2.9269588
236	0x3df12b34	0.117758185
237	0x3ecb1a15	0.39668337
238	0x3f9fb679	1.2477561
239	0x3e95d249	0.29261997
240	0xbe57a913	-0.2106059
241	0xbf8698c4	-1.051537
242	0xbf49f346	-0.7888683
243	0x3e49e808	0.19717419
244	0x3f4e2d61	0.8053799
245	0x3ee368f2	0.44416004
246	0xbeddc403	-0.43313608
247	0xbf8b63d1	-1.0889837
248	0xbef77ca9	-0.48337296
249	0xbfc41479	-1.5318748
250	0xbe9d800f	-0.30761763
251	0x3f60e466	0.8784851
252	0xc04b6dab	-3.1785686
253	0xbeb4bdf3	-0.3530117
254	0xbedc3ef2	-0.43016773
255	0xbe11b348	-0.14228547

layers.0.0.output_mask f4 [80]
0	0x3f800000	1.0
1	0x3f800000	1.0
2	0x3f800000	1.0
3	0x3f800000	1.0
4	0x3f800000	1.0
5	0x3f800000	1.0
6	0x3f800000	1.0
7	0x3f800000	1.0
8	0x3f800000	1.0
9	0x3f800000	1.0
10	0x3f800000	1.0
11	0x3f800000	1.0
12	0x3f800000	1.0
13	0x3f800000	1.0
14	0x3f800000	1.0
15	0x3f800000	1.0
16	0x3f800000	1.0
17	0x3f800000	1.0
18	0x3f800000	1.0
19	0x3f800000	1.0
20	0x3f800000	1.0
21	0x3f800000	1.0
22	0x3f800000	1.0
23	0x3f800000	1.0
24	0x3f800000	1.0
25	0x3f800000	1.0
26	0x3f800000	1.0
27	0x3f800000	1.0
28	0x3f800000	1.0
29	0x3f800000	1.0
30	0x3f800000	1.0
31	0x3f800000	1.0
32	0x3f800000	1.0
33	0x3f800000	1.0
34	0x3f800000	1.0
35	0x3f800000	1.0
36	0x3f800000	1.0
37	0x3f800000	1.0
38	0x3f800000	1.0
39	0x3f800000	1.0
40	0x3f800000	1.0
41	0x3f800000	1.0
42	0x3f800000	1.0
43	0x3f800000	1.0
44	0x3f800000	1.0
45	0x3f800000	1.0
46	0x3f800000	1.0
47	0x3f800000	1.0
48	0x3f800000	1.0
49	0x3f800000	1.0
50	0x3f800000	1.0
51	0x3f800000	1.0
52	0x3f800000	1.0
53	0x3f800000	1.0
54	0x3f800000	1.0
55	0x3f800000	1.0
56	0x3f800000	1.0
57	0x3f800000	1.0
58	0x3f800000	1.0
59	0x3f800000	1.0
60	0x3f800000	1.0
61	0x3f800000	1.0
62	0x3f800000	1.0
63	0x3f800000	1.0
64	0x3f800000	1.0
65	0x3f800000	1.0
66	0x3f800000	1.0
67	0x3f800000	1.0
68	0x3f800000	1.0
69	0x3f800000	1.0
70	0x3f800000	1.0
71	0x3f800000	1.0
72	0x3f800000	1.0
73	0x3f800000	1.0
74	0x3f800000	1.0
75	0x3f800000	1.0
76	0x3f800000	1.0
77	0x3f800000	1.0
78	0x3f800000	1.0
79	0x3f800000	1.0

layers.0.1.mul.output_mask f4 [48]
0	0x3f800000	1.0
1	0x3f800000	1.0
2	0x3f800000	1.0
3	0x3f800000	1.0
4	0x3f800000	1.0
5	0x3f800000	1.0
6	0x3f800000	1.0
7	0x3f800000	1.0
8	0x3f800000	1.0
9	0x3f800000	1.0
10	0x3f800000	1.0
11	0x3f800000	1.0
12	0x3f800000	1.0
13	0x3f800000	1.0
14	0x3f800000	1.0
15	0x3f800000	1.0
16	0x3f800000	1.0
17	0x3f800000	1.0
18	0x3f800000	1.0
19	0x3f800000	1.0
20	0x3f800000	1.0
21	0x3f800000	1.0
22	0x3f800000	1.0
23	0x3f800000	1.0
24	0x3f800000	1.0
25	0x3f800000	1.0
26	0x3f800000	1.0
27	0x3f800000	1.0
28	0x3f800000	1.0
29	0x3f800000	1.0
30	0x3f800000	1.0
31	0x3f800000	1.0
32	0x3f800000	1.0
33	0x3f800000	1.0
34	0x3f800000	1.0
35	0x3f800000	1.0
36	0x3f800000	1.0
37	0x3f800000	1.0
38	0x3f800000	1.0
39	0x3f800000	1.0
40	0x3f800000	1.0
41	0x3f800000	1.0
42	0x3f800000	1.0
43	0x3f800000	1.0
44	0x3f800000	1.0
45	0x3f800000	1.0
46	0x3f800000	1.0
47	0x3f800000	1.0

layers.1.0.weight f4 [24576]
0	0xbf007582	-0.501793
1	0xbe511d84	-0.20421416
2	0x3fb5160e	1.4147356
3	0xbeb88104	-0.3603593
4	0x401d6dcb	2.4598262
5	0xbf213de2	-0.6298505
6	0x3e837f88	0.25683236
7	0xbf8b05f4	-1.0861192
8	0x3f182598	0.59432364
9	0x3f5342ba	0.8252369
10	0xbf2a563f	-0.6653785
11	0xbfcc59f3	-1.596495
12	0xc02001aa	-2.5001016
13	0xbee0e7b3	-0.43926772
14	0x3f480166	0.78127134
15	0x3fa1f306	1.265229
16	0xbf636999	-0.88833004
17	0x3dfcdc2a	0.123466805
18	0x3f8eea8e	1.116533
19	0x3f1ca992	0.61196244
20	0x3f00b932	0.50282586
21	0x3fa0c947	1.2561425
22	0x3f1fcc51	0.6242114
23	0xbf4e6dbf	-0.8063621
24	0xbf8d765e	-1.1051748
25	0x3f0dbf67	0.5537018
26	0xc01d029e	-2.4532847
27	0x3cb39a2f	0.021924106
28	0x3f757d00	0.9589386
29	0x3ee011da	0.4376362
30	0xbfa2b047	-1.2710046
31	0xbeb85905	-0.36005417
32	0xbf298084	-0.66211724
33	0x3f891836	1.0710514
34	0x3e543689	0.20723929
35	0xbf173141	-0.5905953
36	0x3f302dfe	0.6882018
37	0xbdcd321a	-0.10019322
38	0xbe38c083	-0.18042187
39	0xbeab873e	-0.3350162
40	0x3ddfe63f	0.10932588
41	0x3fdeffff	1.7421874
42	0x3ebbbd1e	0.36667722
43	0xc0087b7a	-2.1325364
44	0xbd38a5ca	-0.045079984
45	0x3f901c99	1.1258727
46	0x3f36a99b	0.7135255
47	0x3fb6ae4b	1.427194
48	0x3f38a49a	0.7212616
49	0xbe5cbbbe	-0.21555993
50	0xbf07834d	-0.52934724
51	0x3f96e500	1.1788635
52	0xbf3f943d	-0.7483557
53	0x3f69e530	0.9136534
54	0xbf052291	-0.5200587
55	0x3f803ca7	1.001851
56	0x3f249002	0.6428224
57	0x3e8ef416	0.27920598
58	0xbbd708b1	-0.0065623154
59	0xbe075372	-0.13215426
60	0xbf0eb512	-0.5574504
61	0xbf192d9e	-0.5983523
62	0x3f627e2f	0.8847379
63	0xbfa2d16f	-1.2720164
64	0x3f91c0c6	1.1386955
65	0xbfa29284	-1.2700963
66	0xbe320e3c	-0.17388242
67	0xbf7b8c54	-0.98261
68	0x3e9f7c6d	0.31149617
69	0x3fa4724e	1.2847383
70	0x3f3cf532	0.7381164
71	0x3f3ca13d	0.7368353
72	0xbe0b93ef	-0.13630651
73	0xbf3efcac	-0.74604297
74	0xbf14140d	-0.57843095
75	0x403d9e34	2.962781
76	0xbf8badfc	-1.0912471
77	0x3b690aaa	0.0035559335
78	0x3fe0a71f	1.7551001
79	0x4007e61c	2.1234198
80	0x3e6ea998	0.23306882
81	0xbf2723ad	-0.6528881
82	0xbeb6a75a	-0.35674554
83	0xbea1440b	-0.31497225
84	0x3eb977e7	0.3622429
85	0x3ec081d9	0.37599066
86	0x3fecaf26	1.8490951
87	0x3e560a60	0.20902395
88	0x3f24243a	0.6411778
89	0x3f8860c7	1.0654534
90	0xbe88cb7d	-0.2671775
91	0x3fc3b703	1.5290226
92	0x3f37e41d	0.7183245
93	0x3d60a3fd	0.05484389
94	0xbf82daca	-1.0223019
95	0x3f4be41b	0.79644936
96	0xbfc83f49	-1.5644313
97	0xbfb183a9	-1.3868304
98	0x3e928cdc	0.28623092
99	0xc00738aa	-2.1128335
100	0xbf2ee268	-0.6831422
101	0xbee4213c	-0.44556606
102	0x3e5819f0	0.21103644
103	0xbd4976a7	-0.04918542
104	0x3f94bdf2	1.1620467
105	0x3f5cb5dd	0.86215
106	0xbf962c21	-1.1732217
107	0x3f5aaa66	0.8541626
108	0xbf33e3b1	-0.70269305
109	0xbff647d1	-1.9240667
110	0x3e524100	0.20532608
111	0xbf04d393	-0.51885337
112	0xbe9233c7	-0.28555128
113	0xbec0648f	-0.3757672
114	0xba75d1ec	-0.0009377289
115	0xbf92a865	-1.145764
116	0xbf9218c9	-1.1413814
117	0xbec49c00	-0.3840027
118	0xbf26567a	-0.649757
119	0xbfc56ec5	-1.5424429
120	0xbe25f0aa	-0.16205087
121	0xbff3c6d3	-1.9045051
122	0xbf2d322f	-0.676547
123	0xbf7368e8	-0.9508195
124	0xbe56a73b	-0.20962231
125	0xbf11861e	-0.5684527
126	0xbf5c5ebf	-0.8608207
127	0xbfe37e23	-1.7772869
128	0x3ee3fdcb	0.44529566
129	0x3fee5891	1.8620778
130	0x3f454020	0.7705097
131	0xbf5a1aca	-0.85197127
132	0xbf3f1507	-0.7464146
133	0x3e4d098e	0.20023176
134	0x3fddc813	1.7326683
135	0x3eb192bf	0.3468227
136	0x3dade8ca	0.084916666
137	0x3fcbcd53	1.5922035
138	0xbf1e0b1c	-0.617357
139	0x3fe67946	1.800576
140	0xbe8f580c	-0.27996862
141	0x3f016544	0.50545144
142	0x3f3ce2e9	0.7378374
143	0xbe528d65	-0.2056175
144	0x3da0ce2d	0.07851825
145	0x400c8a1c	2.1959295
146	0xc035ee58	-2.8426723
147	0xbf35734c	-0.70879054
148	0xbeaf39d8	-0.3422382
149	0x3df738f7	0.12071412
150	0xbf8d5e82	-1.1044466
151	0x3f8e5c28	1.1121874
152	0x3fcc4225	1.5957686
153	0xbfba56fa	-1.4557793
154	0x3f93f7d8	1.1560011
155	0xbfb9f1eb	-1.4526953
156	0x3fc87fb4	1.5663972
157	0x3fa63f08	1.2987986
158	0x3f3843a2	0.719782
159	0xbf94f17b	-1.1636194
160	0x3f096792	0.5367366
161	0xbedc3eab	-0.43016562
162	0x3f6d63c2	0.92730343
163	0x3e45a059	0.19299449
164	0x404c46cd	3.1918213
165	0x3eef7136	0.4676606
166	0xbeb1f1af	-0.34754702
167	0xbf1f0dee	-0.6213063
168	0xbe495139	-0.1965989
169	0x3fa2f2cd	1.2730347
170	0xbcc4bd89	-0.024016159
171	0x3ede8aa5	0.43465152
172	0xbf84ddd4	-1.0380197
173	0xbe8a4c0f	-0.27011153
174	0xbe8b3f40	-0.27196693
175	0x400421ec	2.0645704
176	0xbfa46130	-1.2842159
177	0xbfc19c0d	-1.5125748
178	0xbec357d2	-0.3815294
179	0x3f130416	0.5742811
180	0x3ef14ea1	0.47130302
181	0xbe205414	-0.15657073
182	0x3f099884	0.53748345
183	0xbf2eb711	-0.6824809
184	0x3e976874	0.2957188
185	0x401025b6	2.2523017
186	0x401c8a5b	2.4459445
187	0x3e3d2f0f	0.18474983
188	0xbfbec9b7	-1.4905308
189	0x3fab6e20	1.3392982
190	0xbec94cf8	-0.39316535
191	0xbaae2e54	-0.0013288953
192	0x3e941cca	0.28928214
193	0xbe60e674	-0.21962911
194	0x3f7f6c24	0.99774384
195	0x3eadf4a6	0.33975714
196	0xbfd9bd68	-1.7010927
197	0xbfbc807a	-1.4726708
198	0x3d5fd951	0.05465061
199	0x3cf2b642	0.029627923
200	0xbc90873b	-0.017642608
201	0xbea803f3	-0.32815513
202	0xbe8c0d69	-0.2735398
203	0xbe49c0f2	-0.19702509
204	0xbe80744c	-0.25088727
205	0x3e96f8dd	0.29486743
206	0x3f9d2469	1.2276736
207	0x3e969f07	0.29418203
208	0xbebb3f36	-0.36571664
209	0x3fddd4e6	1.7330596
210	0xbe63283a	-0.22183314
211	0x3f0b219f	0.54348177
212	0xbfc6056b	-1.5470403
213	0x3e9c54a5	0.3053333
214	0xbf6880b2	-0.90821373
215	0x3f4903ba	0.7852131
216	0x3eb64695	0.35600725
217	0x3e34eddb	0.1766886
218	0x3f17359e	0.5906619
219	0xbed80e92	-0.42198616
220	0x3fb16774	1.3859696
221	0x3dd3847a	0.10328002
222	0x3e334776	0.17507729
223	0x3fb7d021	1.4360391
224	0x3f999262	1.1997797
225	0x3f807aa6	1.0037429
226	0x3ec41fd2	0.38305527
227	0xbee3377d	-0.44378272
228	0x3eb114ed	0.34586278
229	0xbef5f516	-0.48038548
230	0xbf9b9a8c	-1.2156539
231	0x3fbc9c36	1.4735172
232	0x3f509cb9	0.8148914
233	0x3f986907	1.1907052
234	0x3f530a72	0.82437813
235	0x3e33d7c0	0.17562771
236	0x3d69fa51	0.057123486
237	0xbef7d83e	-0.48407167
238	0xbf9bcfa7	-1.2172745
239	0xbebb7b36	-0.3661744
240	0x3eda2704	0.42607892
241	0xbf8ad3a1	-1.0845834
242	0x3f7da844	0.9908488
243	0xbb6c3545	-0.0036042493
244	0xbfcc6504	-1.5968328
245	0x3f65ce63	0.89768046
246	0x3fbef21e	1.4917638
247	0xbf846567	-1.0343446
248	0xbe569824	-0.20956475
249	0xbf2bfec6	-0.6718563
250	0xbe89e629	-0.2693341
251	0xbf86d150	-1.0532627
252	0x3f5794ef	0.8421163
253	0x3fabc621	1.3419839
254	0xc002374e	-2.0346255
255	0xc017a9ea	-2.3697457

layers.1.0.output_mask f4 [80]
0	0x3f800000	1.0
1	0x3f800000	1.0
2	0x3f800000	1.0
3	0x3f800000	1.0
4	0x3f800000	1.0
5	0x3f800000	1.0
6	0x3f800000	1.0
7	0x3f800000	1.0
8	0x3f800000	1.0
9	0x3f800000	1.0
10	0x3f800000	1.0
11	0x3f800000	1.0
12	0x3f800000	1.0
13	0x3f800000	1.0
14	0x3f800000	1.0
15	0x3f800000	1.0
16	0x3f800000	1.0
17	0x3f800000	1.0
18	0x3f800000	1.0
19	0x3f800000	1.0
20	0x3f800000	1.0
21	0x3f800000	1.0
22	0x3f800000	1.0
23	0x3f800000	1.0
24	0x3f800000	1.0
25	0x3f800000	1.0
26	0x3f800000	1.0
27	0x3f800000	1.0
28	0x3f800000	1.0
29	0x3f800000	1.0
30	0x3f800000	1.0
31	0x3f800000	1.0
32	0x3f800000	1.0
33	0x3f800000	1.0
34	0x3f800000	1.0
35	0x3f800000	1.0
36	0x3f800000	1.0
37	0x3f800000	1.0
38	0x3f800000	1.0
39	0x3f800000	1.0
40	0x3f800000	1.0
41	0x3f800000	1.0
42	0x3f800000	1.0
43	0x3f800000	1.0
44	0x3f800000	1.0
45	0x3f800000	1.0
46	0x3f800000	1.0
47	0x3f800000	1.0
48	0x3f800000	1.0
49	0x3f800000	1.0
50	0x3f800000	1.0
51	0x3f800000	1.0
52	0x3f800000	1.0
53	0x3f800000	1.0
54	0x3f800000	1.0
55	0x3f800000	1.0
56	0x3f800000	1.0
57	0x3f800000	1.0
58	0x3f800000	1.0
59	0x3f800000	1.0
60	0x3f800000	1.0
61	0x3f800000	1.0
62	0x3f800000	1.0
63	0x3f800000	1.0
64	0x3f800000	1.0
65	0x3f800000	1.0
66	0x3f800000	1.0
67	0x3f800000	1.0
68	0x3f800000	1.0
69	0x3f800000	1.0
70	0x3f800000	1.0
71	0x3f800000	1.0
72	0x3f800000	1.0
73	0x3f800000	1.0
74	0x3f800000	1.0
75	0x3f800000	1.0
76	0x3f800000	1.0
77	0x3f800000	1.0
78	0x3f800000	1.0
79	0x3f800000	1.0

layers.1.1.mul.output_mask f4 [48]
0	0x3f800000	1.0
1	0x3f800000	1.0
2	0x3f800000	1.0
3	0x3f800000	1.0
4	0x3f800000	1.0
5	0x3f800000	1.0
6	0x3f800000	1.0
7	0x3f800000	1.0
8	0x3f800000	1.0
9	0x3f800000	1.0
10	0x3f800000	1.0
11	0x3f800000	1.0
12	0x3f800000	1.0
13	0x3f800000	1.0
14	0x3f800000	1.0
15	0x3f800000	1.0
16	0x3f800000	1.0
17	0x3f800000	1.0
18	0x3f800000	1.0
19	0x3f800000	1.0
20	0x3f800000	1.0
21	0x3f800000	1.0
22	0x3f800000	1.0
23	0x3f800000	1.0
24	0x3f800000	1.0
25	0x3f800000	1.0
26	0x3f800000	1.0
27	0x3f800000	1.0
28	0x3f800000	1.0
29	0x3f800000	1.0
30	0x3f800000	1.0
31	0x3f800000	1.0
32	0x3f800000	1.0
33	0x3f800000	1.0
34	0x3f800000	1.0
35	0x3f800000	1.0
36	0x3f800000	1.0
37	0x3f800000	1.0
38	0x3f800000	1.0
39	0x3f800000	1.0
40	0x3f800000	1.0
41	0x3f800000	1.0
42	0x3f800000	1.0
43	0x3f800000	1.0
44	0x3f800000	1.0
45	0x3f800000	1.0
46	0x3f800000	1.0
47	0x3f800000	1.0

layers.2.0.weight f4 [24576]
0	0x3f14b599	0.58089596
1	0xbf1ae4de	-0.60505474
2	0xbf4d6090	-0.8022547
3	0xbf2f772f	-0.68541235
4	0x3f939008	1.152833
5	0x3f360f5c	0.71117187
6	0xbf9023a7	-1.126088
7	0xbf446f2d	-0.7673214
8	0xbe514ad1	-0.20438696
9	0xbf2bf3fa	-0.67169154
10	0xbf9adafa	-1.2098076
11	0x3eff5c9a	0.49875337
12	0xbfc551c8	-1.5415583
13	0xbf9d17c0	-1.2272873
14	0xbfa5ad76	-1.2943561
15	0xbf11793a	-0.568256
16	0x3f833b89	1.0252544
17	0xbf8e9dc7	-1.11419
18	0x3f54d4cd	0.8313721
19	0xbf6cc7aa	-0.92492163
20	0x3fc11002	1.508301
21	0xbe74ebc0	-0.23918056
22	0xbfdace78	-1.7094259
23	0x3ebd94e0	0.37027645
24	0x3f38ac8e	0.721383
25	0xbfa00909	-1.2502757
26	0xbfe69bed	-1.8016335
27	0x3f245366	0.64189756
28	0xbff4f8a2	-1.9138377
29	0x3fb7e79f	1.436756
30	0x3e645b5a	0.22300473
31	0x3f811932	1.0085814
32	0x3f1589b4	0.58413243
33	0x3e5a1d15	0.21300156
34	0xc00a8a9c	-2.16471
35	0x3f867a22	1.0506022
36	0xbe9993fb	-0.29995713
37	0x3ff42462	1.9073603
38	0x3f9642ac	1.1739097
39	0x3f80ee48	1.0072718
40	0xbfb01166	-1.375531
41	0xbf38fd27	-0.7226128
42	0xbfcfb856	-1.622813
43	0x3eaccf1d	0.33751765
44	0xbf260f7c	-0.6486738
45	0x3f25d4d7	0.6477789
46	0xbe9d3a8f	-0.3070874
47	0xbf0cde92	-0.55027115
48	0xbe8aeb8c	-0.27132833
49	0xbf67fc4e	-0.9061936
50	0xbf6d017f	-0.9258041
51	0xbfe1bb29	-1.7635242
52	0xbd33834f	-0.043826398
53	0xbea8a0b2	-0.329351
54	0xbf29c4e2	-0.66316044
55	0xbf736881	-0.95081335
56	0x3e8eceba	0.27892095
57	0x3e348c1b	0.17631571
58	0xbf3ad26c	-0.7297733
59	0x3e2f1d1e	0.17100951
60	0xbe321ab5	-0.17393
61	0xbcad2ade	-0.021138605
62	0x3f92b703	1.1462101
63	0xbf19c326	-0.600634
64	0x3f1e9bec	0.6195667
65	0x3f153141	0.5827828
66	0xbf271503	-0.65266436
67	0xbf8c7953	-1.0974525
68	0x3f6b87c4	0.92004037
69	0x3f86ba21	1.0525552
70	0xbfa31e6d	-1.274366
71	0x3f3833cd	0.7195404
72	0x401a2685	2.408601
73	0x3f2658ab	0.64979047
74	0xbefb0325	-0.49025837
75	0x3f7c9e8a	0.9867941
76	0xbfa0df2d	-1.2568108
77	0xbfd0771e	-1.6286352
78	0xbf4cb811	-0.79968363
79	0x3f857014	1.0424829
80	0xbdb54e08	-0.08852774
81	0xbe88cb3c	-0.26717556
82	0x3e3e7666	0.18599853
83	0x3f4f7751	0.8104144
84	0x3e12f67f	0.14351843
85	0x3eb1940e	0.3468327
86	0xbe859ec9	-0.26097706
87	0x3f168b80	0.5880661
88	0x3f81db49	1.0145046
89	0xbeb5d61f	-0.35514924
90	0x3f6d61db	0.9272744
91	0xbe59b3fd	-0.21260066
92	0x400e3553	2.2220047
93	0xbf181bf2	-0.5941764
94	0x3e81b27b	0.25331482
95	0x3efa3616	0.4886939
96	0xbf511231	-0.8166838
97	0x3f280e7d	0.6564711
98	0x3f3eb8fe	0.74501026
99	0x3f233a44	0.6376078
100	0xbeaa40e7	-0.33252642
101	0x3f6c98f7	0.92420906
102	0x3f86588d	1.0495774
103	0xc0071d6f	-2.1111715
104	0x3f421636	0.7581514
105	0x3eec93f1	0.4620662
106	0xbedd7e86	-0.43260592
107	0xbf9caa63	-1.2239498
108	0xbf56598c	-0.8373039
109	0x3f5317c9	0.8245817
110	0x4013e121	2.3106158
111	0x3f176656	0.5914053
112	0x3f571621	0.8401814
113	0xbfb61194	-1.4224114
114	0xbf97c4c1	-1.185692
115	0xbf82cde3	-1.0219082
116	0x3fc3129f	1.5240058
117	0xbf2f6d7d	-0.6852644
118	0x3e142066	0.14465484
119	0x400b1546	2.1731734
120	0xbfaf4167	-1.3691834
121	0x3f02b749	0.5106092
122	0x3d1710d2	0.036881275
123	0xbf5079ce	-0.8143586
124	0xbf1d4e87	-0.6144795
125	0x3fc8d0b6	1.5688694
126	0x3eb35336	0.35024422
127	0xbf8d2074	-1.1025529
128	0x3fe722c1	1.8057481
129	0xbf2fb5e9	-0.6863695
130	0x3edddbe2	0.4333182
131	0xbe9a0598	-0.30082393
132	0x40124d4f	2.2859685
133	0x3db48d82	0.08816053
134	0x3ddccb1a	0.10780926
135	0xbe149c64	-0.14512783
136	0xbf5dc0cb	-0.86622304
137	0x3e95bf8a	0.29247695
138	0x3e4488b3	0.19192772
139	0x3f394db6	0.723842
140	0x3f930d38	1.1488409
141	0x3dc7fd3b	0.09765097
142	0x3d9d3898	0.0767681
143	0x3f3b4c54	0.7316334
144	0x3fbce7be	1.4758222
145	0xbd6e3ba3	-0.058162343
146	0x3f1a2847	0.6021771
147	0xbee6b6d2	-0.45061356
148	0x3fa0ec01	1.2572023
149	0xbf8d2de6	-1.1029632
150	0x3ed76560	0.4206953
151	0x3e811a9e	0.2521562
152	0x3f7df07f	0.9919509
153	0x3f90f272	1.1323988
154	0x3f137dd5	0.5761388
155	0x3f5768b5	0.84144145
156	0x3d6d0401	0.057865147
157	0x3e92c12d	0.28663006
158	0xbd615c44	-0.055019632
159	0x3d35e408	0.04440692
160	0x3e5e0be0	0.21684217
161	0x3df996d0	0.12186968
162	0x3f7d1397	0.98858017
163	0xbfda7519	-1.7066985
164	0xbf364b6c	-0.71208835
165	0x3fc54405	1.5411383
166	0x3f8b466d	1.0880867
167	0xbd700249	-0.05859593
168	0xbf9a4f38	-1.2055426
169	0xbef4e521	-0.4783106
170	0xbfe2ecaf	-1.772848
171	0x3e63a57d	0.22231098
172	0xbedd427e	-0.43214792
173	0x3e6f3f94	0.23364097
174	0xbd278b26	-0.040904187
175	0xbfadd1e1	-1.3579675
176	0x3f413748	0.7547498
177	0x3f140ba3	0.57830256
178	0xbf151b72	-0.58245003
179	0xbf9585d0	-1.1681461
180	0x3eabd143	0.33558092
181	0x3f05b364	0.52226853
182	0xbe80ca38	-0.2515428
183	0xbf1c4652	-0.610448
184	0xbf30b55a	-0.6902672
185	0x3f90edbb	1.132255
186	0xbf9ab703	-1.2087101
187	0x3e986f1d	0.29772273
188	0xbe8723bb	-0.26394448
189	0xbf78f23f	-0.9724464
190	0x3f4d0a3c	0.8009374
191	0x3ec864c4	0.39139378
192	0x3f31c12b	0.69435376
193	0xc018f396	-2.3898673
194	0x3f55c5a6	0.8350471
195	0x3dc6c272	0.09705056
196	0x3c9f7a36	0.019467454
197	0xbf57093a	-0.83998454
198	0x3e3d079f	0.18459938
199	0x3f038ce2	0.51386845
200	0xbf9544d5	-1.1661631
201	0xbf430be9	-0.7619005
202	0xbfc5fc9a	-1.5467713
203	0x3f8bbb3f	1.0916518
204	0xb9c02b1c	-0.00036653213
205	0x3eff2e15	0.49839845
206	0x3f18f741	0.5975228
207	0xbf2230d1	-0.6335574
208	0x3f0ebc89	0.5575643
209	0xbeb2a76a	-0.34893352
210	0x3f4ba00b	0.7954108
211	0x3bd043de	0.0063557466
212	0xbead397b	-0.33832917
213	0xc00ee9a7	-2.233011
214	0xbf851fe0	-1.0400352
215	0xbf95d31d	-1.1705052
216	0xbf80d99d	-1.006641
217	0x3f386ac7	0.7203793
218	0x3f756614	0.95858884
219	0x4004b8c1	2.0737765
220	0x401f04c0	2.484665
221	0xbf707e7e	-0.9394301
222	0x3ea830ea	0.32849818
223	0x3f912978	1.134078
224	0x3f0b0fef	0.5432119
225	0xbf155e10	-0.58346653
226	0xbe89ead5	-0.26936975
227	0x401b09b4	2.4224672
228	0xbfa23a81	-1.2674104
229	0x3ea7fb1d	0.32808772
230	0xbc43701c	-0.011928584
231	0xbf2e255d	-0.6802576
232	0xc01cbcae	-2.449016
233	0x3f6f035b	0.93364495
234	0x40106345	2.256059
235	0x3db70a61	0.089375265
236	0xc0005f3b	-2.0058124
237	0x3e24d2f8	0.16096103
238	0xbdabe283	-0.08392813
239	0x3fe7264e	1.8058565
240	0xbe7c2e4c	-0.24627036
241	0xbfdfeebc	-1.7494731
242	0xbf5514a3	-0.83234614
243	0xbf771b0f	-0.96525663
244	0x3fa1daa9	1.2644855
245	0x3e946647	0.2898428
246	0xbef148b8	-0.47125793
247	0x3f0512d0	0.5198183
248	0x3dd1ce66	0.102444455
249	0xc042de3e	-3.0448146
250	0xbd1a2c5e	-0.037639968
251	0xbfe62770	-1.7980785
252	0xbf21cdc8	-0.6320462
253	0xbee25ee6	-0.44213027
254	0x3dc20363	0.09473302
255	0x3c51b7ec	0.012800198

layers.2.0.output_mask f4 [80]
0	0x3f800000	1.0
1	0x3f800000	1.0
2	0x3f800000	1.0
3	0x3f800000	1.0
4	0x3f800000	1.0
5	0x3f800000	1.0
6	0x3f800000	1.0
7	0x3f800000	1.0
8	0x3f800000	1.0
9	0x3f800000	1.0
10	0x3f800000	1.0
11	0x3f800000	1.0
12	0x3f800000	1.0
13	0x3f800000	1.0
14	0x3f800000	1.0
15	0x3f800000	1.0
16	0x3f800000	1.0
17	0x3f800000	1.0
18	0x3f800000	1.0
19	0x3f800000	1.0
20	0x3f800000	1.0
21	0x3f800000	1.0
22	0x3f800000	1.0
23	0x3f800000	1.0
24	0x3f800000	1.0
25	0x3f800000	1.0
26	0x3f800000	1.0
27	0x3f800000	1.0
28	0x3f800000	1.0
29	0x3f800000	1.0
30	0x3f800000	1.0
31	0x3f800000	1.0
32	0x3f800000	1.0
33	0x3f800000	1.0
34	0x3f800000	1.0
35	0x3f800000	1.0
36	0x3f800000	1.0
37	0x3f800000	1.0
38	0x3f800000	1.0
39	0x3f800000	1.0
40	0x3f800000	1.0
41	0x3f800000	1.0
42	0x3f800000	1.0
43	0x3f800000	1.0
44	0x3f800000	1.0
45	0x3f800000	1.0
46	0x3f800000	1.0
47	0x3f800000	1.0
48	0x3f800000	1.0
49	0x3f800000	1.0
50	0x3f800000	1.0
51	0x3f800000	1.0
52	0x3f800000	1.0
53	0x3f800000	1.0
54	0x3f800000	1.0
55	0x3f800000	1.0
56	0x3f800000	1.0
57	0x3f800000	1.0
58	0x3f800000	1.0
59	0x3f800000	1.0
60	0x3f800000	1.0
61	0x3f800000	1.0
62	0x3f800000	1.0
63	0x3f800000	1.0
64	0x3f800000	1.0
65	0x3f800000	1.0
66	0x3f800000	1.0
67	0x3f800000	1.0
68	0x3f800000	1.0
69	0x3f800000	1.0
70	0x3f800000	1.0
71	0x3f800000	1.0
72	0x3f800000	1.0
73	0x3f800000	1.0
74	0x3f800000	1.0
75	0x3f800000	1.0
76	0x3f800000	1.0
77	0x3f800000	1.0
78	0x3f800000	1.0
79	0x3f800000	1.0

layers.2.1.mul.output_mask f4 [48]
0	0x3f800000	1.0
1	0x3f800000	1.0
2	0x3f800000	1.0
3	0x3f800000	1.0
4	0x3f800000	1.0
5	0x3f800000	1.0
6	0x3f800000	1.0
7	0x3f800000	1.0
8	0x3f800000	1.0
9	0x3f800000	1.0
10	0x3f800000	1.0
11	0x3f800000	1.0
12	0x3f800000	1.0
13	0x3f800000	1.0
14	0x3f800000	1.0
15	0x3f800000	1.0
16	0x3f800000	1.0
17	0x3f800000	1.0
18	0x3f800000	1.0
19	0x3f800000	1.0
20	0x3f800000	1.0
21	0x3f800000	1.0
22	0x3f800000	1.0
23	0x3f800000	1.0
24	0x3f800000	1.0
25	0x3f800000	1.0
26	0x3f800000	1.0
27	0x3f800000	1.0
28	0x3f800000	1.0
29	0x3f800000	1.0
30	0x3f800000	1.0
31	0x3f800000	1.0
32	0x3f800000	1.0
33	0x3f800000	1.0
34	0x3f800000	1.0
35	0x3f800000	1.0
36	0x3f800000	1.0
37	0x3f800000	1.0
38	0x3f800000	1.0
39	0x3f800000	1.0
40	0x3f800000	1.0
41	0x3f800000	1.0
42	0x3f800000	1.0
43	0x3f800000	1.0
44	0x3f800000	1.0
45	0x3f800000	1.0
46	0x3f800000	1.0
47	0x3f800000	1.0

readout.weight f4 [16]
0	0x3f4d32bb	0.80155534
1	0x3e090639	0.1338128
2	0xbf0a0906	-0.5392002
3	0x3f66d3c8	0.901669
4	0xbfb876f7	-1.4411305
5	0xbe497c56	-0.19676337
6	0x3eca0b59	0.39461783
7	0xbf1957ab	-0.59899396
8	0xbdc7c35e	-0.0975406
9	0x3f0a6923	0.54066676
10	0xbedf9116	-0.4366538
11	0x3e7e168c	0.24813288
12	0x3f19d81b	0.60095376
13	0x3f476073	0.77881545
14	0x3fcfe964	1.62431
15	0x3f7b4975	0.9815896
