fine_tuned_model_weak.pth (torch, 305574 bytes, 12 tensors)

input_proj.weight f4 [256]
0	0xbfb55754	-1.4167275
1	0x3e2fa0bc	0.17151159
2	0xbf41b63d	-0.756687
3	0x3f29424b	0.6611678
4	0x3f1e8485	0.6192096
5	0x3fab3bfd	1.3377682
6	0xbced192c	-0.028942667
7	0x3db335be	0.08750485
8	0xbf536c1c	-0.82586837
9	0xbfb5c76c	-1.4201484
10	0x3fcfd62f	1.6237239
11	0x3fb3493c	1.4006724
12	0xbdac6af7	-0.084188394
13	0xbfbc4a09	-1.4710094
14	0xbf6a728b	-0.9158103
15	0xbf64bee0	-0.8935375
16	0x3f070176	0.52736604
17	0xc02edd2f	-2.73225
18	0xbf51e72c	-0.81993365
19	0xbe3f61e3	-0.18689685
20	0x3facba63	1.3494381
21	0xbf079150	-0.52956104
22	0xbf7b2b96	-0.9811338
23	0x3f7b1b3d	0.9808844
24	0x3f8d182a	1.1022999
25	0xc013621e	-2.3028636
26	0x3ee3df9f	0.44506547
27	0x3fcd352c	1.6031852
28	0xbfab2696	-1.337115
29	0x3f5b04b0	0.8555403
30	0xbfb7e05f	-1.4365348
31	0x3e8add21	0.27121833
32	0x3e412fea	0.18865934
33	0xbeb137b1	-0.34612802
34	0x40021383	2.032441
35	0x3f84f3c7	1.0386895
36	0x3e6edcbe	0.23326394
37	0x3fc9e417	1.5772732
38	0x3ee9610d	0.45581856
39	0x3fd5234c	1.6651397
40	0x3eda6ae9	0.4265969
41	0xbe96a6a0	-0.29424
42	0xbf2b9f96	-0.67040384
43	0x401491f9	2.3214095
44	0xbf7517dc	-0.9573953
45	0x3f410c41	0.7540932
46	0x3ed1cc3c	0.4097613
47	0xbe5d1835	-0.21591265
48	0xbf93f8e4	-1.156033
49	0x4023e208	2.5606709
50	0xbfeb6a79	-1.8391868
51	0x403b8696	2.9300895
52	0x3d7bf657	0.061514225
53	0x3d85394e	0.065050706
54	0x3f182fc1	0.59447867
55	0xbf9b3b33	-1.2127441
56	0x3faa3617	1.3297757
57	0xbfaa5192	-1.3306143
58	0x3c5ad050	0.01335533
59	0x3f2760c3	0.6538202
60	0x3fe470fe	1.7846982
61	0x3fb31203	1.3989872
62	0xbf823f13	-1.0175499
63	0xbfb8198f	-1.43828
64	0xbf7a0919	-0.9767013
65	0x400414a1	2.063759
66	0xbf2ac22d	-0.6670254
67	0xbeea8adf	-0.45809075
68	0x3f03f421	0.51544386
69	0xbfb1b331	-1.388281
70	0xbfdd96a6	-1.7311599
71	0xbf8aadfa	-1.0834343
72	0xbd4c52c1	-0.049883608
73	0x3f517187	0.81813854
74	0x401de0a9	2.4668372
75	0x3dfb3498	0.12265891
76	0x3ec0862c	0.37602365
77	0x3eb30af3	0.3496929
78	0x3ed08436	0.4072587
79	0xbf39f42e	-0.72638214
80	0xbf028159	-0.5097862
81	0x3f320f28	0.69554377
82	0xbf3a421f	-0.7275714
83	0x3f5d7753	0.865102
84	0x3fc2f233	1.5230163
85	0xbf352975	-0.70766383
86	0x3fcdcdec	1.6078467
87	0xbec761d7	-0.38941833
88	0xbe9f3199	-0.31092528
89	0xbfd949fb	-1.6975702
90	0xbef4f79b	-0.47845158
91	0x3f9407d2	1.1564887
92	0xbe9d05ff	-0.30668637
93	0xbfcc37aa	-1.5954487
94	0xbfd6fcd0	-1.6795902
95	0x3fb49f9e	1.4111211
96	0x3eb0d430	0.34536886
97	0x3ed000ab	0.4062551
98	0x3f856138	1.0420294
99	0x3ee45e10	0.44603014
100	0xbed01c0a	-0.40646392
101	0x3e7d3d2f	0.24730371
102	0x3f5d7630	0.86508465
103	0xbfa4e1c7	-1.2881402
104	0x3f2a88e6	0.6661514
105	0x402de42a	2.717051
106	0xbf80bf9a	-1.0058472
107	0xbf2b788d	-0.6698082
108	0xbedd3646	-0.4320547
109	0xbf3e2098	-0.74268484
110	0x3f96badc	1.1775775
111	0xbf865e67	-1.0497559
112	0x3fef3040	1.86866
113	0x3e301273	0.17194538
114	0xbfb7ee69	-1.4369632
115	0xc0028bd2	-2.039784
116	0xbf6034fa	-0.87580836
117	0x3fbdf7a4	1.4841199
118	0x3d915eee	0.070981845
119	0xbfa7afd2	-1.3100531
120	0xbdb1cf0a	-0.08682068
121	0x3eb3441f	0.3501291
122	0x3fac2508	1.3448801
123	0xbfb50d5b	-1.4144701
124	0xbfa4daa6	-1.2879226
125	0x3e98e8f5	0.29865232
126	0xbf82ebfb	-1.0228266
127	0x3e925dae	0.28587097
128	0xbf7efdff	-0.9960632
129	0xbefaa2f6	-0.48952454
130	0x3f4d2535	0.801349
131	0xbf295d22	-0.66157734
132	0xbebd2bdf	-0.36947533
133	0xbff72f10	-1.9311237
134	0x3f930199	1.1484863
135	0xbe6ab95a	-0.22922269
136	0xbe495275	-0.19660361
137	0xbe39bf1b	-0.18139307
138	0x3f99c48f	1.201311
139	0x3ecd79d5	0.40132013
140	0xbf2dd6a9	-0.6790567
141	0x3f8e7fd1	1.1132756
142	0x3e8a60c3	0.27026948
143	0xbfb25498	-1.3932066
144	0xbd6ed60e	-0.058309607
145	0xbe8867d4	-0.26641715
146	0x3f2d3971	0.67665774
147	0x3f0fe649	0.5621076
148	0x3fb45047	1.4086999
149	0xbe6c30fc	-0.23065561
150	0x3d907db8	0.07055229
151	0xbf27eceb	-0.65595883
152	0xc0068440	-2.101822
153	0xbf237085	-0.63843566
154	0xbd16660d	-0.036718417
155	0x3f80f857	1.0075787
156	0xbf5570b7	-0.83375114
157	0x3f2defb2	0.6794387
158	0x3fa6e8ee	1.3039834
159	0x3e9c730f	0.30556533
160	0x3f3f3e20	0.7470417
161	0xbfa5b9e0	-1.294735
162	0x3f388ab7	0.7208666
163	0xbfa6e481	-1.3038484
164	0x3fe971ae	1.8237817
165	0x3e76aa2c	0.24088353
166	0xbfaa0c6b	-1.328504
167	0x3fa8d84a	1.3191006
168	0xbf91e26a	-1.1397221
169	0x3f5a70d3	0.85328406
170	0xbe0fa097	-0.14026104
171	0x3fad3299	1.3531066
172	0x3f927367	1.1441468
173	0x3d38e7b6	0.04514285
174	0xbe411764	-0.18856579
175	0x4010b978	2.26132
176	0xbf50850c	-0.81453013
177	0xbfc883b4	-1.5665193
178	0xbe2b0698	-0.16701734
179	0xbf539cdd	-0.8266123
180	0xbe91f27d	-0.28505316
181	0x3ed0412f	0.4067473
182	0x3e7bf443	0.24604897
183	0x3ff852f0	1.940031
184	0x3f2814aa	0.6565653
185	0x3f0bc292	0.54593766
186	0x3f4addcd	0.7924469
187	0xc0082b7c	-2.127654
188	0x3e192a81	0.1495762
189	0xbf4ea768	-0.8072419
190	0x3e2b04ec	0.16701096
191	0xc0038345	-2.054887
192	0x3fef8fde	1.871578
193	0x3fa04f5f	1.2524222
194	0xc03bfb6d	-2.9372208
195	0xbe870c0e	-0.26376384
196	0xbe852c2b	-0.2601026
197	0xbfbfd93e	-1.4988172
198	0xbfab4340	-1.3379898
199	0xbd93966b	-0.07206424
200	0x3fa5ed78	1.2963095
201	0x3ea6b637	0.32560894
202	0xbdf4f6dc	-0.11961147
203	0x3f858585	1.0431372
204	0xbfa4f575	-1.2887408
205	0xbf86246e	-1.0479867
206	0x3e230312	0.1591914
207	0x3f7d6d94	0.9899533
208	0x3ed4f2d8	0.41591525
209	0x3e802afb	0.25032791
210	0x3edad7fa	0.42742902
211	0x3f4adda8	0.7924447
212	0x3f937460	1.151989
213	0xbf3d2d59	-0.7389732
214	0x3fa871ff	1.3159789
215	0xbffb44ee	-1.9630411
216	0xbeef99e1	-0.46797088
217	0xbe1a9e38	-0.15099418
218	0x3ea53408	0.3226626
219	0xbf7f83ca	-0.9981047
220	0xbe0e0c11	-0.1387179
221	0x3e37b90d	0.17941685
222	0x3e20a5f5	0.15688308
223	0xbfa41ddf	-1.2821616
224	0x3c172052	0.009224014
225	0xbf4f917a	-0.81081355
226	0xbd717ae6	-0.058955096
227	0xbeb164d1	-0.3464723
228	0x3ff98e4e	1.9496553
229	0x3f3202f1	0.6953574
230	0x3c94ee4d	0.018180037
231	0xbf9ea619	-1.2394439
232	0xbd9b5b44	-0.07585767
233	0x3f431721	0.76207167
234	0xbf614679	-0.8799816
235	0x3f1c1397	0.6096739
236	0xc02d232f	-2.7052724
237	0xbf39cfe3	-0.72582835
238	0xbefaa01d	-0.48950282
239	0x3f9fc1c8	1.2481012
240	0xbd6d0106	-0.057862304
241	0x3eac04d6	0.3359744
242	0xbfd271d8	-1.6440992
243	0xc000222b	-2.0020854
244	0xbfd0c308	-1.6309519
245	0x3dbe7c84	0.09301093
246	0x3f22baf0	0.63566494
247	0xbf931cd7	-1.1493176
248	0x3f72801c	0.9472673
249	0x3eac10b9	0.33606508
250	0x3f45525f	0.77078813
251	0xbf90b587	-1.1305398
252	0x3e1f1d6f	0.15538572
253	0x3f536511	0.8257609
254	0xbf8c4985	-1.0959936
255	0xbca85889	-0.02055003

input_proj.output_mask f4 [64]
0	0x3f800000	1.0
1	0x3f800000	1.0
2	0x3f800000	1.0
3	0x3f800000	1.0
4	0x3f800000	1.0
5	0x3f800000	1.0
6	0x3f800000	1.0
7	0x3f800000	1.0
8	0x3f800000	1.0
9	0x3f800000	1.0
10	0x3f800000	1.0
11	0x3f800000	1.0
12	0x3f800000	1.0
13	0x3f800000	1.0
14	0x3f800000	1.0
15	0x3f800000	1.0
16	0x00000000	0.0
17	0x00000000	0.0
18	0x00000000	0.0
19	0x00000000	0.0
20	0x00000000	0.0
21	0x00000000	0.0
22	0x00000000	0.0
23	0x00000000	0.0
24	0x00000000	0.0
25	0x00000000	0.0
26	0x00000000	0.0
27	0x00000000	0.0
28	0x00000000	0.0
29	0x00000000	0.0
30	0x00000000	0.0
31	0x00000000	0.0
32	0x00000000	0.0
33	0x00000000	0.0
34	0x00000000	0.0
35	0x00000000	0.0
36	0x00000000	0.0
37	0x00000000	0.0
38	0x00000000	0.0
39	0x00000000	0.0
40	0x00000000	0.0
41	0x00000000	0.0
42	0x00000000	0.0
43	0x00000000	0.0
44	0x00000000	0.0
45	0x00000000	0.0
46	0x00000000	0.0
47	0x00000000	0.0
48	0x00000000	0.0
49	0x00000000	0.0
50	0x00000000	0.0
51	0x00000000	0.0
52	0x00000000	0.0
53	0x00000000	0.0
54	0x00000000	0.0
55	0x00000000	0.0
56	0x00000000	0.0
57	0x00000000	0.0
58	0x00000000	0.0
59	0x00000000	0.0
60	0x00000000	0.0
61	0x00000000	0.0
62	0x00000000	0.0
63	0x00000000	0.0

layers.0.0.weight f4 [24576]
0	0xbe3a2e6b	-0.1818177
1	0xbf818b9f	-1.0120734
2	0xbc067a16	-0.0082078185
3	0xbe86c9a2	-0.2632571
4	0x3f4e5c54	0.8060963
5	0x3f8e7c78	1.1131735
6	0x3fe9b259	1.8257552
7	0x3e8a8f25	0.27062336
8	0x3f770b81	0.9650193
9	0x3eb78670	0.35844755
10	0xbf8c63e2	-1.0967982
11	0xbeacbc74	-0.33737528
12	0xbff21b56	-1.8914592
13	0xbf85728c	-1.0425582
14	0xbf5deb5e	-0.86687267
15	0x3fc3d100	1.5298157
16	0x3ea390df	0.31946465
17	0xbefc5c5e	-0.4928922
18	0xbfb645bd	-1.4240032
19	0x3fba023e	1.4531934
20	0xbf55b695	-0.83481723
21	0xbfb6457b	-1.4239954
22	0xbf1f2cbb	-0.6217763
23	0xbd976b81	-0.073935516
24	0x3e664e9c	0.22490925
25	0x3ec7cb58	0.39022326
26	0x3f75ba3e	0.9598731
27	0xbee408d9	-0.44538
28	0x3ef56389	0.47927502
29	0xbfc98575	-1.5743853
30	0xbf68f845	-0.9100383
31	0x3f070b3f	0.52751535
32	0x3f100437	0.5625643
33	0xbf40f1ef	-0.7536916
34	0xbe5fac4e	-0.21843073
35	0xbdc16718	-0.09443492
36	0xbdaa4630	-0.083141685
37	0x3db1af96	0.086760685
38	0x3e4d31f9	0.20038594
39	0xbfded3ec	-1.7408423
40	0x3e378211	0.1792071
41	0x3eadf5de	0.33976644
42	0xbfd04b9b	-1.6273073
43	0xbe4aa148	-0.19788086
44	0xbfbf40d5	-1.494166
45	0xbdb83fde	-0.08996557
46	0xbf2c24e7	-0.6724381
47	0x3fe13ed3	1.7597297
48	0x3ec6f1c3	0.38856325
49	0x3f3cd220	0.73758125
50	0xbf971196	-1.1802242
51	0x3e6a0ca6	0.22856387
52	0xbf0a2389	-0.5396047
53	0xbe8f87f0	-0.280334
54	0x3fa470cc	1.2846923
55	0x3f1f1d99	0.6215454
56	0x3d382408	0.044956237
57	0xbec88c62	-0.39169604
58	0xbe527e26	-0.20555934
59	0x3f558e03	0.8341982
60	0xbbc4dbc3	-0.006007643
61	0x3ee07bfe	0.438446
62	0xbf2aa581	-0.6665879
63	0xbee468a8	-0.44611096
64	0xbf236637	-0.6382784
65	0x3c52bf02	0.012862923
66	0xbfaa0e68	-1.3285646
67	0x3f5d47ac	0.8643749
68	0x3feffa72	1.8748305
69	0xbf7c685d	-0.98596746
70	0xbf060cd0	-0.523633
71	0x3fbf5f6c	1.4950995
72	0x3dd4ca98	0.10390204
73	0xbf012c77	-0.5045847
74	0xbd7a868d	-0.061163474
75	0xbf21b40b	-0.6316535
76	0x3f29b68f	0.6629419
77	0x3e4f5336	0.20246586
78	0xbc7b9476	-0.01535522
79	0x3f96503e	1.1743238
80	0xbf6f2e23	-0.93429774
81	0xbf873c20	-1.0565224
82	0x3f2edf09	0.68309075
83	0x3f9cfcfd	1.2264706
84	0xbfa50429	-1.2891895
85	0x3e35d58d	0.17757244
86	0x3fb96ede	1.4486959
87	0x3f52beac	0.8232219
88	0x3f211ce1	0.6293469
89	0x3f6d6a81	0.9274064
90	0xbefb01d6	-0.49024838
91	0xc000a11d	-2.0098336
92	0xbf9c599f	-1.221485
93	0xbfb8a81c	-1.4426303
94	0xbf8fc949	-1.1233302
95	0x401ad817	2.419439
96	0xbf8d40f6	-1.103545
97	0xbf3bb924	-0.7332938
98	0x3ee9b317	0.45644447
99	0xbfaa292f	-1.3293818
100	0xbf21137d	-0.6292036
101	0xbfdaf9d0	-1.7107487
102	0x3e68eb60	0.22746038
103	0xbecdc2fe	-0.4018783
104	0xbf3e3a3c	-0.7430761
105	0xbf9f0d15	-1.2425867
106	0x3fe8a744	1.8176045
107	0xbe7f213d	-0.24915023
108	0x40318c87	2.774202
109	0x3f2e713e	0.68141544
110	0xbd0729c9	-0.032998834
111	0xbfe0264d	-1.7511688
112	0xbf36929f	-0.71317476
113	0xbdb04952	-0.08607735
114	0xbbfb9e4c	-0.0076787826
115	0x3ed61999	0.41816404
116	0xbf47b587	-0.78011364
117	0xbe7fc8f2	-0.24978998
118	0x3da2be28	0.07946426
119	0x405106e6	3.266046
120	0x3ea642dc	0.32472885
121	0x3f63090a	0.8868567
122	0x3fe3e150	1.7803135
123	0x3f7759d0	0.9662142
124	0x3fe16367	1.760846
125	0xbecd1125	-0.40052143
126	0xbdc7b1e1	-0.097507246
127	0x3f1eedf6	0.6208185
128	0xc008bb97	-2.1364496
129	0xbcafb7cf	-0.021449951
130	0x3f476d7c	0.77901435
131	0x3f2e506e	0.68091476
132	0x3ed99299	0.42494658
133	0xbf1b9c4a	-0.60785353
134	0x3f3b5ecb	0.7319152
135	0xbee49f47	-0.4465277
136	0x3f47c4e3	0.780348
137	0xbf9c130b	-1.2193311
138	0xbcc7a231	-0.024369331
139	0x3e4baaea	0.19889417
140	0x3ebbf2a6	0.36708564
141	0x3f4c41e4	0.7978804
142	0xbf2a3dbe	-0.6650046
143	0xbf8eb8a7	-1.1150101
144	0x3f32216a	0.69582236
145	0x3f241d23	0.6410696
146	0xbe986d0e	-0.29770702
147	0xbf26a48e	-0.6509484
148	0x3fa9c33a	1.3262703
149	0xbdcd003c	-0.1000981
150	0x3d796805	0.060890216
151	0x3e9e9024	0.30969346
152	0xbdc2161d	-0.09476874
153	0xbfccdeb4	-1.6005464
154	0xbf1cf442	-0.6131021
155	0x3f45e56d	0.773032
156	0xbf5a8434	-0.85357976
157	0xbfd80fe4	-1.687985
158	0x3f025b6a	0.50920737
159	0x3fcbf919	1.5935394
160	0x3ccae9ab	0.024769625
161	0x3ff7ae4c	1.9350066
162	0x3f014b71	0.5050574
163	0xbfb6604e	-1.424814
164	0xbedaef40	-0.42760658
165	0x3eda9733	0.4269348
166	0xbeb65e1a	-0.3561867
167	0x3fb679e5	1.4255949
168	0x3fc028b5	1.5012423
169	0xbf95d01a	-1.1704133
170	0x3e5f0c3b	0.2178201
171	0xbf34d2b2	-0.70633996
172	0xbe3fd0d5	-0.18732007
173	0x3fd30d54	1.6488442
174	0x3ebf9ade	0.37422842
175	0xc003e372	-2.0607572
176	0x3edfbc08	0.43698144
177	0x3fb2a513	1.3956627
178	0x3f0af827	0.542849
179	0xbf972a43	-1.1809772
180	0xbf2a607c	-0.66553473
181	0xbf3fadaa	-0.74874365
182	0x400f1508	2.2356586
183	0x3f295a97	0.66153854
184	0xbe9eebd2	-0.31039292
185	0xbf2461f1	-0.64211947
186	0x3eac6bd5	0.3367602
187	0xbd27d778	-0.04097697
188	0xbf183e80	-0.5947037
189	0x3e9a0e9a	0.30089265
190	0xbf68bc11	-0.90911967
191	0xbe45bd3f	-0.19310473
192	0x3f8d4940	1.1037979
193	0xbe7da17b	-0.24768631
194	0xbe418b89	-0.18900885
195	0xbf5a3bbb	-0.8524739
196	0xbff99941	-1.9499894
197	0x3f298273	0.66214675
198	0x3f003b50	0.50090504
199	0x3f26412e	0.64943206
200	0xbef860a0	-0.4851122
201	0x3f5268ca	0.82191145
202	0xbe9d2085	-0.30688873
203	0xbfaacee7	-1.3344392
204	0xbfcce7f0	-1.6008282
205	0x3e1822f1	0.14857079
206	0x3d860425	0.06543759
207	0xbf1294be	-0.5725821
208	0x3f7ab66b	0.979346
209	0x3cc48ba0	0.02399236
210	0x3f7ddb73	0.9916298
211	0x3f849752	1.0358679
212	0x3f91c73c	1.1388927
213	0x3fad0f8b	1.3520368
214	0x3f49a9a5	0.7877448
215	0xbfb0b832	-1.3806212
216	0xbf85084b	-1.0393156
217	0x3e84acb1	0.25913003
218	0x3faad760	1.3346977
219	0x3e472a61	0.1944976
220	0xbfe28724	-1.7697492
221	0xbf5f63f1	-0.87261873
222	0x3f6f68f7	0.9351954
223	0x3df6fa06	0.12059407
224	0x3ead46a7	0.33842966
225	0x3f790f58	0.9728904
226	0x3f1126a3	0.5669958
227	0x3f563d00	0.8368683
228	0xbfb23d1d	-1.39249
229	0x3e645da2	0.22301343
230	0x3d0c3914	0.03423412
231	0x3efed684	0.49773037
232	0x3e97502a	0.29553348
233	0xbfe15df0	-1.7606792
234	0xbf62e8a3	-0.88636225
235	0xc01e1502	-2.4700322
236	0xbf44d48b	-0.76886815
237	0x3e6ed738	0.23324287
238	0x3f8332d7	1.024989
239	0x3f6df9de	0.9295939
240	0xbd12a73c	-0.03580402
241	0xbf263824	-0.64929414
242	0xbf1fd3a4	-0.6243231
243	0x3e600b83	0.21879391
244	0x3f7d62d8	0.9897895
245	0x3d8888a2	0.06666686
246	0xbf4676c2	-0.7752496
247	0xbf550a14	-0.83218503
248	0xbe9990ac	-0.29993188
249	0xbfb7a19c	-1.4346194
250	0xbb36056d	-0.002777423
251	0x3f621c8c	0.8832481
252	0xc033a85f	-2.8071516
253	0x3eaf77da	0.34271127
254	0xbe8dcb81	-0.27694324
255	0x3f02ee7e	0.5114516

layers.0.0.output_mask f4 [80]
0	0x3f800000	1.0
1	0x3f800000	1.0
2	0x3f800000	1.0
3	0x3f800000	1.0
4	0x3f800000	1.0
5	0x3f800000	1.0
6	0x3f800000	1.0
7	0x3f800000	1.0
8	0x3f800000	1.0
9	0x3f800000	1.0
10	0x3f800000	1.0
11	0x3f800000	1.0
12	0x3f800000	1.0
13	0x3f800000	1.0
14	0x3f800000	1.0
15	0x3f800000	1.0
16	0x3f800000	1.0
17	0x3f800000	1.0
18	0x3f800000	1.0
19	0x3f800000	1.0
20	0x3f800000	1.0
21	0x3f800000	1.0
22	0x3f800000	1.0
23	0x3f800000	1.0
24	0x3f800000	1.0
25	0x3f800000	1.0
26	0x3f800000	1.0
27	0x3f800000	1.0
28	0x3f800000	1.0
29	0x3f800000	1.0
30	0x3f800000	1.0
31	0x3f800000	1.0
32	0x3f800000	1.0
33	0x3f800000	1.0
34	0x3f800000	1.0
35	0x3f800000	1.0
36	0x3f800000	1.0
37	0x3f800000	1.0
38	0x3f800000	1.0
39	0x3f800000	1.0
40	0x3f800000	1.0
41	0x3f800000	1.0
42	0x3f800000	1.0
43	0x3f800000	1.0
44	0x3f800000	1.0
45	0x3f800000	1.0
46	0x3f800000	1.0
47	0x3f800000	1.0
48	0x3f800000	1.0
49	0x3f800000	1.0
50	0x3f800000	1.0
51	0x3f800000	1.0
52	0x3f800000	1.0
53	0x3f800000	1.0
54	0x3f800000	1.0
55	0x3f800000	1.0
56	0x3f800000	1.0
57	0x3f800000	1.0
58	0x3f800000	1.0
59	0x3f800000	1.0
60	0x3f800000	1.0
61	0x3f800000	1.0
62	0x3f800000	1.0
63	0x3f800000	1.0
64	0x3f800000	1.0
65	0x3f800000	1.0
66	0x3f800000	1.0
67	0x3f800000	1.0
68	0x3f800000	1.0
69	0x3f800000	1.0
70	0x3f800000	1.0
71	0x3f800000	1.0
72	0x3f800000	1.0
73	0x3f800000	1.0
74	0x3f800000	1.0
75	0x3f800000	1.0
76	0x3f800000	1.0
77	0x3f800000	1.0
78	0x3f800000	1.0
79	0x3f800000	1.0

layers.0.1.mul.output_mask f4 [48]
0	0x3f800000	1.0
1	0x3f800000	1.0
2	0x3f800000	1.0
3	0x3f800000	1.0
4	0x3f800000	1.0
5	0x3f800000	1.0
6	0x3f800000	1.0
7	0x3f800000	1.0
8	0x3f800000	1.0
9	0x3f800000	1.0
10	0x3f800000	1.0
11	0x3f800000	1.0
12	0x3f800000	1.0
13	0x3f800000	1.0
14	0x3f800000	1.0
15	0x3f800000	1.0
16	0x3f800000	1.0
17	0x3f800000	1.0
18	0x3f800000	1.0
19	0x3f800000	1.0
20	0x3f800000	1.0
21	0x3f800000	1.0
22	0x3f800000	1.0
23	0x3f800000	1.0
24	0x3f800000	1.0
25	0x3f800000	1.0
26	0x3f800000	1.0
27	0x3f800000	1.0
28	0x3f800000	1.0
29	0x3f800000	1.0
30	0x3f800000	1.0
31	0x3f800000	1.0
32	0x3f800000	1.0
33	0x3f800000	1.0
34	0x3f800000	1.0
35	0x3f800000	1.0
36	0x3f800000	1.0
37	0x3f800000	1.0
38	0x3f800000	1.0
39	0x3f800000	1.0
40	0x3f800000	1.0
41	0x3f800000	1.0
42	0x3f800000	1.0
43	0x3f800000	1.0
44	0x3f800000	1.0
45	0x3f800000	1.0
46	0x3f800000	1.0
47	0x3f800000	1.0

layers.1.0.weight f4 [24576]
0	0xbf399185	-0.7248767
1	0xbe651ade	-0.2237353
2	0x3f9a1fad	1.2040917
3	0xbdbcc408	-0.092170775
4	0x400a3f42	2.160111
5	0xbeb03867	-0.34418032
6	0xbebb0adb	-0.3653172
7	0xbfad96c1	-1.3561631
8	0x3f1a4044	0.6025431
9	0x3f463d93	0.77437705
10	0xbe251961	-0.16122963
11	0xc00b0adb	-2.1725376
12	0xc021b4d5	-2.526662
13	0xbcb3735f	-0.0219056
14	0x3f1a15d5	0.60189563
15	0x3fc6559c	1.5494876
16	0xbf9c7313	-1.2222618
17	0x3ea9fa33	0.331987
18	0x3f206139	0.6264835
19	0x3f7aa740	0.97911453
20	0x3e92ea54	0.28694403
21	0x3fd9994b	1.6999906
22	0x3eb3c670	0.35112333
23	0xbf876729	-1.0578357
24	0xbf9cca37	-1.2249211
25	0x3ec7bbd6	0.39010495
26	0xbffaed7e	-1.9603727
27	0xbee81d1b	-0.45334706
28	0x3f3e0a13	0.7423412
29	0x3f1057ed	0.56384164
30	0xbf9c7af5	-1.2225024
31	0x3dfb5907	0.1227284
32	0xbf3a13e3	-0.72686595
33	0x3f49d783	0.7884447
34	0x3f3a5c8a	0.72797453
35	0xbf539e6a	-0.82663596
36	0x3f4c4056	0.7978567
37	0x3e5e6b0e	0.21720526
38	0xbe0bfe2a	-0.13671175
39	0xbf27803e	-0.6543006
40	0xbcea8c20	-0.02863127
41	0x400b78cd	2.179248
42	0x3d84a73f	0.06477212
43	0xc01fe1b9	-2.498152
44	0xbcbcd6d9	-0.023051666
45	0x3fd02603	1.62616
46	0x3f7ef00b	0.99585027
47	0x3fe0f730	1.7575436
48	0x3f35f1e4	0.7107222
49	0x3e0f7ebf	0.14013194
50	0xbf5c7c9c	-0.8612764
51	0x3fad1146	1.3520896
52	0xbf5ac0e1	-0.8545056
53	0x3fa752f0	1.3072186
54	0xbf91fe37	-1.1405705
55	0x3ec10e42	0.3770619
56	0x3f2b10b4	0.6682236
57	0x3ea24a4a	0.31697303
58	0x3f18a828	0.59631586
59	0xbeaaf5bd	-0.33390608
60	0xbf6d134e	-0.9260758
61	0xbf0fccec	-0.5617206
62	0x3f96ded1	1.1786748
63	0xbf1cc959	-0.6124473
64	0x3f5bb798	0.85827017
65	0xbf9296dc	-1.1452289
66	0xbf12ff24	-0.57420564
67	0xbf13a3f2	-0.57672036
68	0xbd0c8e4f	-0.034315404
69	0x3fde2fea	1.7358372
70	0x39407f01	0.0001835786
71	0x3e9fd22e	0.31215042
72	0xbeb63b4d	-0.35592118
73	0xbf59af28	-0.8503289
74	0xbe7df4ab	-0.24800365
75	0x402a34ce	2.659473
76	0xbfb8e388	-1.4444437
77	0x3e44ddfb	0.19225304
78	0x3fd79840	1.6843338
79	0x40218692	2.5238385
80	0xbe690df6	-0.22759232
81	0xbf160d3c	-0.58613944
82	0xbed0c4b9	-0.40775087
83	0xbe2da6d5	-0.16958173
84	0x3e870fcd	0.26379243
85	0x3f86def8	1.0536795
86	0x3fae52c4	1.3619008
87	0x3dbd1dd6	0.092342064
88	0x3ed9dd2a	0.42551547
89	0x3f6b8794	0.9200375
90	0xbe4ace1a	-0.19805184
91	0x3f631fd8	0.88720465
92	0x3e8e6536	0.27811593
93	0x3ed44303	0.41457376
94	0xbf9ccf68	-1.2250795
95	0x3f7e417c	0.9931867
96	0xbfd2c910	-1.646761
97	0xbfa382c4	-1.2774282
98	0x3d43ab08	0.04777053
99	0xc003a307	-2.0568254
100	0xbf542093	-0.82862204
101	0x3e2bb212	0.16767147
102	0x3d6b14e0	0.057392955
103	0xbea1c838	-0.31598067
104	0x3f977dc0	1.1835251
105	0x3f701254	0.93777966
106	0xbf473b81	-0.7782517
107	0x3f42670a	0.75938475
108	0xbf53a530	-0.8267393
109	0xbfb55daf	-1.4169215
110	0x3ebd9636	0.37028664
111	0xba6e5187	-0.0009091128
112	0xbebb4df1	-0.36582902
113	0xbe89cda3	-0.269147
114	0xbe31ed5b	-0.173757
115	0xbf4cd16e	-0.80007064
116	0xbf9c5927	-1.2214707
117	0x3dcf5ca1	0.101250894
118	0xbf266edf	-0.65012926
119	0xc00a6241	-2.162247
120	0xbcc20922	-0.023685995
121	0xbfc6b20a	-1.5523083
122	0xbec4625f	-0.383563
123	0xbff3c9e1	-1.9045984
124	0xbe0a229a	-0.13489762
125	0xbedd8252	-0.4326349
126	0xbf4589d6	-0.77163446
127	0xbf9c0cf2	-1.219145
128	0x3e93b1a5	0.2884647
129	0x3ff4f5f3	1.9137558
130	0x3f0428f4	0.5162499
131	0xbf2b5e62	-0.6694089
132	0xbf800fcc	-1.0004821
133	0x3f349887	0.7054524
134	0x3fd33fdc	1.6503863
135	0x3e3e77f1	0.18600442
136	0x3e1199e7	0.14218865
137	0x3fc75dbe	1.5575483
138	0xbe4f2b41	-0.20231344
139	0x3fb001a4	1.3750501
140	0xbf226e38	-0.6344943
141	0x3f2771c1	0.6540795
142	0x3f2acc92	0.667184
143	0xbda3b805	-0.07994083
144	0x3e229910	0.15878701
145	0x4009dc32	2.1540647
146	0xc0258d73	-2.5867584
147	0xbe8d53c5	-0.27602974
148	0xbead8be9	-0.33895805
149	0x3f2e0871	0.6798163
150	0xbfab8ed9	-1.3402969
151	0x3f28874f	0.65831465
152	0x3fce5659	1.6120101
153	0xbf530a20	-0.82437325
154	0x3eab3c77	0.3344457
155	0xbffe9b54	-1.9891152
156	0x3f877fe7	1.0585908
157	0x3fd0f211	1.6323873
158	0x3f528f03	0.8224947
159	0xbf8a1503	-1.0787662
160	0x3eb2b129	0.34900787
161	0xbf46f4ae	-0.777171
162	0x3ed8518d	0.42249718
163	0x3ef2ada0	0.4739809
164	0x3fec4a4e	1.8460176
165	0x3f89dada	1.0769913
166	0xbf971370	-1.1802807
167	0xbfad51d1	-1.3540593
168	0xbf25f7d2	-0.6483127
169	0x3fb7e5de	1.4367025
170	0xbde9880c	-0.11402902
171	0xbf144255	-0.57913715
172	0xbfaaea74	-1.33528
173	0x3eef4974	0.46735728
174	0xbfb2b354	-1.3960977
175	0x40133930	2.3003654
176	0xbfd18d05	-1.6371161
177	0xbfafaeab	-1.372518
178	0xbf6f21b0	-0.9341078
179	0x3f0cce27	0.55002064
180	0xbdd7e507	-0.105417304
181	0x3da2639e	0.07929157
182	0x3e436e67	0.19085084
183	0xbfbcc36d	-1.4747139
184	0x3e5d70ca	0.21625057
185	0x402b23e1	2.6740649
186	0x4035c362	2.8400502
187	0xbe67b81b	-0.22628824
188	0xbfe45797	-1.783923
189	0x3fc95edb	1.5732073
190	0xbf111de9	-0.56686264
191	0x3f0d7c8f	0.55268186
192	0x3efd14ec	0.49430025
193	0xbf62b62c	-0.8855922
194	0x3f2e09f9	0.6798397
195	0xbdba6fa5	-0.09103326
196	0xbff677f3	-1.9255356
197	0xbfb82326	-1.4385726
198	0xbea3b0de	-0.31970876
199	0xbf08f10a	-0.53492796
200	0xbda507ea	-0.0805815
201	0x3ee8a7e6	0.45440596
202	0x3c7c1d73	0.015387881
203	0x3e8a7af2	0.27046925
204	0xbf06dec5	-0.5268367
205	0x3f5cc5ad	0.8623913
206	0x3f8371d2	1.026911
207	0x3ef09dca	0.46995384
208	0xbd249cfe	-0.040188782
209	0x3ff658ca	1.9245846
210	0xbe87aafe	-0.26497644
211	0x3f0a0a83	0.5392229
212	0xbfd46a7e	-1.6594999
213	0x3f4ade99	0.7924591
214	0xbfb85bda	-1.4403031
215	0x3f1ef641	0.62094504
216	0x3e9ace45	0.30235496
217	0x3e114b69	0.14188923
218	0x3f8287f5	1.0197741
219	0xbe9f1410	-0.31069994
220	0x3fa69bcb	1.3016294
221	0x3edc7df1	0.43064836
222	0x3f2cd704	0.6751559
223	0x400cc680	2.1996155
224	0x3f929633	1.1452087
225	0x3f6e73dd	0.93145543
226	0x3e52231f	0.2052121
227	0xbeccfcac	-0.40036523
228	0x3db4f649	0.08836038
229	0xbe270f13	-0.16314344
230	0xbfba145f	-1.4537467
231	0x3fa1b816	1.2634304
232	0x3f5d49ce	0.8644074
233	0x3fac7234	1.3472352
234	0x3f89c922	1.0764506
235	0xbde5f352	-0.1122805
236	0xbe5e5192	-0.21710804
237	0xbc6957d7	-0.014242134
238	0xbf989c65	-1.1922728
239	0xbeea84e1	-0.45804504
240	0x3e702e62	0.23455194
241	0xbf82b9e8	-1.0212984
242	0x3f51e446	0.8198894
243	0x3ed35063	0.41272268
244	0xbfbb4662	-1.4630854
245	0x3f96499c	1.1741214
246	0x3f86907b	1.0512842
247	0xbf989cfc	-1.1922908
248	0xbe9765b5	-0.29569784
249	0xbf584c30	-0.8449125
250	0x3d9fae39	0.07796902
251	0xbfb99f50	-1.4501743
252	0x3f0f7cef	0.5605001
253	0x3fca9e86	1.5829628
254	0xbff758e1	-1.9323999
255	0xc00b3b19	-2.175482

layers.1.0.output_mask f4 [80]
0	0x3f800000	1.0
1	0x3f800000	1.0
2	0x3f800000	1.0
3	0x3f800000	1.0
4	0x3f800000	1.0
5	0x3f800000	1.0
6	0x3f800000	1.0
7	0x3f800000	1.0
8	0x3f800000	1.0
9	0x3f800000	1.0
10	0x3f800000	1.0
11	0x3f800000	1.0
12	0x3f800000	1.0
13	0x3f800000	1.0
14	0x3f800000	1.0
15	0x3f800000	1.0
16	0x3f800000	1.0
17	0x3f800000	1.0
18	0x3f800000	1.0
19	0x3f800000	1.0
20	0x3f800000	1.0
21	0x3f800000	1.0
22	0x3f800000	1.0
23	0x3f800000	1.0
24	0x3f800000	1.0
25	0x3f800000	1.0
26	0x3f800000	1.0
27	0x3f800000	1.0
28	0x3f800000	1.0
29	0x3f800000	1.0
30	0x3f800000	1.0
31	0x3f800000	1.0
32	0x3f800000	1.0
33	0x3f800000	1.0
34	0x3f800000	1.0
35	0x3f800000	1.0
36	0x3f800000	1.0
37	0x3f800000	1.0
38	0x3f800000	1.0
39	0x3f800000	1.0
40	0x3f800000	1.0
41	0x3f800000	1.0
42	0x3f800000	1.0
43	0x3f800000	1.0
44	0x3f800000	1.0
45	0x3f800000	1.0
46	0x3f800000	1.0
47	0x3f800000	1.0
48	0x3f800000	1.0
49	0x3f800000	1.0
50	0x3f800000	1.0
51	0x3f800000	1.0
52	0x3f800000	1.0
53	0x3f800000	1.0
54	0x3f800000	1.0
55	0x3f800000	1.0
56	0x3f800000	1.0
57	0x3f800000	1.0
58	0x3f800000	1.0
59	0x3f800000	1.0
60	0x3f800000	1.0
61	0x3f800000	1.0
62	0x3f800000	1.0
63	0x3f800000	1.0
64	0x3f800000	1.0
65	0x3f800000	1.0
66	0x3f800000	1.0
67	0x3f800000	1.0
68	0x3f800000	1.0
69	0x3f800000	1.0
70	0x3f800000	1.0
71	0x3f800000	1.0
72	0x3f800000	1.0
73	0x3f800000	1.0
74	0x3f800000	1.0
75	0x3f800000	1.0
76	0x3f800000	1.0
77	0x3f800000	1.0
78	0x3f800000	1.0
79	0x3f800000	1.0

layers.1.1.mul.output_mask f4 [48]
0	0x3f800000	1.0
1	0x3f800000	1.0
2	0x3f800000	1.0
3	0x3f800000	1.0
4	0x3f800000	1.0
5	0x3f800000	1.0
6	0x3f800000	1.0
7	0x3f800000	1.0
8	0x3f800000	1.0
9	0x3f800000	1.0
10	0x3f800000	1.0
11	0x3f800000	1.0
12	0x3f800000	1.0
13	0x3f800000	1.0
14	0x3f800000	1.0
15	0x3f800000	1.0
16	0x3f800000	1.0
17	0x3f800000	1.0
18	0x3f800000	1.0
19	0x3f800000	1.0
20	0x3f800000	1.0
21	0x3f800000	1.0
22	0x3f800000	1.0
23	0x3f800000	1.0
24	0x3f800000	1.0
25	0x3f800000	1.0
26	0x3f800000	1.0
27	0x3f800000	1.0
28	0x3f800000	1.0
29	0x3f800000	1.0
30	0x3f800000	1.0
31	0x3f800000	1.0
32	0x3f800000	1.0
33	0x3f800000	1.0
34	0x3f800000	1.0
35	0x3f800000	1.0
36	0x3f800000	1.0
37	0x3f800000	1.0
38	0x3f800000	1.0
39	0x3f800000	1.0
40	0x3f800000	1.0
41	0x3f800000	1.0
42	0x3f800000	1.0
43	0x3f800000	1.0
44	0x3f800000	1.0
45	0x3f800000	1.0
46	0x3f800000	1.0
47	0x3f800000	1.0

layers.2.0.weight f4 [24576]
0	0x3fc20928	1.5159044
1	0xbeb9cfa0	-0.36291218
2	0xbf21a8a2	-0.6314794
3	0xbe5a9b7d	-0.21348377
4	0x3f3cb91d	0.7371996
5	0x3f0ff10d	0.5622719
6	0xbf80106f	-1.0005015
7	0xbf6824ee	-0.9068135
8	0xbe9769ff	-0.29573056
9	0x3ec8643e	0.3913898
10	0xbf9ecfdc	-1.2407184
11	0x3f0ae09c	0.54248977
12	0xbf99d623	-1.2018474
13	0xbf6fe3b0	-0.937068
14	0xbf1c00d9	-0.60938793
15	0xbf1b422c	-0.60647845
16	0x3fc559dd	1.5418049
17	0xbf639efc	-0.88914466
18	0x3f14fb23	0.58195704
19	0xbe3a5f71	-0.1820047
20	0x3f611a03	0.87930316
21	0xbed32a78	-0.4124334
22	0xbfd05f70	-1.6279125
23	0xbd871c80	-0.06597233
24	0x3f2d9d35	0.67818004
25	0xbe19b9f1	-0.15012337
26	0xbff6eff3	-1.9291977
27	0x3f4a4831	0.79016405
28	0xbf773550	-0.96565723
29	0x3fdae0e0	1.7099876
30	0x3f799043	0.9748575
31	0x3f5d35bd	0.86410123
32	0x3fa29f6c	1.2704902
33	0xbd7b11ee	-0.061296396
34	0xc006144e	-2.0949893
35	0x3fa331b8	1.2749548
36	0xbf13bafc	-0.5770719
37	0x400562ae	2.084148
38	0x3f71fefc	0.945297
39	0x3f16001f	0.58593935
40	0xbfb18d15	-1.387118
41	0x3c2cc7ee	0.010545714
42	0xbfceda9d	-1.6160465
43	0x3f2948b1	0.66126543
44	0xbda2e857	-0.079544716
45	0x3f4ea8dd	0.80726415
46	0xbd9cd5a6	-0.07657938
47	0xbf2eb05e	-0.68237865
48	0xbdc2b5a0	-0.095072985
49	0xbf96f428	-1.179326
50	0xbfb94f6c	-1.4477363
51	0xbfa92dda	-1.3217118
52	0x3ea21d64	0.31663048
53	0xbedc7447	-0.43057463
54	0xbed80539	-0.42191485
55	0xbecce288	-0.4001658
56	0x3dc127dd	0.094314314
57	0x3f4f2553	0.8091633
58	0xbf8dea6b	-1.1087164
59	0x3f2f6a8e	0.68521965
60	0x3f169839	0.58826023
61	0xbe390eed	-0.180721
62	0x3fd9c07f	1.701187
63	0xbeb58cac	-0.35458887
64	0x3ec26921	0.37970832
65	0x3e306dba	0.17229357
66	0x3ebc4a3b	0.36775383
67	0xbfa5826b	-1.2930425
68	0x3fb60c05	1.4222418
69	0x3fe67cb0	1.8006802
70	0xbfb8f4dc	-1.4449725
71	0x3f954d79	1.1664268
72	0x4025561a	2.5833802
73	0x3e9fa0a5	0.3117725
74	0x3e26017c	0.16211504
75	0x3ebf8b2e	0.37410873
76	0xbfd6331e	-1.673435
77	0xbff0f125	-1.8823591
78	0xbf25a285	-0.6470111
79	0x3f3fa22f	0.7485685
80	0x3f267a51	0.6503039
81	0x3eb11cc5	0.34592262
82	0xbe788ac5	-0.24271686
83	0x3f93804a	1.1523526
84	0x3eaaa00d	0.33325234
85	0x3ea46427	0.3210766
86	0xbc08ed17	-0.008357308
87	0x3b8f6161	0.004375622
88	0x3f6bfa9d	0.9217928
89	0x3f3eba02	0.74502575
90	0x3f322238	0.69583464
91	0x3dd2ce74	0.10293284
92	0x401ddaf8	2.4664898
93	0xbeee0471	-0.46487764
94	0x3f459f1d	0.7719591
95	0x3f2522bc	0.64506125
96	0xbd4989e7	-0.04920378
97	0x3f2cfa5e	0.6756953
98	0x3f427bf6	0.759704
99	0x3faa5ad5	1.330897
100	0xbefd9691	-0.49528936
101	0x3f6d3bdf	0.9266948
102	0x3fc74648	1.5568323
103	0xc0223ec4	-2.535081
104	0x3f52594c	0.82167506
105	0x3fb3f6d6	1.4059703
106	0xbe9933fc	-0.29922473
107	0xbfb419d5	-1.4070383
108	0xbed074bd	-0.40714064
109	0x3f540ae4	0.8282912
110	0x402df129	2.7178442
111	0x3ed6e16d	0.4196886
112	0x3f5035db	0.81332177
113	0xc0050e02	-2.07898
114	0xbfcee2d6	-1.6162975
115	0xc02d2749	-2.7055228
116	0x40002b3a	2.0026383
117	0xbea00faf	-0.31261966
118	0xbeeb5891	-0.45966008
119	0x4006890b	2.1021144
120	0xbfd70fcd	-1.6801697
121	0x3f1a6ef7	0.6032557
122	0x3f5bdc09	0.8588262
123	0xbff593eb	-1.9185766
124	0x3d960e71	0.07326973
125	0x3fcddef2	1.6083663
126	0x3fa3c18e	1.2793443
127	0xbfb3568f	-1.401079
128	0x4028063e	2.625381
129	0xbecb945d	-0.3976163
130	0x3e8e9a85	0.27852264
131	0x3e42dcd1	0.19029547
132	0x3fddb5d3	1.7321113
133	0xbd18a7f7	-0.03726956
134	0x3f0929ed	0.535796
135	0xbe006c7f	-0.12541388
136	0xbf4f699a	-0.8102051
137	0x3fa5548c	1.2916427
138	0x3cf9fa39	0.030514823
139	0x3f37218a	0.7153555
140	0x3feb9090	1.8403492
141	0x3e4ec169	0.20190968
142	0x3f3f9660	0.7483883
143	0x3f195b69	0.59905106
144	0x40066594	2.0999498
145	0xbe18c03f	-0.14917086
146	0x3f0f9b9a	0.56096804
147	0xbe54b223	-0.20771079
148	0x3f8361fb	1.0264276
149	0xbfa3dc84	-1.2801671
150	0x3e9ddb4d	0.30831376
151	0xbcc4d64e	-0.02402797
152	0x3f7b1f53	0.9809467
153	0x3ff15abd	1.8855816
154	0x3f05eebb	0.523174
155	0x3f68e75f	0.90978044
156	0x3f08b115	0.53395206
157	0x3f168b01	0.58805853
158	0x3f1abb0d	0.60441667
159	0x3bc85e6f	0.006114773
160	0x3f39754e	0.7244462
161	0xbcd5f8a3	-0.026119536
162	0x3f03a908	0.51429796
163	0xbfb490b3	-1.4106659
164	0xbf660ffb	-0.89868134
165	0x3fa5d8af	1.2956752
166	0x3f8ba119	1.0908538
167	0x3e983129	0.29725006
168	0xbf5bf528	-0.85920954
169	0x3e9d89ca	0.30769187
170	0xbfdfb1d2	-1.7476141
171	0x3b36b54f	0.0027879064
172	0x3e7cdbf5	0.24693282
173	0x3ea54dec	0.32286012
174	0x3e8c97e2	0.27459627
175	0xbfdfd00e	-1.7485368
176	0x3fc0b7f2	1.5056136
177	0x3f5ce690	0.8628931
178	0xbed2018a	-0.410168
179	0xbf362b52	-0.7115985
180	0xbd879c0f	-0.06621563
181	0x3ee41931	0.4455047
182	0x3c1f90c5	0.009739106
183	0xbf0f8e5a	-0.56076586
184	0xbf12bafc	-0.57316566
185	0x4001fb77	2.0309732
186	0xbfaad7dc	-1.3347125
187	0x3eb3f3fc	0.35147083
188	0x3cfecc45	0.031103263
189	0xbf437f45	-0.7636607
190	0x3fbe6a3c	1.487617
191	0x3e96ff21	0.29491523
192	0x3f39a495	0.7251676
193	0xc05de48e	-3.4670749
194	0x3fb47b53	1.4100136
195	0xbe3f478e	-0.1867964
196	0x3e496dcc	0.1967079
197	0xbec77ba1	-0.3896151
198	0xbeaceefa	-0.33776075
199	0x3ed05cb1	0.40695718
200	0xbfa3a39c	-1.2784305
201	0xbf925e7b	-1.1435083
202	0xbf9b6625	-1.2140547
203	0x3f4aa7d2	0.79162323
204	0xbd1d0313	-0.03833301
205	0x3ea6041b	0.32425007
206	0x3f3e70bb	0.74390763
207	0xbe7dd2f9	-0.24787511
208	0x3fb9b2f0	1.4507732
209	0x3e8ea7bb	0.27862343
210	0x3f6351b7	0.8879656
211	0x3e830de3	0.25596532
212	0xbd0156bb	-0.031576853
213	0xc0006499	-2.00614
214	0xbf7a6b27	-0.9781975
215	0xbf70dc6f	-0.94086355
216	0xbf632a45	-0.88736373
217	0x3fe1dccf	1.764551
218	0x3f89c517	1.0763272
219	0x401651c1	2.3487399
220	0x400726c4	2.111741
221	0xbf434ff3	-0.7629387
222	0x3f61c4c4	0.88190866
223	0x3faa134d	1.328714
224	0x3ee7162a	0.45134097
225	0xbf87e913	-1.0618004
226	0xbe810b38	-0.25203872
227	0x4035f9cc	2.8433714
228	0xbf58982d	-0.846072
229	0x3ef16b4c	0.47152174
230	0xbe94cc27	-0.29062006
231	0xbec08477	-0.37601063
232	0xc02e55ad	-2.7239792
233	0x3f344f2d	0.7043331
234	0x40203a99	2.5035765
235	0xbe5178dc	-0.2045626
236	0xbfc8bf32	-1.5683348
237	0x3cbdc606	0.023165714
238	0xbb542c31	-0.0032374973
239	0x40052221	2.080208
240	0x3eba2f2e	0.3636412
241	0xbf5a8341	-0.8535653
242	0xbf9ddd7c	-1.2333217
243	0xbf5db1dd	-0.8659952
244	0x3fcc36e1	1.5954248
245	0x3eac8c33	0.33700714
246	0xbe8e3413	-0.27774104
247	0x3e90bb80	0.2826805
248	0x3e6152bc	0.22004217
249	0xc00ad93d	-2.1695092
250	0xbe039e0f	-0.12853263
251	0xbfcf8784	-1.6213231
252	0xbf18e60a	-0.5972601
253	0xbe8bcf92	-0.273068
254	0x3f13a9c4	0.57680917
255	0x3e0747e1	0.13211013

layers.2.0.output_mask f4 [80]
0	0x3f800000	1.0
1	0x3f800000	1.0
2	0x3f800000	1.0
3	0x3f800000	1.0
4	0x3f800000	1.0
5	0x3f800000	1.0
6	0x3f800000	1.0
7	0x3f800000	1.0
8	0x3f800000	1.0
9	0x3f800000	1.0
10	0x3f800000	1.0
11	0x3f800000	1.0
12	0x3f800000	1.0
13	0x3f800000	1.0
14	0x3f800000	1.0
15	0x3f800000	1.0
16	0x3f800000	1.0
17	0x3f800000	1.0
18	0x3f800000	1.0
19	0x3f800000	1.0
20	0x3f800000	1.0
21	0x3f800000	1.0
22	0x3f800000	1.0
23	0x3f800000	1.0
24	0x3f800000	1.0
25	0x3f800000	1.0
26	0x3f800000	1.0
27	0x3f800000	1.0
28	0x3f800000	1.0
29	0x3f800000	1.0
30	0x3f800000	1.0
31	0x3f800000	1.0
32	0x3f800000	1.0
33	0x3f800000	1.0
34	0x3f800000	1.0
35	0x3f800000	1.0
36	0x3f800000	1.0
37	0x3f800000	1.0
38	0x3f800000	1.0
39	0x3f800000	1.0
40	0x3f800000	1.0
41	0x3f800000	1.0
42	0x3f800000	1.0
43	0x3f800000	1.0
44	0x3f800000	1.0
45	0x3f800000	1.0
46	0x3f800000	1.0
47	0x3f800000	1.0
48	0x3f800000	1.0
49	0x3f800000	1.0
50	0x3f800000	1.0
51	0x3f800000	1.0
52	0x3f800000	1.0
53	0x3f800000	1.0
54	0x3f800000	1.0
55	0x3f800000	1.0
56	0x3f800000	1.0
57	0x3f800000	1.0
58	0x3f800000	1.0
59	0x3f800000	1.0
60	0x3f800000	1.0
61	0x3f800000	1.0
62	0x3f800000	1.0
63	0x3f800000	1.0
64	0x3f800000	1.0
65	0x3f800000	1.0
66	0x3f800000	1.0
67	0x3f800000	1.0
68	0x3f800000	1.0
69	0x3f800000	1.0
70	0x3f800000	1.0
71	0x3f800000	1.0
72	0x3f800000	1.0
73	0x3f800000	1.0
74	0x3f800000	1.0
75	0x3f800000	1.0
76	0x3f800000	1.0
77	0x3f800000	1.0
78	0x3f800000	1.0
79	0x3f800000	1.0

layers.2.1.mul.output_mask f4 [48]
0	0x3f800000	1.0
1	0x3f800000	1.0
2	0x3f800000	1.0
3	0x3f800000	1.0
4	0x3f800000	1.0
5	0x3f800000	1.0
6	0x3f800000	1.0
7	0x3f800000	1.0
8	0x3f800000	1.0
9	0x3f800000	1.0
10	0x3f800000	1.0
11	0x3f800000	1.0
12	0x3f800000	1.0
13	0x3f800000	1.0
14	0x3f800000	1.0
15	0x3f800000	1.0
16	0x3f800000	1.0
17	0x3f800000	1.0
18	0x3f800000	1.0
19	0x3f800000	1.0
20	0x3f800000	1.0
21	0x3f800000	1.0
22	0x3f800000	1.0
23	0x3f800000	1.0
24	0x3f800000	1.0
25	0x3f800000	1.0
26	0x3f800000	1.0
27	0x3f800000	1.0
28	0x3f800000	1.0
29	0x3f800000	1.0
30	0x3f800000	1.0
31	0x3f800000	1.0
32	0x3f800000	1.0
33	0x3f800000	1.0
34	0x3f800000	1.0
35	0x3f800000	1.0
36	0x3f800000	1.0
37	0x3f800000	1.0
38	0x3f800000	1.0
39	0x3f800000	1.0
40	0x3f800000	1.0
41	0x3f800000	1.0
42	0x3f800000	1.0
43	0x3f800000	1.0
44	0x3f800000	1.0
45	0x3f800000	1.0
46	0x3f800000	1.0
47	0x3f800000	1.0

readout.weight f4 [16]
0	0x3f42ca8c	0.7609031
1	0x3ee02f07	0.4378588
2	0xbec91444	-0.39273274
3	0x3eebafc3	0.46032533
4	0xbfe4ce2f	-1.7875422
5	0xbf48c3ba	-0.78423655
6	0xbeb54c89	-0.35409954
7	0xbf666d75	-0.9001077
8	0xbf3cd508	-0.7376256
9	0x3f3600e4	0.7109511
10	0xbf11c5b1	-0.5694228
11	0x3ec97621	0.39347938
12	0x3ed3757b	0.41300568
13	0x3e95cc73	0.29257545
14	0x4014001e	2.3125072
15	0x3eb92e62	0.361682
